{"format": "graph-model", "generatedBy": "2.11.0", "convertedBy": "TensorFlow.js Converter v4.2.0", "signature": {"inputs": {"xs_0": {"name": "xs_0:0", "dtype": "DT_FLOAT", "tensorShape": {"dim": [{"size": "1"}]}}}, "outputs": {"output_0": {"name": "Identity:0", "dtype": "DT_FLOAT", "tensorShape": {"dim": [{"size": "92"}, {"size": "92"}, {"size": "3"}]}}}}, "modelTopology": {"node": [{"name": "StatefulPartitionedCall/jax2tf_main_/pjit_atleast_3d_/Reshape/shape", "op": "Const", "attr": {"dtype": {"type": "DT_INT32"}, "value": {"tensor": {"dtype": "DT_INT32", "tensorShape": {"dim": [{"size": "3"}]}}}}}, {"name": "StatefulPartitionedCall/jax2tf_main_/pjit_atleast_3d_/Reshape_1/shape", "op": "Const", "attr": {"dtype": {"type": "DT_INT32"}, "value": {"tensor": {"dtype": "DT_INT32", "tensorShape": {"dim": [{"size": "3"}]}}}}}, {"name": "StatefulPartitionedCall/Const_97", "op": "Const", "attr": {"dtype": {"type": "DT_FLOAT"}, "value": {"tensor": {"dtype": "DT_FLOAT", "tensorShape": {}}}}}, {"name": "StatefulPartitionedCall/Const_95", "op": "Const", "attr": {"value": {"tensor": {"dtype": "DT_FLOAT", "tensorShape": {}}}, "dtype": {"type": "DT_FLOAT"}}}, {"name": "StatefulPartitionedCall/jax2tf_main_/vmap/vmap/transpose/jax2tf_main_/vmap/vmap/jvp/Const_11", "op": "Const", "attr": {"dtype": {"type": "DT_BOOL"}, "value": {"tensor": {"dtype": "DT_BOOL", "tensorShape": {}}}}}, {"name": "StatefulPartitionedCall/jax2tf_main_/vmap/vmap/transpose/jax2tf_main_/vmap/vmap/jvp/pjit_absolute_/BroadcastTo_9", "op": "Const", "attr": {"dtype": {"type": "DT_FLOAT"}, "value": {"tensor": {"dtype": "DT_FLOAT", "tensorShape": {"dim": [{"size": "92"}, {"size": "92"}, {"size": "3"}]}}}}}, {"name": "StatefulPartitionedCall/jax2tf_main_/vmap/vmap/jvp/Const_5", "op": "Const", "attr": {"dtype": {"type": "DT_FLOAT"}, "value": {"tensor": {"dtype": "DT_FLOAT", "tensorShape": {}}}}}, {"name": "StatefulPartitionedCall/jax2tf_main_/vmap/vmap/transpose/jax2tf_main_/vmap/vmap/jvp/Const_9", "op": "Const", "attr": {"dtype": {"type": "DT_BOOL"}, "value": {"tensor": {"dtype": "DT_BOOL", "tensorShape": {}}}}}, {"name": "StatefulPartitionedCall/jax2tf_main_/vmap/vmap/jvp/Const_7", "op": "Const", "attr": {"value": {"tensor": {"dtype": "DT_FLOAT", "tensorShape": {}}}, "dtype": {"type": "DT_FLOAT"}}}, {"name": "StatefulPartitionedCall/jax2tf_main_/vmap/vmap/jvp/pjit_norm_/Sum_1/reduction_indices", "op": "Const", "attr": {"dtype": {"type": "DT_INT32"}, "value": {"tensor": {"dtype": "DT_INT32", "tensorShape": {"dim": [{"size": "1"}]}}}}}, {"name": "StatefulPartitionedCall/jax2tf_main_/vmap/vmap/transpose/jax2tf_main_/vmap/vmap/jvp/pjit_norm_/Reshape_1/shape", "op": "Const", "attr": {"value": {"tensor": {"dtype": "DT_INT32", "tensorShape": {"dim": [{"size": "3"}]}}}, "dtype": {"type": "DT_INT32"}}}, {"name": "StatefulPartitionedCall/jax2tf_main_/vmap/vmap/transpose/jax2tf_main_/vmap/vmap/jvp/pjit_norm_/BroadcastTo_1/shape", "op": "Const", "attr": {"dtype": {"type": "DT_INT32"}, "value": {"tensor": {"dtype": "DT_INT32", "tensorShape": {"dim": [{"size": "3"}]}}}}}, {"name": "StatefulPartitionedCall/jax2tf_main_/vmap/vmap/pjit__lambda__/Reshape_20/shape", "op": "Const", "attr": {"dtype": {"type": "DT_INT32"}, "value": {"tensor": {"dtype": "DT_INT32", "tensorShape": {"dim": [{"size": "3"}]}}}}}, {"name": "StatefulPartitionedCall/jax2tf_main_/vmap/vmap/pjit_fn_/Cast", "op": "Const", "attr": {"value": {"tensor": {"dtype": "DT_FLOAT", "tensorShape": {}}}, "dtype": {"type": "DT_FLOAT"}}}, {"name": "StatefulPartitionedCall/jax2tf_main_/vmap/vmap/pjit_dot_/Reshape/shape", "op": "Const", "attr": {"value": {"tensor": {"dtype": "DT_INT32", "tensorShape": {"dim": [{"size": "3"}]}}}, "dtype": {"type": "DT_INT32"}}}, {"name": "StatefulPartitionedCall/jax2tf_main_/vmap/vmap/transpose/jax2tf_main_/vmap/vmap/jvp/Const_5", "op": "Const", "attr": {"dtype": {"type": "DT_BOOL"}, "value": {"tensor": {"dtype": "DT_BOOL", "tensorShape": {}}}}}, {"name": "StatefulPartitionedCall/jax2tf_main_/vmap/vmap/transpose/jax2tf_main_/vmap/vmap/jvp/pjit_absolute_/BroadcastTo_4", "op": "Const", "attr": {"value": {"tensor": {"dtype": "DT_FLOAT", "tensorShape": {"dim": [{"size": "92"}, {"size": "92"}, {"size": "3"}]}}}, "dtype": {"type": "DT_FLOAT"}}}, {"name": "StatefulPartitionedCall/jax2tf_main_/vmap/vmap/jvp/Const_1", "op": "Const", "attr": {"dtype": {"type": "DT_FLOAT"}, "value": {"tensor": {"dtype": "DT_FLOAT", "tensorShape": {}}}}}, {"name": "StatefulPartitionedCall/jax2tf_main_/vmap/vmap/transpose/jax2tf_main_/vmap/vmap/jvp/Const_3", "op": "Const", "attr": {"dtype": {"type": "DT_BOOL"}, "value": {"tensor": {"dtype": "DT_BOOL", "tensorShape": {}}}}}, {"name": "StatefulPartitionedCall/jax2tf_main_/vmap/vmap/jvp/Const_3", "op": "Const", "attr": {"dtype": {"type": "DT_FLOAT"}, "value": {"tensor": {"dtype": "DT_FLOAT", "tensorShape": {}}}}}, {"name": "StatefulPartitionedCall/jax2tf_main_/vmap/vmap/jvp/pjit_norm_/Sum/reduction_indices", "op": "Const", "attr": {"dtype": {"type": "DT_INT32"}, "value": {"tensor": {"dtype": "DT_INT32", "tensorShape": {"dim": [{"size": "1"}]}}}}}, {"name": "StatefulPartitionedCall/jax2tf_main_/vmap/vmap/transpose/jax2tf_main_/vmap/vmap/jvp/pjit_norm_/Reshape/shape", "op": "Const", "attr": {"dtype": {"type": "DT_INT32"}, "value": {"tensor": {"dtype": "DT_INT32", "tensorShape": {"dim": [{"size": "3"}]}}}}}, {"name": "StatefulPartitionedCall/jax2tf_main_/vmap/vmap/transpose/jax2tf_main_/vmap/vmap/jvp/pjit_norm_/BroadcastTo/shape", "op": "Const", "attr": {"dtype": {"type": "DT_INT32"}, "value": {"tensor": {"dtype": "DT_INT32", "tensorShape": {"dim": [{"size": "3"}]}}}}}, {"name": "StatefulPartitionedCall/jax2tf_main_/vmap/vmap/pjit_fn_/BroadcastTo_38", "op": "Const", "attr": {"value": {"tensor": {"dtype": "DT_FLOAT", "tensorShape": {"dim": [{"size": "1"}, {"size": "1"}, {"size": "3"}]}}}, "dtype": {"type": "DT_FLOAT"}}}, {"name": "StatefulPartitionedCall/jax2tf_main_/vmap/vmap/pjit_fn_/BroadcastTo_35", "op": "Const", "attr": {"value": {"tensor": {"dtype": "DT_FLOAT", "tensorShape": {"dim": [{"size": "1"}, {"size": "1"}, {"size": "3"}]}}}, "dtype": {"type": "DT_FLOAT"}}}, {"name": "StatefulPartitionedCall/jax2tf_main_/vmap/vmap/pjit_fn_/BroadcastTo_32", "op": "Const", "attr": {"value": {"tensor": {"dtype": "DT_FLOAT", "tensorShape": {"dim": [{"size": "1"}, {"size": "1"}, {"size": "3"}]}}}, "dtype": {"type": "DT_FLOAT"}}}, {"name": "StatefulPartitionedCall/jax2tf_main_/vmap/vmap/pjit_fn_/BroadcastTo_29", "op": "Const", "attr": {"value": {"tensor": {"dtype": "DT_FLOAT", "tensorShape": {"dim": [{"size": "1"}, {"size": "1"}, {"size": "3"}]}}}, "dtype": {"type": "DT_FLOAT"}}}, {"name": "StatefulPartitionedCall/jax2tf_main_/vmap/vmap/pjit_fn_/BroadcastTo_26", "op": "Const", "attr": {"dtype": {"type": "DT_FLOAT"}, "value": {"tensor": {"dtype": "DT_FLOAT", "tensorShape": {"dim": [{"size": "1"}, {"size": "1"}, {"size": "3"}]}}}}}, {"name": "StatefulPartitionedCall/jax2tf_main_/vmap/vmap/pjit_fn_/BroadcastTo_23", "op": "Const", "attr": {"dtype": {"type": "DT_FLOAT"}, "value": {"tensor": {"dtype": "DT_FLOAT", "tensorShape": {"dim": [{"size": "1"}, {"size": "1"}, {"size": "3"}]}}}}}, {"name": "StatefulPartitionedCall/jax2tf_main_/vmap/vmap/pjit_fn_/BroadcastTo_20", "op": "Const", "attr": {"value": {"tensor": {"dtype": "DT_FLOAT", "tensorShape": {"dim": [{"size": "1"}, {"size": "1"}, {"size": "3"}]}}}, "dtype": {"type": "DT_FLOAT"}}}, {"name": "StatefulPartitionedCall/jax2tf_main_/vmap/vmap/pjit_fn_/BroadcastTo_17", "op": "Const", "attr": {"value": {"tensor": {"dtype": "DT_FLOAT", "tensorShape": {"dim": [{"size": "1"}, {"size": "1"}, {"size": "3"}]}}}, "dtype": {"type": "DT_FLOAT"}}}, {"name": "StatefulPartitionedCall/jax2tf_main_/vmap/vmap/pjit_fn_/BroadcastTo_14", "op": "Const", "attr": {"value": {"tensor": {"dtype": "DT_FLOAT", "tensorShape": {"dim": [{"size": "1"}, {"size": "1"}, {"size": "3"}]}}}, "dtype": {"type": "DT_FLOAT"}}}, {"name": "StatefulPartitionedCall/jax2tf_main_/vmap/vmap/pjit_fn_/BroadcastTo_11", "op": "Const", "attr": {"dtype": {"type": "DT_FLOAT"}, "value": {"tensor": {"dtype": "DT_FLOAT", "tensorShape": {"dim": [{"size": "1"}, {"size": "1"}, {"size": "3"}]}}}}}, {"name": "StatefulPartitionedCall/jax2tf_main_/vmap/vmap/pjit__lambda__/BroadcastTo_3", "op": "Const", "attr": {"dtype": {"type": "DT_FLOAT"}, "value": {"tensor": {"dtype": "DT_FLOAT", "tensorShape": {"dim": [{"size": "1"}, {"size": "1"}, {"size": "3"}]}}}}}, {"name": "StatefulPartitionedCall/jax2tf_main_/vmap/vmap/pjit_norm_/Sum_5/reduction_indices", "op": "Const", "attr": {"dtype": {"type": "DT_INT32"}, "value": {"tensor": {"dtype": "DT_INT32", "tensorShape": {"dim": [{"size": "1"}]}}}}}, {"name": "StatefulPartitionedCall/jax2tf_main_/vmap/vmap/pjit_true_divide_/truediv_1", "op": "Const", "attr": {"dtype": {"type": "DT_FLOAT"}, "value": {"tensor": {"dtype": "DT_FLOAT", "tensorShape": {"dim": [{"size": "3"}]}}}}}, {"name": "StatefulPartitionedCall/jax2tf_main_/vmap/vmap/clip_by_value", "op": "Const", "attr": {"dtype": {"type": "DT_INT32"}, "value": {"tensor": {"dtype": "DT_INT32", "tensorShape": {"dim": [{"size": "1"}]}}}}}, {"name": "StatefulPartitionedCall/jax2tf_main_/vmap/vmap/Slice/size", "op": "Const", "attr": {"dtype": {"type": "DT_INT32"}, "value": {"tensor": {"dtype": "DT_INT32", "tensorShape": {"dim": [{"size": "1"}]}}}}}, {"name": "StatefulPartitionedCall/jax2tf_main_/vmap/vmap/Reshape/shape_1", "op": "Const", "attr": {"dtype": {"type": "DT_INT32"}, "value": {"tensor": {"dtype": "DT_INT32", "tensorShape": {"dim": [{}]}}}}}, {"name": "StatefulPartitionedCall/jax2tf_main_/vmap/vmap/pjit_fn_/Reshape_2/shape", "op": "Const", "attr": {"value": {"tensor": {"dtype": "DT_INT32", "tensorShape": {"dim": [{"size": "2"}]}}}, "dtype": {"type": "DT_INT32"}}}, {"name": "StatefulPartitionedCall/jax2tf_main_/vmap/vmap/pjit_fn_/Mul_1", "op": "Const", "attr": {"dtype": {"type": "DT_FLOAT"}, "value": {"tensor": {"dtype": "DT_FLOAT", "tensorShape": {"dim": [{"size": "92"}, {"size": "3"}]}}}}}, {"name": "StatefulPartitionedCall/jax2tf_main_/vmap/vmap/pjit_fn_/Reshape_6/shape", "op": "Const", "attr": {"dtype": {"type": "DT_INT32"}, "value": {"tensor": {"dtype": "DT_INT32", "tensorShape": {"dim": [{"size": "3"}]}}}}}, {"name": "StatefulPartitionedCall/jax2tf_main_/vmap/vmap/pjit_fn_/BroadcastTo_5", "op": "Const", "attr": {"value": {"tensor": {"dtype": "DT_FLOAT", "tensorShape": {"dim": [{"size": "92"}, {"size": "1"}, {"size": "3"}]}}}, "dtype": {"type": "DT_FLOAT"}}}, {"name": "StatefulPartitionedCall/jax2tf_main_/vmap/vmap/pjit_norm_/Sum_3/reduction_indices", "op": "Const", "attr": {"value": {"tensor": {"dtype": "DT_INT32", "tensorShape": {"dim": [{"size": "1"}]}}}, "dtype": {"type": "DT_INT32"}}}, {"name": "StatefulPartitionedCall/jax2tf_main_/vmap/vmap/pjit_true_divide_/Reshape/shape", "op": "Const", "attr": {"value": {"tensor": {"dtype": "DT_INT32", "tensorShape": {"dim": [{"size": "3"}]}}}, "dtype": {"type": "DT_INT32"}}}, {"name": "StatefulPartitionedCall/jax2tf_main_/vmap/vmap/pjit_fn_/Reshape_12/shape", "op": "Const", "attr": {"dtype": {"type": "DT_INT32"}, "value": {"tensor": {"dtype": "DT_INT32", "tensorShape": {"dim": [{"size": "3"}]}}}}}, {"name": "StatefulPartitionedCall/jax2tf_main_/vmap/vmap/pjit__lambda__/BroadcastTo_5", "op": "Const", "attr": {"value": {"tensor": {"dtype": "DT_FLOAT", "tensorShape": {"dim": [{"size": "1"}, {"size": "1"}, {"size": "3"}]}}}, "dtype": {"type": "DT_FLOAT"}}}, {"name": "StatefulPartitionedCall/jax2tf_main_/vmap/vmap/pjit_norm_/Sum_6/reduction_indices", "op": "Const", "attr": {"dtype": {"type": "DT_INT32"}, "value": {"tensor": {"dtype": "DT_INT32", "tensorShape": {"dim": [{"size": "1"}]}}}}}, {"name": "StatefulPartitionedCall/Const_26", "op": "Const", "attr": {"dtype": {"type": "DT_FLOAT"}, "value": {"tensor": {"dtype": "DT_FLOAT", "tensorShape": {}}}}}, {"name": "StatefulPartitionedCall/jax2tf_main_/vmap/vmap/pjit_fn_/Reshape_15/shape", "op": "Const", "attr": {"value": {"tensor": {"dtype": "DT_INT32", "tensorShape": {"dim": [{"size": "3"}]}}}, "dtype": {"type": "DT_INT32"}}}, {"name": "StatefulPartitionedCall/jax2tf_main_/vmap/vmap/pjit__lambda__/BroadcastTo_7", "op": "Const", "attr": {"value": {"tensor": {"dtype": "DT_FLOAT", "tensorShape": {"dim": [{"size": "1"}, {"size": "1"}, {"size": "3"}]}}}, "dtype": {"type": "DT_FLOAT"}}}, {"name": "StatefulPartitionedCall/jax2tf_main_/vmap/vmap/pjit_norm_/Sum_7/reduction_indices", "op": "Const", "attr": {"value": {"tensor": {"dtype": "DT_INT32", "tensorShape": {"dim": [{"size": "1"}]}}}, "dtype": {"type": "DT_INT32"}}}, {"name": "StatefulPartitionedCall/Const_29", "op": "Const", "attr": {"value": {"tensor": {"dtype": "DT_FLOAT", "tensorShape": {}}}, "dtype": {"type": "DT_FLOAT"}}}, {"name": "StatefulPartitionedCall/jax2tf_main_/vmap/vmap/pjit_fn_/Reshape_18/shape", "op": "Const", "attr": {"value": {"tensor": {"dtype": "DT_INT32", "tensorShape": {"dim": [{"size": "3"}]}}}, "dtype": {"type": "DT_INT32"}}}, {"name": "StatefulPartitionedCall/jax2tf_main_/vmap/vmap/pjit__lambda__/BroadcastTo_9", "op": "Const", "attr": {"dtype": {"type": "DT_FLOAT"}, "value": {"tensor": {"dtype": "DT_FLOAT", "tensorShape": {"dim": [{"size": "1"}, {"size": "1"}, {"size": "3"}]}}}}}, {"name": "StatefulPartitionedCall/jax2tf_main_/vmap/vmap/pjit_norm_/Sum_8/reduction_indices", "op": "Const", "attr": {"dtype": {"type": "DT_INT32"}, "value": {"tensor": {"dtype": "DT_INT32", "tensorShape": {"dim": [{"size": "1"}]}}}}}, {"name": "StatefulPartitionedCall/Const_32", "op": "Const", "attr": {"value": {"tensor": {"dtype": "DT_FLOAT", "tensorShape": {}}}, "dtype": {"type": "DT_FLOAT"}}}, {"name": "StatefulPartitionedCall/jax2tf_main_/vmap/vmap/pjit_fn_/Reshape_21/shape", "op": "Const", "attr": {"value": {"tensor": {"dtype": "DT_INT32", "tensorShape": {"dim": [{"size": "3"}]}}}, "dtype": {"type": "DT_INT32"}}}, {"name": "StatefulPartitionedCall/jax2tf_main_/vmap/vmap/pjit__lambda__/BroadcastTo_11", "op": "Const", "attr": {"dtype": {"type": "DT_FLOAT"}, "value": {"tensor": {"dtype": "DT_FLOAT", "tensorShape": {"dim": [{"size": "1"}, {"size": "1"}, {"size": "3"}]}}}}}, {"name": "StatefulPartitionedCall/jax2tf_main_/vmap/vmap/pjit_norm_/Sum_9/reduction_indices", "op": "Const", "attr": {"dtype": {"type": "DT_INT32"}, "value": {"tensor": {"dtype": "DT_INT32", "tensorShape": {"dim": [{"size": "1"}]}}}}}, {"name": "StatefulPartitionedCall/Const_35", "op": "Const", "attr": {"value": {"tensor": {"dtype": "DT_FLOAT", "tensorShape": {}}}, "dtype": {"type": "DT_FLOAT"}}}, {"name": "StatefulPartitionedCall/jax2tf_main_/vmap/vmap/pjit_fn_/Reshape_24/shape", "op": "Const", "attr": {"dtype": {"type": "DT_INT32"}, "value": {"tensor": {"dtype": "DT_INT32", "tensorShape": {"dim": [{"size": "3"}]}}}}}, {"name": "StatefulPartitionedCall/jax2tf_main_/vmap/vmap/pjit__lambda__/BroadcastTo_13", "op": "Const", "attr": {"dtype": {"type": "DT_FLOAT"}, "value": {"tensor": {"dtype": "DT_FLOAT", "tensorShape": {"dim": [{"size": "1"}, {"size": "1"}, {"size": "3"}]}}}}}, {"name": "StatefulPartitionedCall/jax2tf_main_/vmap/vmap/pjit_norm_/Sum_10/reduction_indices", "op": "Const", "attr": {"dtype": {"type": "DT_INT32"}, "value": {"tensor": {"dtype": "DT_INT32", "tensorShape": {"dim": [{"size": "1"}]}}}}}, {"name": "StatefulPartitionedCall/Const_38", "op": "Const", "attr": {"dtype": {"type": "DT_FLOAT"}, "value": {"tensor": {"dtype": "DT_FLOAT", "tensorShape": {}}}}}, {"name": "StatefulPartitionedCall/jax2tf_main_/vmap/vmap/pjit_fn_/Reshape_27/shape", "op": "Const", "attr": {"value": {"tensor": {"dtype": "DT_INT32", "tensorShape": {"dim": [{"size": "3"}]}}}, "dtype": {"type": "DT_INT32"}}}, {"name": "StatefulPartitionedCall/jax2tf_main_/vmap/vmap/pjit__lambda__/BroadcastTo_15", "op": "Const", "attr": {"value": {"tensor": {"dtype": "DT_FLOAT", "tensorShape": {"dim": [{"size": "1"}, {"size": "1"}, {"size": "3"}]}}}, "dtype": {"type": "DT_FLOAT"}}}, {"name": "StatefulPartitionedCall/jax2tf_main_/vmap/vmap/pjit_norm_/Sum_11/reduction_indices", "op": "Const", "attr": {"dtype": {"type": "DT_INT32"}, "value": {"tensor": {"dtype": "DT_INT32", "tensorShape": {"dim": [{"size": "1"}]}}}}}, {"name": "StatefulPartitionedCall/Const_41", "op": "Const", "attr": {"value": {"tensor": {"dtype": "DT_FLOAT", "tensorShape": {}}}, "dtype": {"type": "DT_FLOAT"}}}, {"name": "StatefulPartitionedCall/jax2tf_main_/vmap/vmap/pjit_fn_/Reshape_30/shape", "op": "Const", "attr": {"dtype": {"type": "DT_INT32"}, "value": {"tensor": {"dtype": "DT_INT32", "tensorShape": {"dim": [{"size": "3"}]}}}}}, {"name": "StatefulPartitionedCall/jax2tf_main_/vmap/vmap/pjit__lambda__/BroadcastTo_17", "op": "Const", "attr": {"dtype": {"type": "DT_FLOAT"}, "value": {"tensor": {"dtype": "DT_FLOAT", "tensorShape": {"dim": [{"size": "1"}, {"size": "1"}, {"size": "3"}]}}}}}, {"name": "StatefulPartitionedCall/jax2tf_main_/vmap/vmap/pjit_norm_/Sum_12/reduction_indices", "op": "Const", "attr": {"dtype": {"type": "DT_INT32"}, "value": {"tensor": {"dtype": "DT_INT32", "tensorShape": {"dim": [{"size": "1"}]}}}}}, {"name": "StatefulPartitionedCall/Const_44", "op": "Const", "attr": {"dtype": {"type": "DT_FLOAT"}, "value": {"tensor": {"dtype": "DT_FLOAT", "tensorShape": {}}}}}, {"name": "StatefulPartitionedCall/jax2tf_main_/vmap/vmap/pjit_fn_/Reshape_33/shape", "op": "Const", "attr": {"dtype": {"type": "DT_INT32"}, "value": {"tensor": {"dtype": "DT_INT32", "tensorShape": {"dim": [{"size": "3"}]}}}}}, {"name": "StatefulPartitionedCall/jax2tf_main_/vmap/vmap/pjit__lambda__/BroadcastTo_19", "op": "Const", "attr": {"value": {"tensor": {"dtype": "DT_FLOAT", "tensorShape": {"dim": [{"size": "1"}, {"size": "1"}, {"size": "3"}]}}}, "dtype": {"type": "DT_FLOAT"}}}, {"name": "StatefulPartitionedCall/jax2tf_main_/vmap/vmap/pjit_norm_/Sum_13/reduction_indices", "op": "Const", "attr": {"value": {"tensor": {"dtype": "DT_INT32", "tensorShape": {"dim": [{"size": "1"}]}}}, "dtype": {"type": "DT_INT32"}}}, {"name": "StatefulPartitionedCall/Const_47", "op": "Const", "attr": {"value": {"tensor": {"dtype": "DT_FLOAT", "tensorShape": {}}}, "dtype": {"type": "DT_FLOAT"}}}, {"name": "StatefulPartitionedCall/jax2tf_main_/vmap/vmap/pjit_fn_/Reshape_36/shape", "op": "Const", "attr": {"value": {"tensor": {"dtype": "DT_INT32", "tensorShape": {"dim": [{"size": "3"}]}}}, "dtype": {"type": "DT_INT32"}}}, {"name": "StatefulPartitionedCall/jax2tf_main_/vmap/vmap/jvp/pjit__lambda__/BroadcastTo_1", "op": "Const", "attr": {"value": {"tensor": {"dtype": "DT_FLOAT", "tensorShape": {"dim": [{"size": "1"}, {"size": "1"}, {"size": "3"}]}}}, "dtype": {"type": "DT_FLOAT"}}}, {"name": "StatefulPartitionedCall/jax2tf_main_/vmap/vmap/transpose/jax2tf_main_/vmap/vmap/jvp/pjit_absolute_/BroadcastTo_2", "op": "Const", "attr": {"dtype": {"type": "DT_FLOAT"}, "value": {"tensor": {"dtype": "DT_FLOAT", "tensorShape": {"dim": [{"size": "92"}, {"size": "92"}, {"size": "3"}]}}}}}, {"name": "StatefulPartitionedCall/jax2tf_main_/vmap/vmap/pjit_norm_/Sum_14/reduction_indices", "op": "Const", "attr": {"dtype": {"type": "DT_INT32"}, "value": {"tensor": {"dtype": "DT_INT32", "tensorShape": {"dim": [{"size": "1"}]}}}}}, {"name": "StatefulPartitionedCall/jax2tf_main_/vmap/vmap/pjit_true_divide_/Reshape_1/shape", "op": "Const", "attr": {"dtype": {"type": "DT_INT32"}, "value": {"tensor": {"dtype": "DT_INT32", "tensorShape": {"dim": [{"size": "3"}]}}}}}, {"name": "StatefulPartitionedCall/jax2tf_main_/vmap/vmap/pjit__lambda__/BroadcastTo_22", "op": "Const", "attr": {"value": {"tensor": {"dtype": "DT_FLOAT", "tensorShape": {"dim": [{"size": "1"}, {"size": "1"}, {"size": "3"}]}}}, "dtype": {"type": "DT_FLOAT"}}}, {"name": "StatefulPartitionedCall/jax2tf_main_/vmap/vmap/pjit_norm_/Sum_15/reduction_indices", "op": "Const", "attr": {"value": {"tensor": {"dtype": "DT_INT32", "tensorShape": {"dim": [{"size": "1"}]}}}, "dtype": {"type": "DT_INT32"}}}, {"name": "StatefulPartitionedCall/Const_59", "op": "Const", "attr": {"dtype": {"type": "DT_FLOAT"}, "value": {"tensor": {"dtype": "DT_FLOAT", "tensorShape": {}}}}}, {"name": "StatefulPartitionedCall/jax2tf_main_/vmap/vmap/pjit_fn_/Reshape_39/shape", "op": "Const", "attr": {"value": {"tensor": {"dtype": "DT_INT32", "tensorShape": {"dim": [{"size": "3"}]}}}, "dtype": {"type": "DT_INT32"}}}, {"name": "StatefulPartitionedCall/jax2tf_main_/vmap/vmap/pjit__lambda__/BroadcastTo_24", "op": "Const", "attr": {"dtype": {"type": "DT_FLOAT"}, "value": {"tensor": {"dtype": "DT_FLOAT", "tensorShape": {"dim": [{"size": "1"}, {"size": "1"}, {"size": "3"}]}}}}}, {"name": "StatefulPartitionedCall/jax2tf_main_/vmap/vmap/pjit_norm_/Sum_16/reduction_indices", "op": "Const", "attr": {"value": {"tensor": {"dtype": "DT_INT32", "tensorShape": {"dim": [{"size": "1"}]}}}, "dtype": {"type": "DT_INT32"}}}, {"name": "StatefulPartitionedCall/Const_64", "op": "Const", "attr": {"dtype": {"type": "DT_FLOAT"}, "value": {"tensor": {"dtype": "DT_FLOAT", "tensorShape": {}}}}}, {"name": "StatefulPartitionedCall/jax2tf_main_/vmap/vmap/pjit_fn_/Reshape_40/shape", "op": "Const", "attr": {"dtype": {"type": "DT_INT32"}, "value": {"tensor": {"dtype": "DT_INT32", "tensorShape": {"dim": [{"size": "3"}]}}}}}, {"name": "StatefulPartitionedCall/jax2tf_main_/vmap/vmap/pjit__lambda__/BroadcastTo_26", "op": "Const", "attr": {"value": {"tensor": {"dtype": "DT_FLOAT", "tensorShape": {"dim": [{"size": "1"}, {"size": "1"}, {"size": "3"}]}}}, "dtype": {"type": "DT_FLOAT"}}}, {"name": "StatefulPartitionedCall/jax2tf_main_/vmap/vmap/pjit_norm_/Sum_17/reduction_indices", "op": "Const", "attr": {"dtype": {"type": "DT_INT32"}, "value": {"tensor": {"dtype": "DT_INT32", "tensorShape": {"dim": [{"size": "1"}]}}}}}, {"name": "StatefulPartitionedCall/Const_67", "op": "Const", "attr": {"value": {"tensor": {"dtype": "DT_FLOAT", "tensorShape": {}}}, "dtype": {"type": "DT_FLOAT"}}}, {"name": "StatefulPartitionedCall/jax2tf_main_/vmap/vmap/pjit_fn_/Reshape_41/shape", "op": "Const", "attr": {"value": {"tensor": {"dtype": "DT_INT32", "tensorShape": {"dim": [{"size": "3"}]}}}, "dtype": {"type": "DT_INT32"}}}, {"name": "StatefulPartitionedCall/jax2tf_main_/vmap/vmap/pjit__lambda__/BroadcastTo_28", "op": "Const", "attr": {"value": {"tensor": {"dtype": "DT_FLOAT", "tensorShape": {"dim": [{"size": "1"}, {"size": "1"}, {"size": "3"}]}}}, "dtype": {"type": "DT_FLOAT"}}}, {"name": "StatefulPartitionedCall/jax2tf_main_/vmap/vmap/pjit_norm_/Sum_18/reduction_indices", "op": "Const", "attr": {"dtype": {"type": "DT_INT32"}, "value": {"tensor": {"dtype": "DT_INT32", "tensorShape": {"dim": [{"size": "1"}]}}}}}, {"name": "StatefulPartitionedCall/Const_70", "op": "Const", "attr": {"value": {"tensor": {"dtype": "DT_FLOAT", "tensorShape": {}}}, "dtype": {"type": "DT_FLOAT"}}}, {"name": "StatefulPartitionedCall/jax2tf_main_/vmap/vmap/pjit_fn_/Reshape_42/shape", "op": "Const", "attr": {"value": {"tensor": {"dtype": "DT_INT32", "tensorShape": {"dim": [{"size": "3"}]}}}, "dtype": {"type": "DT_INT32"}}}, {"name": "StatefulPartitionedCall/jax2tf_main_/vmap/vmap/pjit__lambda__/BroadcastTo_30", "op": "Const", "attr": {"value": {"tensor": {"dtype": "DT_FLOAT", "tensorShape": {"dim": [{"size": "1"}, {"size": "1"}, {"size": "3"}]}}}, "dtype": {"type": "DT_FLOAT"}}}, {"name": "StatefulPartitionedCall/jax2tf_main_/vmap/vmap/pjit_norm_/Sum_19/reduction_indices", "op": "Const", "attr": {"value": {"tensor": {"dtype": "DT_INT32", "tensorShape": {"dim": [{"size": "1"}]}}}, "dtype": {"type": "DT_INT32"}}}, {"name": "StatefulPartitionedCall/Const_73", "op": "Const", "attr": {"dtype": {"type": "DT_FLOAT"}, "value": {"tensor": {"dtype": "DT_FLOAT", "tensorShape": {}}}}}, {"name": "StatefulPartitionedCall/jax2tf_main_/vmap/vmap/pjit_fn_/Reshape_43/shape", "op": "Const", "attr": {"dtype": {"type": "DT_INT32"}, "value": {"tensor": {"dtype": "DT_INT32", "tensorShape": {"dim": [{"size": "3"}]}}}}}, {"name": "StatefulPartitionedCall/jax2tf_main_/vmap/vmap/pjit__lambda__/BroadcastTo_32", "op": "Const", "attr": {"dtype": {"type": "DT_FLOAT"}, "value": {"tensor": {"dtype": "DT_FLOAT", "tensorShape": {"dim": [{"size": "1"}, {"size": "1"}, {"size": "3"}]}}}}}, {"name": "StatefulPartitionedCall/jax2tf_main_/vmap/vmap/pjit_norm_/Sum_20/reduction_indices", "op": "Const", "attr": {"value": {"tensor": {"dtype": "DT_INT32", "tensorShape": {"dim": [{"size": "1"}]}}}, "dtype": {"type": "DT_INT32"}}}, {"name": "StatefulPartitionedCall/Const_76", "op": "Const", "attr": {"dtype": {"type": "DT_FLOAT"}, "value": {"tensor": {"dtype": "DT_FLOAT", "tensorShape": {}}}}}, {"name": "StatefulPartitionedCall/jax2tf_main_/vmap/vmap/pjit_fn_/Reshape_44/shape", "op": "Const", "attr": {"dtype": {"type": "DT_INT32"}, "value": {"tensor": {"dtype": "DT_INT32", "tensorShape": {"dim": [{"size": "3"}]}}}}}, {"name": "StatefulPartitionedCall/jax2tf_main_/vmap/vmap/pjit__lambda__/BroadcastTo_34", "op": "Const", "attr": {"value": {"tensor": {"dtype": "DT_FLOAT", "tensorShape": {"dim": [{"size": "1"}, {"size": "1"}, {"size": "3"}]}}}, "dtype": {"type": "DT_FLOAT"}}}, {"name": "StatefulPartitionedCall/jax2tf_main_/vmap/vmap/pjit_norm_/Sum_21/reduction_indices", "op": "Const", "attr": {"dtype": {"type": "DT_INT32"}, "value": {"tensor": {"dtype": "DT_INT32", "tensorShape": {"dim": [{"size": "1"}]}}}}}, {"name": "StatefulPartitionedCall/Const_79", "op": "Const", "attr": {"dtype": {"type": "DT_FLOAT"}, "value": {"tensor": {"dtype": "DT_FLOAT", "tensorShape": {}}}}}, {"name": "StatefulPartitionedCall/jax2tf_main_/vmap/vmap/pjit_fn_/Reshape_45/shape", "op": "Const", "attr": {"value": {"tensor": {"dtype": "DT_INT32", "tensorShape": {"dim": [{"size": "3"}]}}}, "dtype": {"type": "DT_INT32"}}}, {"name": "StatefulPartitionedCall/jax2tf_main_/vmap/vmap/pjit__lambda__/BroadcastTo_36", "op": "Const", "attr": {"value": {"tensor": {"dtype": "DT_FLOAT", "tensorShape": {"dim": [{"size": "1"}, {"size": "1"}, {"size": "3"}]}}}, "dtype": {"type": "DT_FLOAT"}}}, {"name": "StatefulPartitionedCall/jax2tf_main_/vmap/vmap/pjit_norm_/Sum_22/reduction_indices", "op": "Const", "attr": {"dtype": {"type": "DT_INT32"}, "value": {"tensor": {"dtype": "DT_INT32", "tensorShape": {"dim": [{"size": "1"}]}}}}}, {"name": "StatefulPartitionedCall/Const_82", "op": "Const", "attr": {"dtype": {"type": "DT_FLOAT"}, "value": {"tensor": {"dtype": "DT_FLOAT", "tensorShape": {}}}}}, {"name": "StatefulPartitionedCall/jax2tf_main_/vmap/vmap/pjit_fn_/Reshape_46/shape", "op": "Const", "attr": {"value": {"tensor": {"dtype": "DT_INT32", "tensorShape": {"dim": [{"size": "3"}]}}}, "dtype": {"type": "DT_INT32"}}}, {"name": "StatefulPartitionedCall/jax2tf_main_/vmap/vmap/pjit__lambda__/BroadcastTo_38", "op": "Const", "attr": {"dtype": {"type": "DT_FLOAT"}, "value": {"tensor": {"dtype": "DT_FLOAT", "tensorShape": {"dim": [{"size": "1"}, {"size": "1"}, {"size": "3"}]}}}}}, {"name": "StatefulPartitionedCall/jax2tf_main_/vmap/vmap/pjit_norm_/Sum_23/reduction_indices", "op": "Const", "attr": {"dtype": {"type": "DT_INT32"}, "value": {"tensor": {"dtype": "DT_INT32", "tensorShape": {"dim": [{"size": "1"}]}}}}}, {"name": "StatefulPartitionedCall/Const_85", "op": "Const", "attr": {"dtype": {"type": "DT_FLOAT"}, "value": {"tensor": {"dtype": "DT_FLOAT", "tensorShape": {}}}}}, {"name": "StatefulPartitionedCall/jax2tf_main_/vmap/vmap/pjit_fn_/Reshape_47/shape", "op": "Const", "attr": {"dtype": {"type": "DT_INT32"}, "value": {"tensor": {"dtype": "DT_INT32", "tensorShape": {"dim": [{"size": "3"}]}}}}}, {"name": "StatefulPartitionedCall/jax2tf_main_/vmap/vmap/pjit__lambda__/BroadcastTo_40", "op": "Const", "attr": {"value": {"tensor": {"dtype": "DT_FLOAT", "tensorShape": {"dim": [{"size": "1"}, {"size": "1"}, {"size": "3"}]}}}, "dtype": {"type": "DT_FLOAT"}}}, {"name": "StatefulPartitionedCall/jax2tf_main_/vmap/vmap/pjit_norm_/Sum_24/reduction_indices", "op": "Const", "attr": {"dtype": {"type": "DT_INT32"}, "value": {"tensor": {"dtype": "DT_INT32", "tensorShape": {"dim": [{"size": "1"}]}}}}}, {"name": "StatefulPartitionedCall/Const_88", "op": "Const", "attr": {"value": {"tensor": {"dtype": "DT_FLOAT", "tensorShape": {}}}, "dtype": {"type": "DT_FLOAT"}}}, {"name": "StatefulPartitionedCall/jax2tf_main_/vmap/vmap/pjit_fn_/Reshape_48/shape", "op": "Const", "attr": {"value": {"tensor": {"dtype": "DT_INT32", "tensorShape": {"dim": [{"size": "3"}]}}}, "dtype": {"type": "DT_INT32"}}}, {"name": "StatefulPartitionedCall/jax2tf_main_/vmap/vmap/jvp/pjit__lambda__/BroadcastTo_3", "op": "Const", "attr": {"dtype": {"type": "DT_FLOAT"}, "value": {"tensor": {"dtype": "DT_FLOAT", "tensorShape": {"dim": [{"size": "1"}, {"size": "1"}, {"size": "3"}]}}}}}, {"name": "StatefulPartitionedCall/jax2tf_main_/vmap/vmap/transpose/jax2tf_main_/vmap/vmap/jvp/pjit_absolute_/BroadcastTo_7", "op": "Const", "attr": {"dtype": {"type": "DT_FLOAT"}, "value": {"tensor": {"dtype": "DT_FLOAT", "tensorShape": {"dim": [{"size": "92"}, {"size": "92"}, {"size": "3"}]}}}}}, {"name": "StatefulPartitionedCall/jax2tf_main_/vmap/vmap/pjit_norm_/Sum_25/reduction_indices", "op": "Const", "attr": {"dtype": {"type": "DT_INT32"}, "value": {"tensor": {"dtype": "DT_INT32", "tensorShape": {"dim": [{"size": "1"}]}}}}}, {"name": "StatefulPartitionedCall/jax2tf_main_/vmap/vmap/pjit_true_divide_/Reshape_2/shape", "op": "Const", "attr": {"value": {"tensor": {"dtype": "DT_INT32", "tensorShape": {"dim": [{"size": "3"}]}}}, "dtype": {"type": "DT_INT32"}}}, {"name": "StatefulPartitionedCall/jax2tf_main_/vmap/vmap/pjit_true_divide_/truediv", "op": "Const", "attr": {"value": {"tensor": {"dtype": "DT_FLOAT", "tensorShape": {"dim": [{"size": "3"}]}}}, "dtype": {"type": "DT_FLOAT"}}}, {"name": "StatefulPartitionedCall/jax2tf_main_/vmap/transpose/perm", "op": "Const", "attr": {"dtype": {"type": "DT_INT32"}, "value": {"tensor": {"dtype": "DT_INT32", "tensorShape": {"dim": [{"size": "2"}]}}}}}, {"name": "StatefulPartitionedCall/jax2tf_main_/pjit_atleast_3d_/Reshape_2/shape", "op": "Const", "attr": {"value": {"tensor": {"dtype": "DT_INT32", "tensorShape": {"dim": [{"size": "3"}]}}}, "dtype": {"type": "DT_INT32"}}}, {"name": "StatefulPartitionedCall/jax2tf_main_/concat/axis", "op": "Const", "attr": {"dtype": {"type": "DT_INT32"}, "value": {"tensor": {"dtype": "DT_INT32", "tensorShape": {}}}}}, {"name": "xs_0", "op": "Placeholder", "attr": {"shape": {"shape": {"dim": [{"size": "1"}]}}, "dtype": {"type": "DT_FLOAT"}}}, {"name": "StatefulPartitionedCall/jax2tf_main_/vmap/vmap/Slice", "op": "Slice", "input": ["xs_0", "StatefulPartitionedCall/jax2tf_main_/vmap/vmap/clip_by_value", "StatefulPartitionedCall/jax2tf_main_/vmap/vmap/Slice/size"], "attr": {"Index": {"type": "DT_INT32"}, "T": {"type": "DT_FLOAT"}}}, {"name": "StatefulPartitionedCall/jax2tf_main_/vmap/vmap/Reshape", "op": "Reshape", "input": ["StatefulPartitionedCall/jax2tf_main_/vmap/vmap/Slice", "StatefulPartitionedCall/jax2tf_main_/vmap/vmap/Reshape/shape_1"], "attr": {"T": {"type": "DT_FLOAT"}, "Tshape": {"type": "DT_INT32"}}}, {"name": "StatefulPartitionedCall/jax2tf_main_/vmap/vmap/pjit_fn_/Mul", "op": "Mul", "input": ["StatefulPartitionedCall/jax2tf_main_/vmap/vmap/pjit_true_divide_/truediv_1", "StatefulPartitionedCall/jax2tf_main_/vmap/vmap/Reshape"], "attr": {"T": {"type": "DT_FLOAT"}}}, {"name": "StatefulPartitionedCall/jax2tf_main_/vmap/vmap/pjit_fn_/Reshape_2", "op": "Reshape", "input": ["StatefulPartitionedCall/jax2tf_main_/vmap/vmap/pjit_fn_/Mul", "StatefulPartitionedCall/jax2tf_main_/vmap/vmap/pjit_fn_/Reshape_2/shape"], "attr": {"T": {"type": "DT_FLOAT"}, "Tshape": {"type": "DT_INT32"}}}, {"name": "StatefulPartitionedCall/jax2tf_main_/vmap/vmap/pjit_fn_/AddV2", "op": "AddV2", "input": ["StatefulPartitionedCall/jax2tf_main_/vmap/vmap/pjit_fn_/Reshape_2", "StatefulPartitionedCall/jax2tf_main_/vmap/vmap/pjit_fn_/Mul_1"], "attr": {"T": {"type": "DT_FLOAT"}}}, {"name": "StatefulPartitionedCall/jax2tf_main_/vmap/vmap/pjit_fn_/Reshape_6", "op": "Reshape", "input": ["StatefulPartitionedCall/jax2tf_main_/vmap/vmap/pjit_fn_/AddV2", "StatefulPartitionedCall/jax2tf_main_/vmap/vmap/pjit_fn_/Reshape_6/shape"], "attr": {"Tshape": {"type": "DT_INT32"}, "T": {"type": "DT_FLOAT"}}}, {"name": "StatefulPartitionedCall/jax2tf_main_/vmap/vmap/pjit_fn_/AddV2_1", "op": "AddV2", "input": ["StatefulPartitionedCall/jax2tf_main_/vmap/vmap/pjit_fn_/Reshape_6", "StatefulPartitionedCall/jax2tf_main_/vmap/vmap/pjit_fn_/BroadcastTo_5"], "attr": {"T": {"type": "DT_FLOAT"}}}, {"name": "StatefulPartitionedCall/jax2tf_main_/vmap/vmap/pjit_norm_/ArithmeticOptimizer/ReplaceMulWithSquare_Mul_3", "op": "Square", "input": ["StatefulPartitionedCall/jax2tf_main_/vmap/vmap/pjit_fn_/AddV2_1"], "attr": {"T": {"type": "DT_FLOAT"}}}, {"name": "StatefulPartitionedCall/jax2tf_main_/vmap/vmap/pjit_norm_/Sum_3", "op": "Sum", "input": ["StatefulPartitionedCall/jax2tf_main_/vmap/vmap/pjit_norm_/ArithmeticOptimizer/ReplaceMulWithSquare_Mul_3", "StatefulPartitionedCall/jax2tf_main_/vmap/vmap/pjit_norm_/Sum_3/reduction_indices"], "attr": {"keep_dims": {"b": false}, "Tidx": {"type": "DT_INT32"}, "T": {"type": "DT_FLOAT"}}}, {"name": "StatefulPartitionedCall/jax2tf_main_/vmap/vmap/pjit_norm_/Sqrt_3", "op": "Sqrt", "input": ["StatefulPartitionedCall/jax2tf_main_/vmap/vmap/pjit_norm_/Sum_3"], "attr": {"T": {"type": "DT_FLOAT"}}}, {"name": "StatefulPartitionedCall/jax2tf_main_/vmap/vmap/pjit_true_divide_/Reshape", "op": "Reshape", "input": ["StatefulPartitionedCall/jax2tf_main_/vmap/vmap/pjit_norm_/Sqrt_3", "StatefulPartitionedCall/jax2tf_main_/vmap/vmap/pjit_true_divide_/Reshape/shape"], "attr": {"Tshape": {"type": "DT_INT32"}, "T": {"type": "DT_FLOAT"}}}, {"name": "StatefulPartitionedCall/jax2tf_main_/vmap/vmap/pjit_true_divide_/truediv_3", "op": "RealDiv", "input": ["StatefulPartitionedCall/jax2tf_main_/vmap/vmap/pjit_fn_/AddV2_1", "StatefulPartitionedCall/jax2tf_main_/vmap/vmap/pjit_true_divide_/Reshape"], "attr": {"T": {"type": "DT_FLOAT"}}}, {"name": "StatefulPartitionedCall/jax2tf_main_/vmap/vmap/pjit_fn_/BroadcastTo_9", "op": "Const", "input": ["^StatefulPartitionedCall/jax2tf_main_/vmap/vmap/pjit_true_divide_/truediv_3"], "attr": {"dtype": {"type": "DT_FLOAT"}, "value": {"tensor": {"dtype": "DT_FLOAT", "tensorShape": {"dim": [{"size": "92"}, {"size": "92"}, {"size": "1"}]}}}}}, {"name": "StatefulPartitionedCall/jax2tf_main_/vmap/vmap/pjit__lambda__/Sub_4", "op": "Const", "input": ["^StatefulPartitionedCall/jax2tf_main_/vmap/vmap/pjit_true_divide_/truediv_3"], "attr": {"value": {"tensor": {"dtype": "DT_FLOAT", "tensorShape": {"dim": [{"size": "92"}, {"size": "92"}]}}}, "dtype": {"type": "DT_FLOAT"}}}, {"name": "StatefulPartitionedCall/jax2tf_main_/vmap/vmap/pjit_fn_/Mul_4", "op": "Mul", "input": ["StatefulPartitionedCall/jax2tf_main_/vmap/vmap/pjit_true_divide_/truediv_3", "StatefulPartitionedCall/jax2tf_main_/vmap/vmap/pjit_fn_/BroadcastTo_9"], "attr": {"T": {"type": "DT_FLOAT"}}}, {"name": "StatefulPartitionedCall/jax2tf_main_/vmap/vmap/pjit_fn_/AddV2_4", "op": "AddV2", "input": ["StatefulPartitionedCall/jax2tf_main_/vmap/vmap/pjit_fn_/BroadcastTo_11", "StatefulPartitionedCall/jax2tf_main_/vmap/vmap/pjit_fn_/Mul_4"], "attr": {"T": {"type": "DT_FLOAT"}}}, {"name": "StatefulPartitionedCall/jax2tf_main_/vmap/vmap/pjit_absolute_/Abs_1", "op": "Abs", "input": ["StatefulPartitionedCall/jax2tf_main_/vmap/vmap/pjit_fn_/AddV2_4"], "attr": {"T": {"type": "DT_FLOAT"}}}, {"name": "StatefulPartitionedCall/jax2tf_main_/vmap/vmap/pjit__lambda__/Sub_3", "op": "SquaredDifference", "input": ["StatefulPartitionedCall/jax2tf_main_/vmap/vmap/pjit_absolute_/Abs_1", "StatefulPartitionedCall/jax2tf_main_/vmap/vmap/pjit__lambda__/BroadcastTo_3"], "attr": {"T": {"type": "DT_FLOAT"}}}, {"name": "StatefulPartitionedCall/jax2tf_main_/vmap/vmap/pjit_norm_/Sum_5", "op": "Sum", "input": ["StatefulPartitionedCall/jax2tf_main_/vmap/vmap/pjit__lambda__/Sub_3", "StatefulPartitionedCall/jax2tf_main_/vmap/vmap/pjit_norm_/Sum_5/reduction_indices"], "attr": {"Tidx": {"type": "DT_INT32"}, "keep_dims": {"b": false}, "T": {"type": "DT_FLOAT"}}}, {"name": "StatefulPartitionedCall/jax2tf_main_/vmap/vmap/pjit_norm_/Sqrt_5", "op": "Sqrt", "input": ["StatefulPartitionedCall/jax2tf_main_/vmap/vmap/pjit_norm_/Sum_5"], "attr": {"T": {"type": "DT_FLOAT"}}}, {"name": "StatefulPartitionedCall/jax2tf_main_/vmap/vmap/pjit_fn_/AddV2_5", "op": "Add", "input": ["StatefulPartitionedCall/jax2tf_main_/vmap/vmap/pjit_norm_/Sqrt_5", "StatefulPartitionedCall/jax2tf_main_/vmap/vmap/pjit__lambda__/Sub_4"], "attr": {"T": {"type": "DT_FLOAT"}}}, {"name": "StatefulPartitionedCall/jax2tf_main_/vmap/vmap/pjit_fn_/Reshape_12", "op": "Reshape", "input": ["StatefulPartitionedCall/jax2tf_main_/vmap/vmap/pjit_fn_/AddV2_5", "StatefulPartitionedCall/jax2tf_main_/vmap/vmap/pjit_fn_/Reshape_12/shape"], "attr": {"Tshape": {"type": "DT_INT32"}, "T": {"type": "DT_FLOAT"}}}, {"name": "StatefulPartitionedCall/jax2tf_main_/vmap/vmap/pjit_fn_/Mul_5", "op": "Mul", "input": ["StatefulPartitionedCall/jax2tf_main_/vmap/vmap/pjit_true_divide_/truediv_3", "StatefulPartitionedCall/jax2tf_main_/vmap/vmap/pjit_fn_/Reshape_12"], "attr": {"T": {"type": "DT_FLOAT"}}}, {"name": "StatefulPartitionedCall/jax2tf_main_/vmap/vmap/pjit_fn_/AddV2_6", "op": "AddV2", "input": ["StatefulPartitionedCall/jax2tf_main_/vmap/vmap/pjit_fn_/BroadcastTo_14", "StatefulPartitionedCall/jax2tf_main_/vmap/vmap/pjit_fn_/Mul_5"], "attr": {"T": {"type": "DT_FLOAT"}}}, {"name": "StatefulPartitionedCall/jax2tf_main_/vmap/vmap/pjit_absolute_/Abs_2", "op": "Abs", "input": ["StatefulPartitionedCall/jax2tf_main_/vmap/vmap/pjit_fn_/AddV2_6"], "attr": {"T": {"type": "DT_FLOAT"}}}, {"name": "StatefulPartitionedCall/jax2tf_main_/vmap/vmap/pjit__lambda__/Sub_5", "op": "SquaredDifference", "input": ["StatefulPartitionedCall/jax2tf_main_/vmap/vmap/pjit_absolute_/Abs_2", "StatefulPartitionedCall/jax2tf_main_/vmap/vmap/pjit__lambda__/BroadcastTo_5"], "attr": {"T": {"type": "DT_FLOAT"}}}, {"name": "StatefulPartitionedCall/jax2tf_main_/vmap/vmap/pjit_norm_/Sum_6", "op": "Sum", "input": ["StatefulPartitionedCall/jax2tf_main_/vmap/vmap/pjit__lambda__/Sub_5", "StatefulPartitionedCall/jax2tf_main_/vmap/vmap/pjit_norm_/Sum_6/reduction_indices"], "attr": {"Tidx": {"type": "DT_INT32"}, "T": {"type": "DT_FLOAT"}, "keep_dims": {"b": false}}}, {"name": "StatefulPartitionedCall/jax2tf_main_/vmap/vmap/pjit_norm_/Sqrt_6", "op": "Sqrt", "input": ["StatefulPartitionedCall/jax2tf_main_/vmap/vmap/pjit_norm_/Sum_6"], "attr": {"T": {"type": "DT_FLOAT"}}}, {"name": "StatefulPartitionedCall/jax2tf_main_/vmap/vmap/pjit__lambda__/Sub_6", "op": "Sub", "input": ["StatefulPartitionedCall/jax2tf_main_/vmap/vmap/pjit_norm_/Sqrt_6", "StatefulPartitionedCall/Const_26"], "attr": {"T": {"type": "DT_FLOAT"}}}, {"name": "StatefulPartitionedCall/jax2tf_main_/vmap/vmap/pjit_fn_/AddV2_7", "op": "AddV2", "input": ["StatefulPartitionedCall/jax2tf_main_/vmap/vmap/pjit_fn_/AddV2_5", "StatefulPartitionedCall/jax2tf_main_/vmap/vmap/pjit__lambda__/Sub_6"], "attr": {"T": {"type": "DT_FLOAT"}}}, {"name": "StatefulPartitionedCall/jax2tf_main_/vmap/vmap/pjit_fn_/Reshape_15", "op": "Reshape", "input": ["StatefulPartitionedCall/jax2tf_main_/vmap/vmap/pjit_fn_/AddV2_7", "StatefulPartitionedCall/jax2tf_main_/vmap/vmap/pjit_fn_/Reshape_15/shape"], "attr": {"T": {"type": "DT_FLOAT"}, "Tshape": {"type": "DT_INT32"}}}, {"name": "StatefulPartitionedCall/jax2tf_main_/vmap/vmap/pjit_fn_/Mul_6", "op": "Mul", "input": ["StatefulPartitionedCall/jax2tf_main_/vmap/vmap/pjit_true_divide_/truediv_3", "StatefulPartitionedCall/jax2tf_main_/vmap/vmap/pjit_fn_/Reshape_15"], "attr": {"T": {"type": "DT_FLOAT"}}}, {"name": "StatefulPartitionedCall/jax2tf_main_/vmap/vmap/pjit_fn_/AddV2_8", "op": "AddV2", "input": ["StatefulPartitionedCall/jax2tf_main_/vmap/vmap/pjit_fn_/BroadcastTo_17", "StatefulPartitionedCall/jax2tf_main_/vmap/vmap/pjit_fn_/Mul_6"], "attr": {"T": {"type": "DT_FLOAT"}}}, {"name": "StatefulPartitionedCall/jax2tf_main_/vmap/vmap/pjit_absolute_/Abs_3", "op": "Abs", "input": ["StatefulPartitionedCall/jax2tf_main_/vmap/vmap/pjit_fn_/AddV2_8"], "attr": {"T": {"type": "DT_FLOAT"}}}, {"name": "StatefulPartitionedCall/jax2tf_main_/vmap/vmap/pjit__lambda__/Sub_7", "op": "SquaredDifference", "input": ["StatefulPartitionedCall/jax2tf_main_/vmap/vmap/pjit_absolute_/Abs_3", "StatefulPartitionedCall/jax2tf_main_/vmap/vmap/pjit__lambda__/BroadcastTo_7"], "attr": {"T": {"type": "DT_FLOAT"}}}, {"name": "StatefulPartitionedCall/jax2tf_main_/vmap/vmap/pjit_norm_/Sum_7", "op": "Sum", "input": ["StatefulPartitionedCall/jax2tf_main_/vmap/vmap/pjit__lambda__/Sub_7", "StatefulPartitionedCall/jax2tf_main_/vmap/vmap/pjit_norm_/Sum_7/reduction_indices"], "attr": {"T": {"type": "DT_FLOAT"}, "Tidx": {"type": "DT_INT32"}, "keep_dims": {"b": false}}}, {"name": "StatefulPartitionedCall/jax2tf_main_/vmap/vmap/pjit_norm_/Sqrt_7", "op": "Sqrt", "input": ["StatefulPartitionedCall/jax2tf_main_/vmap/vmap/pjit_norm_/Sum_7"], "attr": {"T": {"type": "DT_FLOAT"}}}, {"name": "StatefulPartitionedCall/jax2tf_main_/vmap/vmap/pjit__lambda__/Sub_8", "op": "Sub", "input": ["StatefulPartitionedCall/jax2tf_main_/vmap/vmap/pjit_norm_/Sqrt_7", "StatefulPartitionedCall/Const_29"], "attr": {"T": {"type": "DT_FLOAT"}}}, {"name": "StatefulPartitionedCall/jax2tf_main_/vmap/vmap/pjit_fn_/AddV2_9", "op": "AddV2", "input": ["StatefulPartitionedCall/jax2tf_main_/vmap/vmap/pjit_fn_/AddV2_7", "StatefulPartitionedCall/jax2tf_main_/vmap/vmap/pjit__lambda__/Sub_8"], "attr": {"T": {"type": "DT_FLOAT"}}}, {"name": "StatefulPartitionedCall/jax2tf_main_/vmap/vmap/pjit_fn_/Reshape_18", "op": "Reshape", "input": ["StatefulPartitionedCall/jax2tf_main_/vmap/vmap/pjit_fn_/AddV2_9", "StatefulPartitionedCall/jax2tf_main_/vmap/vmap/pjit_fn_/Reshape_18/shape"], "attr": {"Tshape": {"type": "DT_INT32"}, "T": {"type": "DT_FLOAT"}}}, {"name": "StatefulPartitionedCall/jax2tf_main_/vmap/vmap/pjit_fn_/Mul_7", "op": "Mul", "input": ["StatefulPartitionedCall/jax2tf_main_/vmap/vmap/pjit_true_divide_/truediv_3", "StatefulPartitionedCall/jax2tf_main_/vmap/vmap/pjit_fn_/Reshape_18"], "attr": {"T": {"type": "DT_FLOAT"}}}, {"name": "StatefulPartitionedCall/jax2tf_main_/vmap/vmap/pjit_fn_/AddV2_10", "op": "AddV2", "input": ["StatefulPartitionedCall/jax2tf_main_/vmap/vmap/pjit_fn_/BroadcastTo_20", "StatefulPartitionedCall/jax2tf_main_/vmap/vmap/pjit_fn_/Mul_7"], "attr": {"T": {"type": "DT_FLOAT"}}}, {"name": "StatefulPartitionedCall/jax2tf_main_/vmap/vmap/pjit_absolute_/Abs_4", "op": "Abs", "input": ["StatefulPartitionedCall/jax2tf_main_/vmap/vmap/pjit_fn_/AddV2_10"], "attr": {"T": {"type": "DT_FLOAT"}}}, {"name": "StatefulPartitionedCall/jax2tf_main_/vmap/vmap/pjit__lambda__/Sub_9", "op": "SquaredDifference", "input": ["StatefulPartitionedCall/jax2tf_main_/vmap/vmap/pjit_absolute_/Abs_4", "StatefulPartitionedCall/jax2tf_main_/vmap/vmap/pjit__lambda__/BroadcastTo_9"], "attr": {"T": {"type": "DT_FLOAT"}}}, {"name": "StatefulPartitionedCall/jax2tf_main_/vmap/vmap/pjit_norm_/Sum_8", "op": "Sum", "input": ["StatefulPartitionedCall/jax2tf_main_/vmap/vmap/pjit__lambda__/Sub_9", "StatefulPartitionedCall/jax2tf_main_/vmap/vmap/pjit_norm_/Sum_8/reduction_indices"], "attr": {"keep_dims": {"b": false}, "T": {"type": "DT_FLOAT"}, "Tidx": {"type": "DT_INT32"}}}, {"name": "StatefulPartitionedCall/jax2tf_main_/vmap/vmap/pjit_norm_/Sqrt_8", "op": "Sqrt", "input": ["StatefulPartitionedCall/jax2tf_main_/vmap/vmap/pjit_norm_/Sum_8"], "attr": {"T": {"type": "DT_FLOAT"}}}, {"name": "StatefulPartitionedCall/jax2tf_main_/vmap/vmap/pjit__lambda__/Sub_10", "op": "Sub", "input": ["StatefulPartitionedCall/jax2tf_main_/vmap/vmap/pjit_norm_/Sqrt_8", "StatefulPartitionedCall/Const_32"], "attr": {"T": {"type": "DT_FLOAT"}}}, {"name": "StatefulPartitionedCall/jax2tf_main_/vmap/vmap/pjit_fn_/AddV2_11", "op": "AddV2", "input": ["StatefulPartitionedCall/jax2tf_main_/vmap/vmap/pjit_fn_/AddV2_9", "StatefulPartitionedCall/jax2tf_main_/vmap/vmap/pjit__lambda__/Sub_10"], "attr": {"T": {"type": "DT_FLOAT"}}}, {"name": "StatefulPartitionedCall/jax2tf_main_/vmap/vmap/pjit_fn_/Reshape_21", "op": "Reshape", "input": ["StatefulPartitionedCall/jax2tf_main_/vmap/vmap/pjit_fn_/AddV2_11", "StatefulPartitionedCall/jax2tf_main_/vmap/vmap/pjit_fn_/Reshape_21/shape"], "attr": {"T": {"type": "DT_FLOAT"}, "Tshape": {"type": "DT_INT32"}}}, {"name": "StatefulPartitionedCall/jax2tf_main_/vmap/vmap/pjit_fn_/Mul_8", "op": "Mul", "input": ["StatefulPartitionedCall/jax2tf_main_/vmap/vmap/pjit_true_divide_/truediv_3", "StatefulPartitionedCall/jax2tf_main_/vmap/vmap/pjit_fn_/Reshape_21"], "attr": {"T": {"type": "DT_FLOAT"}}}, {"name": "StatefulPartitionedCall/jax2tf_main_/vmap/vmap/pjit_fn_/AddV2_12", "op": "AddV2", "input": ["StatefulPartitionedCall/jax2tf_main_/vmap/vmap/pjit_fn_/BroadcastTo_23", "StatefulPartitionedCall/jax2tf_main_/vmap/vmap/pjit_fn_/Mul_8"], "attr": {"T": {"type": "DT_FLOAT"}}}, {"name": "StatefulPartitionedCall/jax2tf_main_/vmap/vmap/pjit_absolute_/Abs_5", "op": "Abs", "input": ["StatefulPartitionedCall/jax2tf_main_/vmap/vmap/pjit_fn_/AddV2_12"], "attr": {"T": {"type": "DT_FLOAT"}}}, {"name": "StatefulPartitionedCall/jax2tf_main_/vmap/vmap/pjit__lambda__/Sub_11", "op": "SquaredDifference", "input": ["StatefulPartitionedCall/jax2tf_main_/vmap/vmap/pjit_absolute_/Abs_5", "StatefulPartitionedCall/jax2tf_main_/vmap/vmap/pjit__lambda__/BroadcastTo_11"], "attr": {"T": {"type": "DT_FLOAT"}}}, {"name": "StatefulPartitionedCall/jax2tf_main_/vmap/vmap/pjit_norm_/Sum_9", "op": "Sum", "input": ["StatefulPartitionedCall/jax2tf_main_/vmap/vmap/pjit__lambda__/Sub_11", "StatefulPartitionedCall/jax2tf_main_/vmap/vmap/pjit_norm_/Sum_9/reduction_indices"], "attr": {"Tidx": {"type": "DT_INT32"}, "keep_dims": {"b": false}, "T": {"type": "DT_FLOAT"}}}, {"name": "StatefulPartitionedCall/jax2tf_main_/vmap/vmap/pjit_norm_/Sqrt_9", "op": "Sqrt", "input": ["StatefulPartitionedCall/jax2tf_main_/vmap/vmap/pjit_norm_/Sum_9"], "attr": {"T": {"type": "DT_FLOAT"}}}, {"name": "StatefulPartitionedCall/jax2tf_main_/vmap/vmap/pjit__lambda__/Sub_12", "op": "Sub", "input": ["StatefulPartitionedCall/jax2tf_main_/vmap/vmap/pjit_norm_/Sqrt_9", "StatefulPartitionedCall/Const_35"], "attr": {"T": {"type": "DT_FLOAT"}}}, {"name": "StatefulPartitionedCall/jax2tf_main_/vmap/vmap/pjit_fn_/AddV2_13", "op": "AddV2", "input": ["StatefulPartitionedCall/jax2tf_main_/vmap/vmap/pjit_fn_/AddV2_11", "StatefulPartitionedCall/jax2tf_main_/vmap/vmap/pjit__lambda__/Sub_12"], "attr": {"T": {"type": "DT_FLOAT"}}}, {"name": "StatefulPartitionedCall/jax2tf_main_/vmap/vmap/pjit_fn_/Reshape_24", "op": "Reshape", "input": ["StatefulPartitionedCall/jax2tf_main_/vmap/vmap/pjit_fn_/AddV2_13", "StatefulPartitionedCall/jax2tf_main_/vmap/vmap/pjit_fn_/Reshape_24/shape"], "attr": {"T": {"type": "DT_FLOAT"}, "Tshape": {"type": "DT_INT32"}}}, {"name": "StatefulPartitionedCall/jax2tf_main_/vmap/vmap/pjit_fn_/Mul_9", "op": "Mul", "input": ["StatefulPartitionedCall/jax2tf_main_/vmap/vmap/pjit_true_divide_/truediv_3", "StatefulPartitionedCall/jax2tf_main_/vmap/vmap/pjit_fn_/Reshape_24"], "attr": {"T": {"type": "DT_FLOAT"}}}, {"name": "StatefulPartitionedCall/jax2tf_main_/vmap/vmap/pjit_fn_/AddV2_14", "op": "AddV2", "input": ["StatefulPartitionedCall/jax2tf_main_/vmap/vmap/pjit_fn_/BroadcastTo_26", "StatefulPartitionedCall/jax2tf_main_/vmap/vmap/pjit_fn_/Mul_9"], "attr": {"T": {"type": "DT_FLOAT"}}}, {"name": "StatefulPartitionedCall/jax2tf_main_/vmap/vmap/pjit_absolute_/Abs_6", "op": "Abs", "input": ["StatefulPartitionedCall/jax2tf_main_/vmap/vmap/pjit_fn_/AddV2_14"], "attr": {"T": {"type": "DT_FLOAT"}}}, {"name": "StatefulPartitionedCall/jax2tf_main_/vmap/vmap/pjit__lambda__/Sub_13", "op": "SquaredDifference", "input": ["StatefulPartitionedCall/jax2tf_main_/vmap/vmap/pjit_absolute_/Abs_6", "StatefulPartitionedCall/jax2tf_main_/vmap/vmap/pjit__lambda__/BroadcastTo_13"], "attr": {"T": {"type": "DT_FLOAT"}}}, {"name": "StatefulPartitionedCall/jax2tf_main_/vmap/vmap/pjit_norm_/Sum_10", "op": "Sum", "input": ["StatefulPartitionedCall/jax2tf_main_/vmap/vmap/pjit__lambda__/Sub_13", "StatefulPartitionedCall/jax2tf_main_/vmap/vmap/pjit_norm_/Sum_10/reduction_indices"], "attr": {"T": {"type": "DT_FLOAT"}, "keep_dims": {"b": false}, "Tidx": {"type": "DT_INT32"}}}, {"name": "StatefulPartitionedCall/jax2tf_main_/vmap/vmap/pjit_norm_/Sqrt_10", "op": "Sqrt", "input": ["StatefulPartitionedCall/jax2tf_main_/vmap/vmap/pjit_norm_/Sum_10"], "attr": {"T": {"type": "DT_FLOAT"}}}, {"name": "StatefulPartitionedCall/jax2tf_main_/vmap/vmap/pjit__lambda__/Sub_14", "op": "Sub", "input": ["StatefulPartitionedCall/jax2tf_main_/vmap/vmap/pjit_norm_/Sqrt_10", "StatefulPartitionedCall/Const_38"], "attr": {"T": {"type": "DT_FLOAT"}}}, {"name": "StatefulPartitionedCall/jax2tf_main_/vmap/vmap/pjit_fn_/AddV2_15", "op": "AddV2", "input": ["StatefulPartitionedCall/jax2tf_main_/vmap/vmap/pjit_fn_/AddV2_13", "StatefulPartitionedCall/jax2tf_main_/vmap/vmap/pjit__lambda__/Sub_14"], "attr": {"T": {"type": "DT_FLOAT"}}}, {"name": "StatefulPartitionedCall/jax2tf_main_/vmap/vmap/pjit_fn_/Reshape_27", "op": "Reshape", "input": ["StatefulPartitionedCall/jax2tf_main_/vmap/vmap/pjit_fn_/AddV2_15", "StatefulPartitionedCall/jax2tf_main_/vmap/vmap/pjit_fn_/Reshape_27/shape"], "attr": {"T": {"type": "DT_FLOAT"}, "Tshape": {"type": "DT_INT32"}}}, {"name": "StatefulPartitionedCall/jax2tf_main_/vmap/vmap/pjit_fn_/Mul_10", "op": "Mul", "input": ["StatefulPartitionedCall/jax2tf_main_/vmap/vmap/pjit_true_divide_/truediv_3", "StatefulPartitionedCall/jax2tf_main_/vmap/vmap/pjit_fn_/Reshape_27"], "attr": {"T": {"type": "DT_FLOAT"}}}, {"name": "StatefulPartitionedCall/jax2tf_main_/vmap/vmap/pjit_fn_/AddV2_16", "op": "AddV2", "input": ["StatefulPartitionedCall/jax2tf_main_/vmap/vmap/pjit_fn_/BroadcastTo_29", "StatefulPartitionedCall/jax2tf_main_/vmap/vmap/pjit_fn_/Mul_10"], "attr": {"T": {"type": "DT_FLOAT"}}}, {"name": "StatefulPartitionedCall/jax2tf_main_/vmap/vmap/pjit_absolute_/Abs_7", "op": "Abs", "input": ["StatefulPartitionedCall/jax2tf_main_/vmap/vmap/pjit_fn_/AddV2_16"], "attr": {"T": {"type": "DT_FLOAT"}}}, {"name": "StatefulPartitionedCall/jax2tf_main_/vmap/vmap/pjit__lambda__/Sub_15", "op": "SquaredDifference", "input": ["StatefulPartitionedCall/jax2tf_main_/vmap/vmap/pjit_absolute_/Abs_7", "StatefulPartitionedCall/jax2tf_main_/vmap/vmap/pjit__lambda__/BroadcastTo_15"], "attr": {"T": {"type": "DT_FLOAT"}}}, {"name": "StatefulPartitionedCall/jax2tf_main_/vmap/vmap/pjit_norm_/Sum_11", "op": "Sum", "input": ["StatefulPartitionedCall/jax2tf_main_/vmap/vmap/pjit__lambda__/Sub_15", "StatefulPartitionedCall/jax2tf_main_/vmap/vmap/pjit_norm_/Sum_11/reduction_indices"], "attr": {"T": {"type": "DT_FLOAT"}, "keep_dims": {"b": false}, "Tidx": {"type": "DT_INT32"}}}, {"name": "StatefulPartitionedCall/jax2tf_main_/vmap/vmap/pjit_norm_/Sqrt_11", "op": "Sqrt", "input": ["StatefulPartitionedCall/jax2tf_main_/vmap/vmap/pjit_norm_/Sum_11"], "attr": {"T": {"type": "DT_FLOAT"}}}, {"name": "StatefulPartitionedCall/jax2tf_main_/vmap/vmap/pjit__lambda__/Sub_16", "op": "Sub", "input": ["StatefulPartitionedCall/jax2tf_main_/vmap/vmap/pjit_norm_/Sqrt_11", "StatefulPartitionedCall/Const_41"], "attr": {"T": {"type": "DT_FLOAT"}}}, {"name": "StatefulPartitionedCall/jax2tf_main_/vmap/vmap/pjit_fn_/AddV2_17", "op": "AddV2", "input": ["StatefulPartitionedCall/jax2tf_main_/vmap/vmap/pjit_fn_/AddV2_15", "StatefulPartitionedCall/jax2tf_main_/vmap/vmap/pjit__lambda__/Sub_16"], "attr": {"T": {"type": "DT_FLOAT"}}}, {"name": "StatefulPartitionedCall/jax2tf_main_/vmap/vmap/pjit_fn_/Reshape_30", "op": "Reshape", "input": ["StatefulPartitionedCall/jax2tf_main_/vmap/vmap/pjit_fn_/AddV2_17", "StatefulPartitionedCall/jax2tf_main_/vmap/vmap/pjit_fn_/Reshape_30/shape"], "attr": {"Tshape": {"type": "DT_INT32"}, "T": {"type": "DT_FLOAT"}}}, {"name": "StatefulPartitionedCall/jax2tf_main_/vmap/vmap/pjit_fn_/Mul_11", "op": "Mul", "input": ["StatefulPartitionedCall/jax2tf_main_/vmap/vmap/pjit_true_divide_/truediv_3", "StatefulPartitionedCall/jax2tf_main_/vmap/vmap/pjit_fn_/Reshape_30"], "attr": {"T": {"type": "DT_FLOAT"}}}, {"name": "StatefulPartitionedCall/jax2tf_main_/vmap/vmap/pjit_fn_/AddV2_18", "op": "AddV2", "input": ["StatefulPartitionedCall/jax2tf_main_/vmap/vmap/pjit_fn_/BroadcastTo_32", "StatefulPartitionedCall/jax2tf_main_/vmap/vmap/pjit_fn_/Mul_11"], "attr": {"T": {"type": "DT_FLOAT"}}}, {"name": "StatefulPartitionedCall/jax2tf_main_/vmap/vmap/pjit_absolute_/Abs_8", "op": "Abs", "input": ["StatefulPartitionedCall/jax2tf_main_/vmap/vmap/pjit_fn_/AddV2_18"], "attr": {"T": {"type": "DT_FLOAT"}}}, {"name": "StatefulPartitionedCall/jax2tf_main_/vmap/vmap/pjit__lambda__/Sub_17", "op": "SquaredDifference", "input": ["StatefulPartitionedCall/jax2tf_main_/vmap/vmap/pjit_absolute_/Abs_8", "StatefulPartitionedCall/jax2tf_main_/vmap/vmap/pjit__lambda__/BroadcastTo_17"], "attr": {"T": {"type": "DT_FLOAT"}}}, {"name": "StatefulPartitionedCall/jax2tf_main_/vmap/vmap/pjit_norm_/Sum_12", "op": "Sum", "input": ["StatefulPartitionedCall/jax2tf_main_/vmap/vmap/pjit__lambda__/Sub_17", "StatefulPartitionedCall/jax2tf_main_/vmap/vmap/pjit_norm_/Sum_12/reduction_indices"], "attr": {"Tidx": {"type": "DT_INT32"}, "T": {"type": "DT_FLOAT"}, "keep_dims": {"b": false}}}, {"name": "StatefulPartitionedCall/jax2tf_main_/vmap/vmap/pjit_norm_/Sqrt_12", "op": "Sqrt", "input": ["StatefulPartitionedCall/jax2tf_main_/vmap/vmap/pjit_norm_/Sum_12"], "attr": {"T": {"type": "DT_FLOAT"}}}, {"name": "StatefulPartitionedCall/jax2tf_main_/vmap/vmap/pjit__lambda__/Sub_18", "op": "Sub", "input": ["StatefulPartitionedCall/jax2tf_main_/vmap/vmap/pjit_norm_/Sqrt_12", "StatefulPartitionedCall/Const_44"], "attr": {"T": {"type": "DT_FLOAT"}}}, {"name": "StatefulPartitionedCall/jax2tf_main_/vmap/vmap/pjit_fn_/AddV2_19", "op": "AddV2", "input": ["StatefulPartitionedCall/jax2tf_main_/vmap/vmap/pjit_fn_/AddV2_17", "StatefulPartitionedCall/jax2tf_main_/vmap/vmap/pjit__lambda__/Sub_18"], "attr": {"T": {"type": "DT_FLOAT"}}}, {"name": "StatefulPartitionedCall/jax2tf_main_/vmap/vmap/pjit_fn_/Reshape_33", "op": "Reshape", "input": ["StatefulPartitionedCall/jax2tf_main_/vmap/vmap/pjit_fn_/AddV2_19", "StatefulPartitionedCall/jax2tf_main_/vmap/vmap/pjit_fn_/Reshape_33/shape"], "attr": {"T": {"type": "DT_FLOAT"}, "Tshape": {"type": "DT_INT32"}}}, {"name": "StatefulPartitionedCall/jax2tf_main_/vmap/vmap/pjit_fn_/Mul_12", "op": "Mul", "input": ["StatefulPartitionedCall/jax2tf_main_/vmap/vmap/pjit_true_divide_/truediv_3", "StatefulPartitionedCall/jax2tf_main_/vmap/vmap/pjit_fn_/Reshape_33"], "attr": {"T": {"type": "DT_FLOAT"}}}, {"name": "StatefulPartitionedCall/jax2tf_main_/vmap/vmap/pjit_fn_/AddV2_20", "op": "AddV2", "input": ["StatefulPartitionedCall/jax2tf_main_/vmap/vmap/pjit_fn_/BroadcastTo_35", "StatefulPartitionedCall/jax2tf_main_/vmap/vmap/pjit_fn_/Mul_12"], "attr": {"T": {"type": "DT_FLOAT"}}}, {"name": "StatefulPartitionedCall/jax2tf_main_/vmap/vmap/pjit_absolute_/Abs_9", "op": "Abs", "input": ["StatefulPartitionedCall/jax2tf_main_/vmap/vmap/pjit_fn_/AddV2_20"], "attr": {"T": {"type": "DT_FLOAT"}}}, {"name": "StatefulPartitionedCall/jax2tf_main_/vmap/vmap/pjit__lambda__/Sub_19", "op": "SquaredDifference", "input": ["StatefulPartitionedCall/jax2tf_main_/vmap/vmap/pjit_absolute_/Abs_9", "StatefulPartitionedCall/jax2tf_main_/vmap/vmap/pjit__lambda__/BroadcastTo_19"], "attr": {"T": {"type": "DT_FLOAT"}}}, {"name": "StatefulPartitionedCall/jax2tf_main_/vmap/vmap/pjit_norm_/Sum_13", "op": "Sum", "input": ["StatefulPartitionedCall/jax2tf_main_/vmap/vmap/pjit__lambda__/Sub_19", "StatefulPartitionedCall/jax2tf_main_/vmap/vmap/pjit_norm_/Sum_13/reduction_indices"], "attr": {"T": {"type": "DT_FLOAT"}, "keep_dims": {"b": false}, "Tidx": {"type": "DT_INT32"}}}, {"name": "StatefulPartitionedCall/jax2tf_main_/vmap/vmap/pjit_norm_/Sqrt_13", "op": "Sqrt", "input": ["StatefulPartitionedCall/jax2tf_main_/vmap/vmap/pjit_norm_/Sum_13"], "attr": {"T": {"type": "DT_FLOAT"}}}, {"name": "StatefulPartitionedCall/jax2tf_main_/vmap/vmap/pjit__lambda__/Sub_20", "op": "Sub", "input": ["StatefulPartitionedCall/jax2tf_main_/vmap/vmap/pjit_norm_/Sqrt_13", "StatefulPartitionedCall/Const_47"], "attr": {"T": {"type": "DT_FLOAT"}}}, {"name": "StatefulPartitionedCall/jax2tf_main_/vmap/vmap/pjit_fn_/AddV2_21", "op": "AddV2", "input": ["StatefulPartitionedCall/jax2tf_main_/vmap/vmap/pjit_fn_/AddV2_19", "StatefulPartitionedCall/jax2tf_main_/vmap/vmap/pjit__lambda__/Sub_20"], "attr": {"T": {"type": "DT_FLOAT"}}}, {"name": "StatefulPartitionedCall/jax2tf_main_/vmap/vmap/pjit__lambda__/Reshape_20", "op": "Reshape", "input": ["StatefulPartitionedCall/jax2tf_main_/vmap/vmap/pjit_fn_/AddV2_21", "StatefulPartitionedCall/jax2tf_main_/vmap/vmap/pjit__lambda__/Reshape_20/shape"], "attr": {"T": {"type": "DT_FLOAT"}, "Tshape": {"type": "DT_INT32"}}}, {"name": "StatefulPartitionedCall/jax2tf_main_/vmap/vmap/pjit_dot_/Reshape", "op": "Reshape", "input": ["StatefulPartitionedCall/jax2tf_main_/vmap/vmap/pjit_fn_/AddV2_21", "StatefulPartitionedCall/jax2tf_main_/vmap/vmap/pjit_dot_/Reshape/shape"], "attr": {"T": {"type": "DT_FLOAT"}, "Tshape": {"type": "DT_INT32"}}}, {"name": "StatefulPartitionedCall/jax2tf_main_/vmap/vmap/pjit_fn_/Reshape_36", "op": "Reshape", "input": ["StatefulPartitionedCall/jax2tf_main_/vmap/vmap/pjit_fn_/AddV2_21", "StatefulPartitionedCall/jax2tf_main_/vmap/vmap/pjit_fn_/Reshape_36/shape"], "attr": {"T": {"type": "DT_FLOAT"}, "Tshape": {"type": "DT_INT32"}}}, {"name": "StatefulPartitionedCall/jax2tf_main_/vmap/vmap/pjit_dot_/Mul", "op": "Mul", "input": ["StatefulPartitionedCall/jax2tf_main_/vmap/vmap/pjit_fn_/Cast", "StatefulPartitionedCall/jax2tf_main_/vmap/vmap/pjit_dot_/Reshape"], "attr": {"T": {"type": "DT_FLOAT"}, "_grappler_ArithmeticOptimizer_MinimizeBroadcasts": {"b": true}}}, {"name": "StatefulPartitionedCall/jax2tf_main_/vmap/vmap/pjit_fn_/Mul_13", "op": "Mul", "input": ["StatefulPartitionedCall/jax2tf_main_/vmap/vmap/pjit_true_divide_/truediv_3", "StatefulPartitionedCall/jax2tf_main_/vmap/vmap/pjit_fn_/Reshape_36"], "attr": {"T": {"type": "DT_FLOAT"}}}, {"name": "StatefulPartitionedCall/jax2tf_main_/vmap/vmap/pjit_fn_/AddV2_22", "op": "AddV2", "input": ["StatefulPartitionedCall/jax2tf_main_/vmap/vmap/pjit_fn_/BroadcastTo_38", "StatefulPartitionedCall/jax2tf_main_/vmap/vmap/pjit_fn_/Mul_13"], "attr": {"T": {"type": "DT_FLOAT"}}}, {"name": "StatefulPartitionedCall/jax2tf_main_/vmap/vmap/jvp/pjit_absolute_/GreaterEqual", "op": "GreaterEqual", "input": ["StatefulPartitionedCall/jax2tf_main_/vmap/vmap/pjit_fn_/AddV2_22", "StatefulPartitionedCall/jax2tf_main_/vmap/vmap/jvp/Const_1"], "attr": {"T": {"type": "DT_FLOAT"}}}, {"name": "StatefulPartitionedCall/jax2tf_main_/vmap/vmap/jvp/pjit_absolute_/Abs", "op": "Abs", "input": ["StatefulPartitionedCall/jax2tf_main_/vmap/vmap/pjit_fn_/AddV2_22"], "attr": {"T": {"type": "DT_FLOAT"}}}, {"name": "StatefulPartitionedCall/jax2tf_main_/vmap/vmap/transpose/jax2tf_main_/vmap/vmap/jvp/pjit_absolute_/Equal_1", "op": "Equal", "input": ["StatefulPartitionedCall/jax2tf_main_/vmap/vmap/jvp/pjit_absolute_/GreaterEqual", "StatefulPartitionedCall/jax2tf_main_/vmap/vmap/transpose/jax2tf_main_/vmap/vmap/jvp/Const_5"], "attr": {"T": {"type": "DT_BOOL"}, "incompatible_shape_error": {"b": true}}}, {"name": "StatefulPartitionedCall/jax2tf_main_/vmap/vmap/transpose/jax2tf_main_/vmap/vmap/jvp/pjit_absolute_/Equal", "op": "Equal", "input": ["StatefulPartitionedCall/jax2tf_main_/vmap/vmap/jvp/pjit_absolute_/GreaterEqual", "StatefulPartitionedCall/jax2tf_main_/vmap/vmap/transpose/jax2tf_main_/vmap/vmap/jvp/Const_3"], "attr": {"incompatible_shape_error": {"b": true}, "T": {"type": "DT_BOOL"}}}, {"name": "StatefulPartitionedCall/jax2tf_main_/vmap/vmap/jvp/pjit__lambda__/Sub", "op": "Sub", "input": ["StatefulPartitionedCall/jax2tf_main_/vmap/vmap/jvp/pjit_absolute_/Abs", "StatefulPartitionedCall/jax2tf_main_/vmap/vmap/jvp/pjit__lambda__/BroadcastTo_1"], "attr": {"T": {"type": "DT_FLOAT"}}}, {"name": "StatefulPartitionedCall/jax2tf_main_/vmap/vmap/jvp/pjit_norm_/ArithmeticOptimizer/ReplaceMulWithSquare_Mul", "op": "Square", "input": ["StatefulPartitionedCall/jax2tf_main_/vmap/vmap/jvp/pjit__lambda__/Sub"], "attr": {"T": {"type": "DT_FLOAT"}}}, {"name": "StatefulPartitionedCall/jax2tf_main_/vmap/vmap/jvp/pjit_norm_/Sum", "op": "Sum", "input": ["StatefulPartitionedCall/jax2tf_main_/vmap/vmap/jvp/pjit_norm_/ArithmeticOptimizer/ReplaceMulWithSquare_Mul", "StatefulPartitionedCall/jax2tf_main_/vmap/vmap/jvp/pjit_norm_/Sum/reduction_indices"], "attr": {"Tidx": {"type": "DT_INT32"}, "T": {"type": "DT_FLOAT"}, "keep_dims": {"b": false}}}, {"name": "StatefulPartitionedCall/jax2tf_main_/vmap/vmap/jvp/pjit_norm_/Sqrt", "op": "Rsqrt", "input": ["StatefulPartitionedCall/jax2tf_main_/vmap/vmap/jvp/pjit_norm_/Sum"], "attr": {"T": {"type": "DT_FLOAT"}}}, {"name": "StatefulPartitionedCall/jax2tf_main_/vmap/vmap/jvp/pjit_norm_/truediv", "op": "Mul", "input": ["StatefulPartitionedCall/jax2tf_main_/vmap/vmap/jvp/Const_3", "StatefulPartitionedCall/jax2tf_main_/vmap/vmap/jvp/pjit_norm_/Sqrt"], "attr": {"T": {"type": "DT_FLOAT"}}}, {"name": "StatefulPartitionedCall/jax2tf_main_/vmap/vmap/transpose/jax2tf_main_/vmap/vmap/jvp/pjit_norm_/Reshape", "op": "Reshape", "input": ["StatefulPartitionedCall/jax2tf_main_/vmap/vmap/jvp/pjit_norm_/truediv", "StatefulPartitionedCall/jax2tf_main_/vmap/vmap/transpose/jax2tf_main_/vmap/vmap/jvp/pjit_norm_/Reshape/shape"], "attr": {"Tshape": {"type": "DT_INT32"}, "T": {"type": "DT_FLOAT"}}}, {"name": "StatefulPartitionedCall/jax2tf_main_/vmap/vmap/transpose/jax2tf_main_/vmap/vmap/jvp/pjit_norm_/BroadcastTo", "op": "BroadcastTo", "input": ["StatefulPartitionedCall/jax2tf_main_/vmap/vmap/transpose/jax2tf_main_/vmap/vmap/jvp/pjit_norm_/Reshape", "StatefulPartitionedCall/jax2tf_main_/vmap/vmap/transpose/jax2tf_main_/vmap/vmap/jvp/pjit_norm_/BroadcastTo/shape"], "attr": {"T": {"type": "DT_FLOAT"}, "Tidx": {"type": "DT_INT32"}}}, {"name": "StatefulPartitionedCall/jax2tf_main_/vmap/vmap/transpose/jax2tf_main_/vmap/vmap/jvp/pjit_norm_/Mul_1", "op": "Mul", "input": ["StatefulPartitionedCall/jax2tf_main_/vmap/vmap/jvp/pjit__lambda__/Sub", "StatefulPartitionedCall/jax2tf_main_/vmap/vmap/transpose/jax2tf_main_/vmap/vmap/jvp/pjit_norm_/BroadcastTo"], "attr": {"T": {"type": "DT_FLOAT"}}}, {"name": "StatefulPartitionedCall/jax2tf_main_/vmap/vmap/transpose/jax2tf_main_/vmap/vmap/jvp/pjit_norm_/Mul_2", "op": "Mul", "input": ["StatefulPartitionedCall/jax2tf_main_/vmap/vmap/transpose/jax2tf_main_/vmap/vmap/jvp/pjit_norm_/BroadcastTo", "StatefulPartitionedCall/jax2tf_main_/vmap/vmap/jvp/pjit__lambda__/Sub"], "attr": {"T": {"type": "DT_FLOAT"}}}, {"name": "StatefulPartitionedCall/jax2tf_main_/vmap/vmap/transpose/jax2tf_main_/vmap/vmap/jvp/pjit_norm_/AddV2", "op": "AddV2", "input": ["StatefulPartitionedCall/jax2tf_main_/vmap/vmap/transpose/jax2tf_main_/vmap/vmap/jvp/pjit_norm_/Mul_1", "StatefulPartitionedCall/jax2tf_main_/vmap/vmap/transpose/jax2tf_main_/vmap/vmap/jvp/pjit_norm_/Mul_2"], "attr": {"T": {"type": "DT_FLOAT"}}}, {"name": "StatefulPartitionedCall/jax2tf_main_/vmap/vmap/transpose/jax2tf_main_/vmap/vmap/jvp/pjit_absolute_/SelectV2_1", "op": "SelectV2", "input": ["StatefulPartitionedCall/jax2tf_main_/vmap/vmap/transpose/jax2tf_main_/vmap/vmap/jvp/pjit_absolute_/Equal_1", "StatefulPartitionedCall/jax2tf_main_/vmap/vmap/transpose/jax2tf_main_/vmap/vmap/jvp/pjit_norm_/AddV2", "StatefulPartitionedCall/jax2tf_main_/vmap/vmap/transpose/jax2tf_main_/vmap/vmap/jvp/pjit_absolute_/BroadcastTo_4"], "attr": {"T": {"type": "DT_FLOAT"}}}, {"name": "StatefulPartitionedCall/jax2tf_main_/vmap/vmap/transpose/jax2tf_main_/vmap/vmap/jvp/pjit_absolute_/SelectV2", "op": "SelectV2", "input": ["StatefulPartitionedCall/jax2tf_main_/vmap/vmap/transpose/jax2tf_main_/vmap/vmap/jvp/pjit_absolute_/Equal", "StatefulPartitionedCall/jax2tf_main_/vmap/vmap/transpose/jax2tf_main_/vmap/vmap/jvp/pjit_norm_/AddV2", "StatefulPartitionedCall/jax2tf_main_/vmap/vmap/transpose/jax2tf_main_/vmap/vmap/jvp/pjit_absolute_/BroadcastTo_2"], "attr": {"T": {"type": "DT_FLOAT"}}}, {"name": "StatefulPartitionedCall/jax2tf_main_/vmap/vmap/transpose/jax2tf_main_/vmap/vmap/jvp/pjit_absolute_/AddV2", "op": "Sub", "input": ["StatefulPartitionedCall/jax2tf_main_/vmap/vmap/transpose/jax2tf_main_/vmap/vmap/jvp/pjit_absolute_/SelectV2_1", "StatefulPartitionedCall/jax2tf_main_/vmap/vmap/transpose/jax2tf_main_/vmap/vmap/jvp/pjit_absolute_/SelectV2"], "attr": {"T": {"type": "DT_FLOAT"}}}, {"name": "StatefulPartitionedCall/jax2tf_main_/vmap/vmap/pjit_norm_/ArithmeticOptimizer/ReplaceMulWithSquare_Mul_14", "op": "Square", "input": ["StatefulPartitionedCall/jax2tf_main_/vmap/vmap/transpose/jax2tf_main_/vmap/vmap/jvp/pjit_absolute_/AddV2"], "attr": {"T": {"type": "DT_FLOAT"}}}, {"name": "StatefulPartitionedCall/jax2tf_main_/vmap/vmap/pjit_norm_/Sum_14", "op": "Sum", "input": ["StatefulPartitionedCall/jax2tf_main_/vmap/vmap/pjit_norm_/ArithmeticOptimizer/ReplaceMulWithSquare_Mul_14", "StatefulPartitionedCall/jax2tf_main_/vmap/vmap/pjit_norm_/Sum_14/reduction_indices"], "attr": {"keep_dims": {"b": false}, "Tidx": {"type": "DT_INT32"}, "T": {"type": "DT_FLOAT"}}}, {"name": "StatefulPartitionedCall/jax2tf_main_/vmap/vmap/pjit_norm_/Sqrt_14", "op": "Sqrt", "input": ["StatefulPartitionedCall/jax2tf_main_/vmap/vmap/pjit_norm_/Sum_14"], "attr": {"T": {"type": "DT_FLOAT"}}}, {"name": "StatefulPartitionedCall/jax2tf_main_/vmap/vmap/pjit_true_divide_/Reshape_1", "op": "Reshape", "input": ["StatefulPartitionedCall/jax2tf_main_/vmap/vmap/pjit_norm_/Sqrt_14", "StatefulPartitionedCall/jax2tf_main_/vmap/vmap/pjit_true_divide_/Reshape_1/shape"], "attr": {"T": {"type": "DT_FLOAT"}, "Tshape": {"type": "DT_INT32"}}}, {"name": "StatefulPartitionedCall/jax2tf_main_/vmap/vmap/pjit_true_divide_/truediv_4", "op": "RealDiv", "input": ["StatefulPartitionedCall/jax2tf_main_/vmap/vmap/transpose/jax2tf_main_/vmap/vmap/jvp/pjit_absolute_/AddV2", "StatefulPartitionedCall/jax2tf_main_/vmap/vmap/pjit_true_divide_/Reshape_1"], "attr": {"T": {"type": "DT_FLOAT"}}}, {"name": "StatefulPartitionedCall/jax2tf_main_/vmap/vmap/pjit_fn_/ArithmeticOptimizer/ReplaceMulWithSquare_Mul_14", "op": "Square", "input": ["StatefulPartitionedCall/jax2tf_main_/vmap/vmap/pjit_true_divide_/truediv_4"], "attr": {"T": {"type": "DT_FLOAT"}, "_grappler_ArithmeticOptimizer_MinimizeBroadcasts": {"b": true}}}, {"name": "StatefulPartitionedCall/jax2tf_main_/vmap/vmap/pjit_fn_/Mul_15", "op": "Mul", "input": ["StatefulPartitionedCall/jax2tf_main_/vmap/vmap/pjit_dot_/Mul", "StatefulPartitionedCall/jax2tf_main_/vmap/vmap/pjit_fn_/ArithmeticOptimizer/ReplaceMulWithSquare_Mul_14"], "attr": {"T": {"type": "DT_FLOAT"}, "_grappler_ArithmeticOptimizer_MinimizeBroadcasts": {"b": true}}}, {"name": "StatefulPartitionedCall/jax2tf_main_/vmap/vmap/pjit__lambda__/Sub_21", "op": "Sub", "input": ["StatefulPartitionedCall/jax2tf_main_/vmap/vmap/pjit__lambda__/Reshape_20", "StatefulPartitionedCall/jax2tf_main_/vmap/vmap/pjit_fn_/Mul_15"], "attr": {"T": {"type": "DT_FLOAT"}}}, {"name": "StatefulPartitionedCall/jax2tf_main_/vmap/vmap/pjit_absolute_/Abs_10", "op": "Abs", "input": ["StatefulPartitionedCall/jax2tf_main_/vmap/vmap/pjit_fn_/AddV2_22", "^StatefulPartitionedCall/jax2tf_main_/vmap/vmap/pjit__lambda__/Sub_21"], "attr": {"T": {"type": "DT_FLOAT"}}}, {"name": "StatefulPartitionedCall/jax2tf_main_/vmap/vmap/pjit__lambda__/Sub_22", "op": "SquaredDifference", "input": ["StatefulPartitionedCall/jax2tf_main_/vmap/vmap/pjit_absolute_/Abs_10", "StatefulPartitionedCall/jax2tf_main_/vmap/vmap/pjit__lambda__/BroadcastTo_22"], "attr": {"T": {"type": "DT_FLOAT"}}}, {"name": "StatefulPartitionedCall/jax2tf_main_/vmap/vmap/pjit_norm_/Sum_15", "op": "Sum", "input": ["StatefulPartitionedCall/jax2tf_main_/vmap/vmap/pjit__lambda__/Sub_22", "StatefulPartitionedCall/jax2tf_main_/vmap/vmap/pjit_norm_/Sum_15/reduction_indices"], "attr": {"keep_dims": {"b": false}, "Tidx": {"type": "DT_INT32"}, "T": {"type": "DT_FLOAT"}}}, {"name": "StatefulPartitionedCall/jax2tf_main_/vmap/vmap/pjit_norm_/Sqrt_15", "op": "Sqrt", "input": ["StatefulPartitionedCall/jax2tf_main_/vmap/vmap/pjit_norm_/Sum_15"], "attr": {"T": {"type": "DT_FLOAT"}}}, {"name": "StatefulPartitionedCall/jax2tf_main_/vmap/vmap/pjit__lambda__/Sub_23", "op": "Sub", "input": ["StatefulPartitionedCall/jax2tf_main_/vmap/vmap/pjit_norm_/Sqrt_15", "StatefulPartitionedCall/Const_59"], "attr": {"T": {"type": "DT_FLOAT"}}}, {"name": "StatefulPartitionedCall/jax2tf_main_/vmap/vmap/pjit_fn_/Reshape_39", "op": "Reshape", "input": ["StatefulPartitionedCall/jax2tf_main_/vmap/vmap/pjit__lambda__/Sub_23", "StatefulPartitionedCall/jax2tf_main_/vmap/vmap/pjit_fn_/Reshape_39/shape"], "attr": {"Tshape": {"type": "DT_INT32"}, "T": {"type": "DT_FLOAT"}}}, {"name": "StatefulPartitionedCall/jax2tf_main_/vmap/vmap/pjit_fn_/Mul_17", "op": "Mul", "input": ["StatefulPartitionedCall/jax2tf_main_/vmap/vmap/pjit__lambda__/Sub_21", "StatefulPartitionedCall/jax2tf_main_/vmap/vmap/pjit_fn_/Reshape_39"], "attr": {"T": {"type": "DT_FLOAT"}}}, {"name": "StatefulPartitionedCall/jax2tf_main_/vmap/vmap/pjit_fn_/AddV2_25", "op": "AddV2", "input": ["StatefulPartitionedCall/jax2tf_main_/vmap/vmap/pjit_fn_/AddV2_22", "StatefulPartitionedCall/jax2tf_main_/vmap/vmap/pjit_fn_/Mul_17"], "attr": {"T": {"type": "DT_FLOAT"}}}, {"name": "StatefulPartitionedCall/jax2tf_main_/vmap/vmap/pjit_absolute_/Abs_11", "op": "Abs", "input": ["StatefulPartitionedCall/jax2tf_main_/vmap/vmap/pjit_fn_/AddV2_25"], "attr": {"T": {"type": "DT_FLOAT"}}}, {"name": "StatefulPartitionedCall/jax2tf_main_/vmap/vmap/pjit__lambda__/Sub_24", "op": "SquaredDifference", "input": ["StatefulPartitionedCall/jax2tf_main_/vmap/vmap/pjit_absolute_/Abs_11", "StatefulPartitionedCall/jax2tf_main_/vmap/vmap/pjit__lambda__/BroadcastTo_24"], "attr": {"T": {"type": "DT_FLOAT"}}}, {"name": "StatefulPartitionedCall/jax2tf_main_/vmap/vmap/pjit_norm_/Sum_16", "op": "Sum", "input": ["StatefulPartitionedCall/jax2tf_main_/vmap/vmap/pjit__lambda__/Sub_24", "StatefulPartitionedCall/jax2tf_main_/vmap/vmap/pjit_norm_/Sum_16/reduction_indices"], "attr": {"keep_dims": {"b": false}, "Tidx": {"type": "DT_INT32"}, "T": {"type": "DT_FLOAT"}}}, {"name": "StatefulPartitionedCall/jax2tf_main_/vmap/vmap/pjit_norm_/Sqrt_16", "op": "Sqrt", "input": ["StatefulPartitionedCall/jax2tf_main_/vmap/vmap/pjit_norm_/Sum_16"], "attr": {"T": {"type": "DT_FLOAT"}}}, {"name": "StatefulPartitionedCall/jax2tf_main_/vmap/vmap/pjit__lambda__/Sub_25", "op": "Sub", "input": ["StatefulPartitionedCall/jax2tf_main_/vmap/vmap/pjit_norm_/Sqrt_16", "StatefulPartitionedCall/Const_64"], "attr": {"T": {"type": "DT_FLOAT"}}}, {"name": "StatefulPartitionedCall/jax2tf_main_/vmap/vmap/pjit_fn_/AddV2_26", "op": "AddV2", "input": ["StatefulPartitionedCall/jax2tf_main_/vmap/vmap/pjit__lambda__/Sub_23", "StatefulPartitionedCall/jax2tf_main_/vmap/vmap/pjit__lambda__/Sub_25"], "attr": {"T": {"type": "DT_FLOAT"}}}, {"name": "StatefulPartitionedCall/jax2tf_main_/vmap/vmap/pjit_fn_/Reshape_40", "op": "Reshape", "input": ["StatefulPartitionedCall/jax2tf_main_/vmap/vmap/pjit_fn_/AddV2_26", "StatefulPartitionedCall/jax2tf_main_/vmap/vmap/pjit_fn_/Reshape_40/shape"], "attr": {"Tshape": {"type": "DT_INT32"}, "T": {"type": "DT_FLOAT"}}}, {"name": "StatefulPartitionedCall/jax2tf_main_/vmap/vmap/pjit_fn_/Mul_18", "op": "Mul", "input": ["StatefulPartitionedCall/jax2tf_main_/vmap/vmap/pjit__lambda__/Sub_21", "StatefulPartitionedCall/jax2tf_main_/vmap/vmap/pjit_fn_/Reshape_40"], "attr": {"T": {"type": "DT_FLOAT"}}}, {"name": "StatefulPartitionedCall/jax2tf_main_/vmap/vmap/pjit_fn_/AddV2_27", "op": "AddV2", "input": ["StatefulPartitionedCall/jax2tf_main_/vmap/vmap/pjit_fn_/AddV2_22", "StatefulPartitionedCall/jax2tf_main_/vmap/vmap/pjit_fn_/Mul_18"], "attr": {"T": {"type": "DT_FLOAT"}}}, {"name": "StatefulPartitionedCall/jax2tf_main_/vmap/vmap/pjit_absolute_/Abs_12", "op": "Abs", "input": ["StatefulPartitionedCall/jax2tf_main_/vmap/vmap/pjit_fn_/AddV2_27"], "attr": {"T": {"type": "DT_FLOAT"}}}, {"name": "StatefulPartitionedCall/jax2tf_main_/vmap/vmap/pjit__lambda__/Sub_26", "op": "SquaredDifference", "input": ["StatefulPartitionedCall/jax2tf_main_/vmap/vmap/pjit_absolute_/Abs_12", "StatefulPartitionedCall/jax2tf_main_/vmap/vmap/pjit__lambda__/BroadcastTo_26"], "attr": {"T": {"type": "DT_FLOAT"}}}, {"name": "StatefulPartitionedCall/jax2tf_main_/vmap/vmap/pjit_norm_/Sum_17", "op": "Sum", "input": ["StatefulPartitionedCall/jax2tf_main_/vmap/vmap/pjit__lambda__/Sub_26", "StatefulPartitionedCall/jax2tf_main_/vmap/vmap/pjit_norm_/Sum_17/reduction_indices"], "attr": {"Tidx": {"type": "DT_INT32"}, "T": {"type": "DT_FLOAT"}, "keep_dims": {"b": false}}}, {"name": "StatefulPartitionedCall/jax2tf_main_/vmap/vmap/pjit_norm_/Sqrt_17", "op": "Sqrt", "input": ["StatefulPartitionedCall/jax2tf_main_/vmap/vmap/pjit_norm_/Sum_17"], "attr": {"T": {"type": "DT_FLOAT"}}}, {"name": "StatefulPartitionedCall/jax2tf_main_/vmap/vmap/pjit__lambda__/Sub_27", "op": "Sub", "input": ["StatefulPartitionedCall/jax2tf_main_/vmap/vmap/pjit_norm_/Sqrt_17", "StatefulPartitionedCall/Const_67"], "attr": {"T": {"type": "DT_FLOAT"}}}, {"name": "StatefulPartitionedCall/jax2tf_main_/vmap/vmap/pjit_fn_/AddV2_28", "op": "AddV2", "input": ["StatefulPartitionedCall/jax2tf_main_/vmap/vmap/pjit_fn_/AddV2_26", "StatefulPartitionedCall/jax2tf_main_/vmap/vmap/pjit__lambda__/Sub_27"], "attr": {"T": {"type": "DT_FLOAT"}}}, {"name": "StatefulPartitionedCall/jax2tf_main_/vmap/vmap/pjit_fn_/Reshape_41", "op": "Reshape", "input": ["StatefulPartitionedCall/jax2tf_main_/vmap/vmap/pjit_fn_/AddV2_28", "StatefulPartitionedCall/jax2tf_main_/vmap/vmap/pjit_fn_/Reshape_41/shape"], "attr": {"T": {"type": "DT_FLOAT"}, "Tshape": {"type": "DT_INT32"}}}, {"name": "StatefulPartitionedCall/jax2tf_main_/vmap/vmap/pjit_fn_/Mul_19", "op": "Mul", "input": ["StatefulPartitionedCall/jax2tf_main_/vmap/vmap/pjit__lambda__/Sub_21", "StatefulPartitionedCall/jax2tf_main_/vmap/vmap/pjit_fn_/Reshape_41"], "attr": {"T": {"type": "DT_FLOAT"}}}, {"name": "StatefulPartitionedCall/jax2tf_main_/vmap/vmap/pjit_fn_/AddV2_29", "op": "AddV2", "input": ["StatefulPartitionedCall/jax2tf_main_/vmap/vmap/pjit_fn_/AddV2_22", "StatefulPartitionedCall/jax2tf_main_/vmap/vmap/pjit_fn_/Mul_19"], "attr": {"T": {"type": "DT_FLOAT"}}}, {"name": "StatefulPartitionedCall/jax2tf_main_/vmap/vmap/pjit_absolute_/Abs_13", "op": "Abs", "input": ["StatefulPartitionedCall/jax2tf_main_/vmap/vmap/pjit_fn_/AddV2_29"], "attr": {"T": {"type": "DT_FLOAT"}}}, {"name": "StatefulPartitionedCall/jax2tf_main_/vmap/vmap/pjit__lambda__/Sub_28", "op": "SquaredDifference", "input": ["StatefulPartitionedCall/jax2tf_main_/vmap/vmap/pjit_absolute_/Abs_13", "StatefulPartitionedCall/jax2tf_main_/vmap/vmap/pjit__lambda__/BroadcastTo_28"], "attr": {"T": {"type": "DT_FLOAT"}}}, {"name": "StatefulPartitionedCall/jax2tf_main_/vmap/vmap/pjit_norm_/Sum_18", "op": "Sum", "input": ["StatefulPartitionedCall/jax2tf_main_/vmap/vmap/pjit__lambda__/Sub_28", "StatefulPartitionedCall/jax2tf_main_/vmap/vmap/pjit_norm_/Sum_18/reduction_indices"], "attr": {"Tidx": {"type": "DT_INT32"}, "keep_dims": {"b": false}, "T": {"type": "DT_FLOAT"}}}, {"name": "StatefulPartitionedCall/jax2tf_main_/vmap/vmap/pjit_norm_/Sqrt_18", "op": "Sqrt", "input": ["StatefulPartitionedCall/jax2tf_main_/vmap/vmap/pjit_norm_/Sum_18"], "attr": {"T": {"type": "DT_FLOAT"}}}, {"name": "StatefulPartitionedCall/jax2tf_main_/vmap/vmap/pjit__lambda__/Sub_29", "op": "Sub", "input": ["StatefulPartitionedCall/jax2tf_main_/vmap/vmap/pjit_norm_/Sqrt_18", "StatefulPartitionedCall/Const_70"], "attr": {"T": {"type": "DT_FLOAT"}}}, {"name": "StatefulPartitionedCall/jax2tf_main_/vmap/vmap/pjit_fn_/AddV2_30", "op": "AddV2", "input": ["StatefulPartitionedCall/jax2tf_main_/vmap/vmap/pjit_fn_/AddV2_28", "StatefulPartitionedCall/jax2tf_main_/vmap/vmap/pjit__lambda__/Sub_29"], "attr": {"T": {"type": "DT_FLOAT"}}}, {"name": "StatefulPartitionedCall/jax2tf_main_/vmap/vmap/pjit_fn_/Reshape_42", "op": "Reshape", "input": ["StatefulPartitionedCall/jax2tf_main_/vmap/vmap/pjit_fn_/AddV2_30", "StatefulPartitionedCall/jax2tf_main_/vmap/vmap/pjit_fn_/Reshape_42/shape"], "attr": {"Tshape": {"type": "DT_INT32"}, "T": {"type": "DT_FLOAT"}}}, {"name": "StatefulPartitionedCall/jax2tf_main_/vmap/vmap/pjit_fn_/Mul_20", "op": "Mul", "input": ["StatefulPartitionedCall/jax2tf_main_/vmap/vmap/pjit__lambda__/Sub_21", "StatefulPartitionedCall/jax2tf_main_/vmap/vmap/pjit_fn_/Reshape_42"], "attr": {"T": {"type": "DT_FLOAT"}}}, {"name": "StatefulPartitionedCall/jax2tf_main_/vmap/vmap/pjit_fn_/AddV2_31", "op": "AddV2", "input": ["StatefulPartitionedCall/jax2tf_main_/vmap/vmap/pjit_fn_/AddV2_22", "StatefulPartitionedCall/jax2tf_main_/vmap/vmap/pjit_fn_/Mul_20"], "attr": {"T": {"type": "DT_FLOAT"}}}, {"name": "StatefulPartitionedCall/jax2tf_main_/vmap/vmap/pjit_absolute_/Abs_14", "op": "Abs", "input": ["StatefulPartitionedCall/jax2tf_main_/vmap/vmap/pjit_fn_/AddV2_31"], "attr": {"T": {"type": "DT_FLOAT"}}}, {"name": "StatefulPartitionedCall/jax2tf_main_/vmap/vmap/pjit__lambda__/Sub_30", "op": "SquaredDifference", "input": ["StatefulPartitionedCall/jax2tf_main_/vmap/vmap/pjit_absolute_/Abs_14", "StatefulPartitionedCall/jax2tf_main_/vmap/vmap/pjit__lambda__/BroadcastTo_30"], "attr": {"T": {"type": "DT_FLOAT"}}}, {"name": "StatefulPartitionedCall/jax2tf_main_/vmap/vmap/pjit_norm_/Sum_19", "op": "Sum", "input": ["StatefulPartitionedCall/jax2tf_main_/vmap/vmap/pjit__lambda__/Sub_30", "StatefulPartitionedCall/jax2tf_main_/vmap/vmap/pjit_norm_/Sum_19/reduction_indices"], "attr": {"Tidx": {"type": "DT_INT32"}, "keep_dims": {"b": false}, "T": {"type": "DT_FLOAT"}}}, {"name": "StatefulPartitionedCall/jax2tf_main_/vmap/vmap/pjit_norm_/Sqrt_19", "op": "Sqrt", "input": ["StatefulPartitionedCall/jax2tf_main_/vmap/vmap/pjit_norm_/Sum_19"], "attr": {"T": {"type": "DT_FLOAT"}}}, {"name": "StatefulPartitionedCall/jax2tf_main_/vmap/vmap/pjit__lambda__/Sub_31", "op": "Sub", "input": ["StatefulPartitionedCall/jax2tf_main_/vmap/vmap/pjit_norm_/Sqrt_19", "StatefulPartitionedCall/Const_73"], "attr": {"T": {"type": "DT_FLOAT"}}}, {"name": "StatefulPartitionedCall/jax2tf_main_/vmap/vmap/pjit_fn_/AddV2_32", "op": "AddV2", "input": ["StatefulPartitionedCall/jax2tf_main_/vmap/vmap/pjit_fn_/AddV2_30", "StatefulPartitionedCall/jax2tf_main_/vmap/vmap/pjit__lambda__/Sub_31"], "attr": {"T": {"type": "DT_FLOAT"}}}, {"name": "StatefulPartitionedCall/jax2tf_main_/vmap/vmap/pjit_fn_/Reshape_43", "op": "Reshape", "input": ["StatefulPartitionedCall/jax2tf_main_/vmap/vmap/pjit_fn_/AddV2_32", "StatefulPartitionedCall/jax2tf_main_/vmap/vmap/pjit_fn_/Reshape_43/shape"], "attr": {"T": {"type": "DT_FLOAT"}, "Tshape": {"type": "DT_INT32"}}}, {"name": "StatefulPartitionedCall/jax2tf_main_/vmap/vmap/pjit_fn_/Mul_21", "op": "Mul", "input": ["StatefulPartitionedCall/jax2tf_main_/vmap/vmap/pjit__lambda__/Sub_21", "StatefulPartitionedCall/jax2tf_main_/vmap/vmap/pjit_fn_/Reshape_43"], "attr": {"T": {"type": "DT_FLOAT"}}}, {"name": "StatefulPartitionedCall/jax2tf_main_/vmap/vmap/pjit_fn_/AddV2_33", "op": "AddV2", "input": ["StatefulPartitionedCall/jax2tf_main_/vmap/vmap/pjit_fn_/AddV2_22", "StatefulPartitionedCall/jax2tf_main_/vmap/vmap/pjit_fn_/Mul_21"], "attr": {"T": {"type": "DT_FLOAT"}}}, {"name": "StatefulPartitionedCall/jax2tf_main_/vmap/vmap/pjit_absolute_/Abs_15", "op": "Abs", "input": ["StatefulPartitionedCall/jax2tf_main_/vmap/vmap/pjit_fn_/AddV2_33"], "attr": {"T": {"type": "DT_FLOAT"}}}, {"name": "StatefulPartitionedCall/jax2tf_main_/vmap/vmap/pjit__lambda__/Sub_32", "op": "SquaredDifference", "input": ["StatefulPartitionedCall/jax2tf_main_/vmap/vmap/pjit_absolute_/Abs_15", "StatefulPartitionedCall/jax2tf_main_/vmap/vmap/pjit__lambda__/BroadcastTo_32"], "attr": {"T": {"type": "DT_FLOAT"}}}, {"name": "StatefulPartitionedCall/jax2tf_main_/vmap/vmap/pjit_norm_/Sum_20", "op": "Sum", "input": ["StatefulPartitionedCall/jax2tf_main_/vmap/vmap/pjit__lambda__/Sub_32", "StatefulPartitionedCall/jax2tf_main_/vmap/vmap/pjit_norm_/Sum_20/reduction_indices"], "attr": {"Tidx": {"type": "DT_INT32"}, "keep_dims": {"b": false}, "T": {"type": "DT_FLOAT"}}}, {"name": "StatefulPartitionedCall/jax2tf_main_/vmap/vmap/pjit_norm_/Sqrt_20", "op": "Sqrt", "input": ["StatefulPartitionedCall/jax2tf_main_/vmap/vmap/pjit_norm_/Sum_20"], "attr": {"T": {"type": "DT_FLOAT"}}}, {"name": "StatefulPartitionedCall/jax2tf_main_/vmap/vmap/pjit__lambda__/Sub_33", "op": "Sub", "input": ["StatefulPartitionedCall/jax2tf_main_/vmap/vmap/pjit_norm_/Sqrt_20", "StatefulPartitionedCall/Const_76"], "attr": {"T": {"type": "DT_FLOAT"}}}, {"name": "StatefulPartitionedCall/jax2tf_main_/vmap/vmap/pjit_fn_/AddV2_34", "op": "AddV2", "input": ["StatefulPartitionedCall/jax2tf_main_/vmap/vmap/pjit_fn_/AddV2_32", "StatefulPartitionedCall/jax2tf_main_/vmap/vmap/pjit__lambda__/Sub_33"], "attr": {"T": {"type": "DT_FLOAT"}}}, {"name": "StatefulPartitionedCall/jax2tf_main_/vmap/vmap/pjit_fn_/Reshape_44", "op": "Reshape", "input": ["StatefulPartitionedCall/jax2tf_main_/vmap/vmap/pjit_fn_/AddV2_34", "StatefulPartitionedCall/jax2tf_main_/vmap/vmap/pjit_fn_/Reshape_44/shape"], "attr": {"T": {"type": "DT_FLOAT"}, "Tshape": {"type": "DT_INT32"}}}, {"name": "StatefulPartitionedCall/jax2tf_main_/vmap/vmap/pjit_fn_/Mul_22", "op": "Mul", "input": ["StatefulPartitionedCall/jax2tf_main_/vmap/vmap/pjit__lambda__/Sub_21", "StatefulPartitionedCall/jax2tf_main_/vmap/vmap/pjit_fn_/Reshape_44"], "attr": {"T": {"type": "DT_FLOAT"}}}, {"name": "StatefulPartitionedCall/jax2tf_main_/vmap/vmap/pjit_fn_/AddV2_35", "op": "AddV2", "input": ["StatefulPartitionedCall/jax2tf_main_/vmap/vmap/pjit_fn_/AddV2_22", "StatefulPartitionedCall/jax2tf_main_/vmap/vmap/pjit_fn_/Mul_22"], "attr": {"T": {"type": "DT_FLOAT"}}}, {"name": "StatefulPartitionedCall/jax2tf_main_/vmap/vmap/pjit_absolute_/Abs_16", "op": "Abs", "input": ["StatefulPartitionedCall/jax2tf_main_/vmap/vmap/pjit_fn_/AddV2_35"], "attr": {"T": {"type": "DT_FLOAT"}}}, {"name": "StatefulPartitionedCall/jax2tf_main_/vmap/vmap/pjit__lambda__/Sub_34", "op": "SquaredDifference", "input": ["StatefulPartitionedCall/jax2tf_main_/vmap/vmap/pjit_absolute_/Abs_16", "StatefulPartitionedCall/jax2tf_main_/vmap/vmap/pjit__lambda__/BroadcastTo_34"], "attr": {"T": {"type": "DT_FLOAT"}}}, {"name": "StatefulPartitionedCall/jax2tf_main_/vmap/vmap/pjit_norm_/Sum_21", "op": "Sum", "input": ["StatefulPartitionedCall/jax2tf_main_/vmap/vmap/pjit__lambda__/Sub_34", "StatefulPartitionedCall/jax2tf_main_/vmap/vmap/pjit_norm_/Sum_21/reduction_indices"], "attr": {"keep_dims": {"b": false}, "T": {"type": "DT_FLOAT"}, "Tidx": {"type": "DT_INT32"}}}, {"name": "StatefulPartitionedCall/jax2tf_main_/vmap/vmap/pjit_norm_/Sqrt_21", "op": "Sqrt", "input": ["StatefulPartitionedCall/jax2tf_main_/vmap/vmap/pjit_norm_/Sum_21"], "attr": {"T": {"type": "DT_FLOAT"}}}, {"name": "StatefulPartitionedCall/jax2tf_main_/vmap/vmap/pjit__lambda__/Sub_35", "op": "Sub", "input": ["StatefulPartitionedCall/jax2tf_main_/vmap/vmap/pjit_norm_/Sqrt_21", "StatefulPartitionedCall/Const_79"], "attr": {"T": {"type": "DT_FLOAT"}}}, {"name": "StatefulPartitionedCall/jax2tf_main_/vmap/vmap/pjit_fn_/AddV2_36", "op": "AddV2", "input": ["StatefulPartitionedCall/jax2tf_main_/vmap/vmap/pjit_fn_/AddV2_34", "StatefulPartitionedCall/jax2tf_main_/vmap/vmap/pjit__lambda__/Sub_35"], "attr": {"T": {"type": "DT_FLOAT"}}}, {"name": "StatefulPartitionedCall/jax2tf_main_/vmap/vmap/pjit_fn_/Reshape_45", "op": "Reshape", "input": ["StatefulPartitionedCall/jax2tf_main_/vmap/vmap/pjit_fn_/AddV2_36", "StatefulPartitionedCall/jax2tf_main_/vmap/vmap/pjit_fn_/Reshape_45/shape"], "attr": {"Tshape": {"type": "DT_INT32"}, "T": {"type": "DT_FLOAT"}}}, {"name": "StatefulPartitionedCall/jax2tf_main_/vmap/vmap/pjit_fn_/Mul_23", "op": "Mul", "input": ["StatefulPartitionedCall/jax2tf_main_/vmap/vmap/pjit__lambda__/Sub_21", "StatefulPartitionedCall/jax2tf_main_/vmap/vmap/pjit_fn_/Reshape_45"], "attr": {"T": {"type": "DT_FLOAT"}}}, {"name": "StatefulPartitionedCall/jax2tf_main_/vmap/vmap/pjit_fn_/AddV2_37", "op": "AddV2", "input": ["StatefulPartitionedCall/jax2tf_main_/vmap/vmap/pjit_fn_/AddV2_22", "StatefulPartitionedCall/jax2tf_main_/vmap/vmap/pjit_fn_/Mul_23"], "attr": {"T": {"type": "DT_FLOAT"}}}, {"name": "StatefulPartitionedCall/jax2tf_main_/vmap/vmap/pjit_absolute_/Abs_17", "op": "Abs", "input": ["StatefulPartitionedCall/jax2tf_main_/vmap/vmap/pjit_fn_/AddV2_37"], "attr": {"T": {"type": "DT_FLOAT"}}}, {"name": "StatefulPartitionedCall/jax2tf_main_/vmap/vmap/pjit__lambda__/Sub_36", "op": "SquaredDifference", "input": ["StatefulPartitionedCall/jax2tf_main_/vmap/vmap/pjit_absolute_/Abs_17", "StatefulPartitionedCall/jax2tf_main_/vmap/vmap/pjit__lambda__/BroadcastTo_36"], "attr": {"T": {"type": "DT_FLOAT"}}}, {"name": "StatefulPartitionedCall/jax2tf_main_/vmap/vmap/pjit_norm_/Sum_22", "op": "Sum", "input": ["StatefulPartitionedCall/jax2tf_main_/vmap/vmap/pjit__lambda__/Sub_36", "StatefulPartitionedCall/jax2tf_main_/vmap/vmap/pjit_norm_/Sum_22/reduction_indices"], "attr": {"T": {"type": "DT_FLOAT"}, "keep_dims": {"b": false}, "Tidx": {"type": "DT_INT32"}}}, {"name": "StatefulPartitionedCall/jax2tf_main_/vmap/vmap/pjit_norm_/Sqrt_22", "op": "Sqrt", "input": ["StatefulPartitionedCall/jax2tf_main_/vmap/vmap/pjit_norm_/Sum_22"], "attr": {"T": {"type": "DT_FLOAT"}}}, {"name": "StatefulPartitionedCall/jax2tf_main_/vmap/vmap/pjit__lambda__/Sub_37", "op": "Sub", "input": ["StatefulPartitionedCall/jax2tf_main_/vmap/vmap/pjit_norm_/Sqrt_22", "StatefulPartitionedCall/Const_82"], "attr": {"T": {"type": "DT_FLOAT"}}}, {"name": "StatefulPartitionedCall/jax2tf_main_/vmap/vmap/pjit_fn_/AddV2_38", "op": "AddV2", "input": ["StatefulPartitionedCall/jax2tf_main_/vmap/vmap/pjit_fn_/AddV2_36", "StatefulPartitionedCall/jax2tf_main_/vmap/vmap/pjit__lambda__/Sub_37"], "attr": {"T": {"type": "DT_FLOAT"}}}, {"name": "StatefulPartitionedCall/jax2tf_main_/vmap/vmap/pjit_fn_/Reshape_46", "op": "Reshape", "input": ["StatefulPartitionedCall/jax2tf_main_/vmap/vmap/pjit_fn_/AddV2_38", "StatefulPartitionedCall/jax2tf_main_/vmap/vmap/pjit_fn_/Reshape_46/shape"], "attr": {"Tshape": {"type": "DT_INT32"}, "T": {"type": "DT_FLOAT"}}}, {"name": "StatefulPartitionedCall/jax2tf_main_/vmap/vmap/pjit_fn_/Mul_24", "op": "Mul", "input": ["StatefulPartitionedCall/jax2tf_main_/vmap/vmap/pjit__lambda__/Sub_21", "StatefulPartitionedCall/jax2tf_main_/vmap/vmap/pjit_fn_/Reshape_46"], "attr": {"T": {"type": "DT_FLOAT"}}}, {"name": "StatefulPartitionedCall/jax2tf_main_/vmap/vmap/pjit_fn_/AddV2_39", "op": "AddV2", "input": ["StatefulPartitionedCall/jax2tf_main_/vmap/vmap/pjit_fn_/AddV2_22", "StatefulPartitionedCall/jax2tf_main_/vmap/vmap/pjit_fn_/Mul_24"], "attr": {"T": {"type": "DT_FLOAT"}}}, {"name": "StatefulPartitionedCall/jax2tf_main_/vmap/vmap/pjit_absolute_/Abs_18", "op": "Abs", "input": ["StatefulPartitionedCall/jax2tf_main_/vmap/vmap/pjit_fn_/AddV2_39"], "attr": {"T": {"type": "DT_FLOAT"}}}, {"name": "StatefulPartitionedCall/jax2tf_main_/vmap/vmap/pjit__lambda__/Sub_38", "op": "SquaredDifference", "input": ["StatefulPartitionedCall/jax2tf_main_/vmap/vmap/pjit_absolute_/Abs_18", "StatefulPartitionedCall/jax2tf_main_/vmap/vmap/pjit__lambda__/BroadcastTo_38"], "attr": {"T": {"type": "DT_FLOAT"}}}, {"name": "StatefulPartitionedCall/jax2tf_main_/vmap/vmap/pjit_norm_/Sum_23", "op": "Sum", "input": ["StatefulPartitionedCall/jax2tf_main_/vmap/vmap/pjit__lambda__/Sub_38", "StatefulPartitionedCall/jax2tf_main_/vmap/vmap/pjit_norm_/Sum_23/reduction_indices"], "attr": {"T": {"type": "DT_FLOAT"}, "keep_dims": {"b": false}, "Tidx": {"type": "DT_INT32"}}}, {"name": "StatefulPartitionedCall/jax2tf_main_/vmap/vmap/pjit_norm_/Sqrt_23", "op": "Sqrt", "input": ["StatefulPartitionedCall/jax2tf_main_/vmap/vmap/pjit_norm_/Sum_23"], "attr": {"T": {"type": "DT_FLOAT"}}}, {"name": "StatefulPartitionedCall/jax2tf_main_/vmap/vmap/pjit__lambda__/Sub_39", "op": "Sub", "input": ["StatefulPartitionedCall/jax2tf_main_/vmap/vmap/pjit_norm_/Sqrt_23", "StatefulPartitionedCall/Const_85"], "attr": {"T": {"type": "DT_FLOAT"}}}, {"name": "StatefulPartitionedCall/jax2tf_main_/vmap/vmap/pjit_fn_/AddV2_40", "op": "AddV2", "input": ["StatefulPartitionedCall/jax2tf_main_/vmap/vmap/pjit_fn_/AddV2_38", "StatefulPartitionedCall/jax2tf_main_/vmap/vmap/pjit__lambda__/Sub_39"], "attr": {"T": {"type": "DT_FLOAT"}}}, {"name": "StatefulPartitionedCall/jax2tf_main_/vmap/vmap/pjit_fn_/Reshape_47", "op": "Reshape", "input": ["StatefulPartitionedCall/jax2tf_main_/vmap/vmap/pjit_fn_/AddV2_40", "StatefulPartitionedCall/jax2tf_main_/vmap/vmap/pjit_fn_/Reshape_47/shape"], "attr": {"T": {"type": "DT_FLOAT"}, "Tshape": {"type": "DT_INT32"}}}, {"name": "StatefulPartitionedCall/jax2tf_main_/vmap/vmap/pjit_fn_/Mul_25", "op": "Mul", "input": ["StatefulPartitionedCall/jax2tf_main_/vmap/vmap/pjit__lambda__/Sub_21", "StatefulPartitionedCall/jax2tf_main_/vmap/vmap/pjit_fn_/Reshape_47"], "attr": {"T": {"type": "DT_FLOAT"}}}, {"name": "StatefulPartitionedCall/jax2tf_main_/vmap/vmap/pjit_fn_/AddV2_41", "op": "AddV2", "input": ["StatefulPartitionedCall/jax2tf_main_/vmap/vmap/pjit_fn_/AddV2_22", "StatefulPartitionedCall/jax2tf_main_/vmap/vmap/pjit_fn_/Mul_25"], "attr": {"T": {"type": "DT_FLOAT"}}}, {"name": "StatefulPartitionedCall/jax2tf_main_/vmap/vmap/pjit_absolute_/Abs_19", "op": "Abs", "input": ["StatefulPartitionedCall/jax2tf_main_/vmap/vmap/pjit_fn_/AddV2_41"], "attr": {"T": {"type": "DT_FLOAT"}}}, {"name": "StatefulPartitionedCall/jax2tf_main_/vmap/vmap/pjit__lambda__/Sub_40", "op": "SquaredDifference", "input": ["StatefulPartitionedCall/jax2tf_main_/vmap/vmap/pjit_absolute_/Abs_19", "StatefulPartitionedCall/jax2tf_main_/vmap/vmap/pjit__lambda__/BroadcastTo_40"], "attr": {"T": {"type": "DT_FLOAT"}}}, {"name": "StatefulPartitionedCall/jax2tf_main_/vmap/vmap/pjit_norm_/Sum_24", "op": "Sum", "input": ["StatefulPartitionedCall/jax2tf_main_/vmap/vmap/pjit__lambda__/Sub_40", "StatefulPartitionedCall/jax2tf_main_/vmap/vmap/pjit_norm_/Sum_24/reduction_indices"], "attr": {"T": {"type": "DT_FLOAT"}, "keep_dims": {"b": false}, "Tidx": {"type": "DT_INT32"}}}, {"name": "StatefulPartitionedCall/jax2tf_main_/vmap/vmap/pjit_norm_/Sqrt_24", "op": "Sqrt", "input": ["StatefulPartitionedCall/jax2tf_main_/vmap/vmap/pjit_norm_/Sum_24"], "attr": {"T": {"type": "DT_FLOAT"}}}, {"name": "StatefulPartitionedCall/jax2tf_main_/vmap/vmap/pjit__lambda__/Sub_41", "op": "Sub", "input": ["StatefulPartitionedCall/jax2tf_main_/vmap/vmap/pjit_norm_/Sqrt_24", "StatefulPartitionedCall/Const_88"], "attr": {"T": {"type": "DT_FLOAT"}}}, {"name": "StatefulPartitionedCall/jax2tf_main_/vmap/vmap/pjit_fn_/AddV2_42", "op": "AddV2", "input": ["StatefulPartitionedCall/jax2tf_main_/vmap/vmap/pjit_fn_/AddV2_40", "StatefulPartitionedCall/jax2tf_main_/vmap/vmap/pjit__lambda__/Sub_41"], "attr": {"T": {"type": "DT_FLOAT"}}}, {"name": "StatefulPartitionedCall/jax2tf_main_/vmap/vmap/pjit_fn_/Reshape_48", "op": "Reshape", "input": ["StatefulPartitionedCall/jax2tf_main_/vmap/vmap/pjit_fn_/AddV2_42", "StatefulPartitionedCall/jax2tf_main_/vmap/vmap/pjit_fn_/Reshape_48/shape"], "attr": {"Tshape": {"type": "DT_INT32"}, "T": {"type": "DT_FLOAT"}}}, {"name": "StatefulPartitionedCall/jax2tf_main_/vmap/vmap/pjit_fn_/Mul_26", "op": "Mul", "input": ["StatefulPartitionedCall/jax2tf_main_/vmap/vmap/pjit__lambda__/Sub_21", "StatefulPartitionedCall/jax2tf_main_/vmap/vmap/pjit_fn_/Reshape_48"], "attr": {"T": {"type": "DT_FLOAT"}}}, {"name": "StatefulPartitionedCall/jax2tf_main_/vmap/vmap/pjit_fn_/AddV2_43", "op": "AddV2", "input": ["StatefulPartitionedCall/jax2tf_main_/vmap/vmap/pjit_fn_/AddV2_22", "StatefulPartitionedCall/jax2tf_main_/vmap/vmap/pjit_fn_/Mul_26"], "attr": {"T": {"type": "DT_FLOAT"}}}, {"name": "StatefulPartitionedCall/jax2tf_main_/vmap/vmap/jvp/pjit_absolute_/GreaterEqual_1", "op": "GreaterEqual", "input": ["StatefulPartitionedCall/jax2tf_main_/vmap/vmap/pjit_fn_/AddV2_43", "StatefulPartitionedCall/jax2tf_main_/vmap/vmap/jvp/Const_5"], "attr": {"T": {"type": "DT_FLOAT"}}}, {"name": "StatefulPartitionedCall/jax2tf_main_/vmap/vmap/jvp/pjit_absolute_/Abs_1", "op": "Abs", "input": ["StatefulPartitionedCall/jax2tf_main_/vmap/vmap/pjit_fn_/AddV2_43"], "attr": {"T": {"type": "DT_FLOAT"}}}, {"name": "StatefulPartitionedCall/jax2tf_main_/vmap/vmap/transpose/jax2tf_main_/vmap/vmap/jvp/pjit_absolute_/Equal_3", "op": "Equal", "input": ["StatefulPartitionedCall/jax2tf_main_/vmap/vmap/jvp/pjit_absolute_/GreaterEqual_1", "StatefulPartitionedCall/jax2tf_main_/vmap/vmap/transpose/jax2tf_main_/vmap/vmap/jvp/Const_11"], "attr": {"T": {"type": "DT_BOOL"}, "incompatible_shape_error": {"b": true}}}, {"name": "StatefulPartitionedCall/jax2tf_main_/vmap/vmap/transpose/jax2tf_main_/vmap/vmap/jvp/pjit_absolute_/Equal_2", "op": "Equal", "input": ["StatefulPartitionedCall/jax2tf_main_/vmap/vmap/jvp/pjit_absolute_/GreaterEqual_1", "StatefulPartitionedCall/jax2tf_main_/vmap/vmap/transpose/jax2tf_main_/vmap/vmap/jvp/Const_9"], "attr": {"incompatible_shape_error": {"b": true}, "T": {"type": "DT_BOOL"}}}, {"name": "StatefulPartitionedCall/jax2tf_main_/vmap/vmap/jvp/pjit__lambda__/Sub_2", "op": "Sub", "input": ["StatefulPartitionedCall/jax2tf_main_/vmap/vmap/jvp/pjit_absolute_/Abs_1", "StatefulPartitionedCall/jax2tf_main_/vmap/vmap/jvp/pjit__lambda__/BroadcastTo_3"], "attr": {"T": {"type": "DT_FLOAT"}}}, {"name": "StatefulPartitionedCall/jax2tf_main_/vmap/vmap/jvp/pjit_norm_/ArithmeticOptimizer/ReplaceMulWithSquare_Mul_1", "op": "Square", "input": ["StatefulPartitionedCall/jax2tf_main_/vmap/vmap/jvp/pjit__lambda__/Sub_2"], "attr": {"T": {"type": "DT_FLOAT"}}}, {"name": "StatefulPartitionedCall/jax2tf_main_/vmap/vmap/jvp/pjit_norm_/Sum_1", "op": "Sum", "input": ["StatefulPartitionedCall/jax2tf_main_/vmap/vmap/jvp/pjit_norm_/ArithmeticOptimizer/ReplaceMulWithSquare_Mul_1", "StatefulPartitionedCall/jax2tf_main_/vmap/vmap/jvp/pjit_norm_/Sum_1/reduction_indices"], "attr": {"Tidx": {"type": "DT_INT32"}, "keep_dims": {"b": false}, "T": {"type": "DT_FLOAT"}}}, {"name": "StatefulPartitionedCall/jax2tf_main_/vmap/vmap/jvp/pjit_norm_/Sqrt_1", "op": "Rsqrt", "input": ["StatefulPartitionedCall/jax2tf_main_/vmap/vmap/jvp/pjit_norm_/Sum_1"], "attr": {"T": {"type": "DT_FLOAT"}}}, {"name": "StatefulPartitionedCall/jax2tf_main_/vmap/vmap/jvp/pjit_norm_/truediv_1", "op": "Mul", "input": ["StatefulPartitionedCall/jax2tf_main_/vmap/vmap/jvp/Const_7", "StatefulPartitionedCall/jax2tf_main_/vmap/vmap/jvp/pjit_norm_/Sqrt_1"], "attr": {"T": {"type": "DT_FLOAT"}}}, {"name": "StatefulPartitionedCall/jax2tf_main_/vmap/vmap/transpose/jax2tf_main_/vmap/vmap/jvp/pjit_norm_/Reshape_1", "op": "Reshape", "input": ["StatefulPartitionedCall/jax2tf_main_/vmap/vmap/jvp/pjit_norm_/truediv_1", "StatefulPartitionedCall/jax2tf_main_/vmap/vmap/transpose/jax2tf_main_/vmap/vmap/jvp/pjit_norm_/Reshape_1/shape"], "attr": {"Tshape": {"type": "DT_INT32"}, "T": {"type": "DT_FLOAT"}}}, {"name": "StatefulPartitionedCall/jax2tf_main_/vmap/vmap/transpose/jax2tf_main_/vmap/vmap/jvp/pjit_norm_/BroadcastTo_1", "op": "BroadcastTo", "input": ["StatefulPartitionedCall/jax2tf_main_/vmap/vmap/transpose/jax2tf_main_/vmap/vmap/jvp/pjit_norm_/Reshape_1", "StatefulPartitionedCall/jax2tf_main_/vmap/vmap/transpose/jax2tf_main_/vmap/vmap/jvp/pjit_norm_/BroadcastTo_1/shape"], "attr": {"Tidx": {"type": "DT_INT32"}, "T": {"type": "DT_FLOAT"}}}, {"name": "StatefulPartitionedCall/jax2tf_main_/vmap/vmap/transpose/jax2tf_main_/vmap/vmap/jvp/pjit_norm_/Mul_4", "op": "Mul", "input": ["StatefulPartitionedCall/jax2tf_main_/vmap/vmap/jvp/pjit__lambda__/Sub_2", "StatefulPartitionedCall/jax2tf_main_/vmap/vmap/transpose/jax2tf_main_/vmap/vmap/jvp/pjit_norm_/BroadcastTo_1"], "attr": {"T": {"type": "DT_FLOAT"}}}, {"name": "StatefulPartitionedCall/jax2tf_main_/vmap/vmap/transpose/jax2tf_main_/vmap/vmap/jvp/pjit_norm_/Mul_5", "op": "Mul", "input": ["StatefulPartitionedCall/jax2tf_main_/vmap/vmap/transpose/jax2tf_main_/vmap/vmap/jvp/pjit_norm_/BroadcastTo_1", "StatefulPartitionedCall/jax2tf_main_/vmap/vmap/jvp/pjit__lambda__/Sub_2"], "attr": {"T": {"type": "DT_FLOAT"}}}, {"name": "StatefulPartitionedCall/jax2tf_main_/vmap/vmap/transpose/jax2tf_main_/vmap/vmap/jvp/pjit_norm_/AddV2_1", "op": "AddV2", "input": ["StatefulPartitionedCall/jax2tf_main_/vmap/vmap/transpose/jax2tf_main_/vmap/vmap/jvp/pjit_norm_/Mul_4", "StatefulPartitionedCall/jax2tf_main_/vmap/vmap/transpose/jax2tf_main_/vmap/vmap/jvp/pjit_norm_/Mul_5"], "attr": {"T": {"type": "DT_FLOAT"}}}, {"name": "StatefulPartitionedCall/jax2tf_main_/vmap/vmap/transpose/jax2tf_main_/vmap/vmap/jvp/pjit_absolute_/SelectV2_3", "op": "SelectV2", "input": ["StatefulPartitionedCall/jax2tf_main_/vmap/vmap/transpose/jax2tf_main_/vmap/vmap/jvp/pjit_absolute_/Equal_3", "StatefulPartitionedCall/jax2tf_main_/vmap/vmap/transpose/jax2tf_main_/vmap/vmap/jvp/pjit_norm_/AddV2_1", "StatefulPartitionedCall/jax2tf_main_/vmap/vmap/transpose/jax2tf_main_/vmap/vmap/jvp/pjit_absolute_/BroadcastTo_9"], "attr": {"T": {"type": "DT_FLOAT"}}}, {"name": "StatefulPartitionedCall/jax2tf_main_/vmap/vmap/transpose/jax2tf_main_/vmap/vmap/jvp/pjit_absolute_/SelectV2_2", "op": "SelectV2", "input": ["StatefulPartitionedCall/jax2tf_main_/vmap/vmap/transpose/jax2tf_main_/vmap/vmap/jvp/pjit_absolute_/Equal_2", "StatefulPartitionedCall/jax2tf_main_/vmap/vmap/transpose/jax2tf_main_/vmap/vmap/jvp/pjit_norm_/AddV2_1", "StatefulPartitionedCall/jax2tf_main_/vmap/vmap/transpose/jax2tf_main_/vmap/vmap/jvp/pjit_absolute_/BroadcastTo_7"], "attr": {"T": {"type": "DT_FLOAT"}}}, {"name": "StatefulPartitionedCall/jax2tf_main_/vmap/vmap/transpose/jax2tf_main_/vmap/vmap/jvp/pjit_absolute_/AddV2_1", "op": "Sub", "input": ["StatefulPartitionedCall/jax2tf_main_/vmap/vmap/transpose/jax2tf_main_/vmap/vmap/jvp/pjit_absolute_/SelectV2_3", "StatefulPartitionedCall/jax2tf_main_/vmap/vmap/transpose/jax2tf_main_/vmap/vmap/jvp/pjit_absolute_/SelectV2_2"], "attr": {"T": {"type": "DT_FLOAT"}}}, {"name": "StatefulPartitionedCall/jax2tf_main_/vmap/vmap/pjit_norm_/ArithmeticOptimizer/ReplaceMulWithSquare_Mul_25", "op": "Square", "input": ["StatefulPartitionedCall/jax2tf_main_/vmap/vmap/transpose/jax2tf_main_/vmap/vmap/jvp/pjit_absolute_/AddV2_1"], "attr": {"T": {"type": "DT_FLOAT"}}}, {"name": "StatefulPartitionedCall/jax2tf_main_/vmap/vmap/pjit_norm_/Sum_25", "op": "Sum", "input": ["StatefulPartitionedCall/jax2tf_main_/vmap/vmap/pjit_norm_/ArithmeticOptimizer/ReplaceMulWithSquare_Mul_25", "StatefulPartitionedCall/jax2tf_main_/vmap/vmap/pjit_norm_/Sum_25/reduction_indices"], "attr": {"Tidx": {"type": "DT_INT32"}, "keep_dims": {"b": false}, "T": {"type": "DT_FLOAT"}}}, {"name": "StatefulPartitionedCall/jax2tf_main_/vmap/vmap/pjit_norm_/Sqrt_25", "op": "Sqrt", "input": ["StatefulPartitionedCall/jax2tf_main_/vmap/vmap/pjit_norm_/Sum_25"], "attr": {"T": {"type": "DT_FLOAT"}}}, {"name": "StatefulPartitionedCall/jax2tf_main_/vmap/vmap/pjit_true_divide_/Reshape_2", "op": "Reshape", "input": ["StatefulPartitionedCall/jax2tf_main_/vmap/vmap/pjit_norm_/Sqrt_25", "StatefulPartitionedCall/jax2tf_main_/vmap/vmap/pjit_true_divide_/Reshape_2/shape"], "attr": {"T": {"type": "DT_FLOAT"}, "Tshape": {"type": "DT_INT32"}}}, {"name": "StatefulPartitionedCall/jax2tf_main_/vmap/vmap/pjit_true_divide_/truediv_5", "op": "RealDiv", "input": ["StatefulPartitionedCall/jax2tf_main_/vmap/vmap/transpose/jax2tf_main_/vmap/vmap/jvp/pjit_absolute_/AddV2_1", "StatefulPartitionedCall/jax2tf_main_/vmap/vmap/pjit_true_divide_/Reshape_2"], "attr": {"T": {"type": "DT_FLOAT"}}}, {"name": "StatefulPartitionedCall/jax2tf_main_/vmap/vmap/pjit_dot_/einsum/Einsum", "op": "Einsum", "input": ["StatefulPartitionedCall/jax2tf_main_/vmap/vmap/pjit_true_divide_/truediv_5", "StatefulPartitionedCall/jax2tf_main_/vmap/vmap/pjit_true_divide_/truediv"], "attr": {"T": {"type": "DT_FLOAT"}, "N": {"i": "2"}, "equation": {"s": "YWJlLGUtPmFi"}}}, {"name": "StatefulPartitionedCall/jax2tf_main_/vmap/vmap/pjit_clip_/Maximum", "op": "Maximum", "input": ["StatefulPartitionedCall/Const_95", "StatefulPartitionedCall/jax2tf_main_/vmap/vmap/pjit_dot_/einsum/Einsum"], "attr": {"T": {"type": "DT_FLOAT"}}}, {"name": "StatefulPartitionedCall/jax2tf_main_/vmap/vmap/pjit_clip_/Minimum", "op": "Minimum", "input": ["StatefulPartitionedCall/Const_97", "StatefulPartitionedCall/jax2tf_main_/vmap/vmap/pjit_clip_/Maximum"], "attr": {"T": {"type": "DT_FLOAT"}}}, {"name": "StatefulPartitionedCall/jax2tf_main_/vmap/transpose", "op": "Transpose", "input": ["StatefulPartitionedCall/jax2tf_main_/vmap/vmap/pjit_clip_/Minimum", "StatefulPartitionedCall/jax2tf_main_/vmap/transpose/perm"], "attr": {"Tperm": {"type": "DT_INT32"}, "T": {"type": "DT_FLOAT"}}}, {"name": "StatefulPartitionedCall/jax2tf_main_/pjit_atleast_3d_/Reshape", "op": "Reshape", "input": ["StatefulPartitionedCall/jax2tf_main_/vmap/transpose", "StatefulPartitionedCall/jax2tf_main_/pjit_atleast_3d_/Reshape/shape"], "attr": {"T": {"type": "DT_FLOAT"}, "Tshape": {"type": "DT_INT32"}}}, {"name": "StatefulPartitionedCall/jax2tf_main_/pjit_atleast_3d_/Reshape_1", "op": "Reshape", "input": ["StatefulPartitionedCall/jax2tf_main_/vmap/transpose", "StatefulPartitionedCall/jax2tf_main_/pjit_atleast_3d_/Reshape_1/shape"], "attr": {"T": {"type": "DT_FLOAT"}, "Tshape": {"type": "DT_INT32"}}}, {"name": "StatefulPartitionedCall/jax2tf_main_/pjit_atleast_3d_/Reshape_2", "op": "Reshape", "input": ["StatefulPartitionedCall/jax2tf_main_/vmap/transpose", "StatefulPartitionedCall/jax2tf_main_/pjit_atleast_3d_/Reshape_2/shape"], "attr": {"Tshape": {"type": "DT_INT32"}, "T": {"type": "DT_FLOAT"}}}, {"name": "StatefulPartitionedCall/jax2tf_main_/concat", "op": "ConcatV2", "input": ["StatefulPartitionedCall/jax2tf_main_/pjit_atleast_3d_/Reshape", "StatefulPartitionedCall/jax2tf_main_/pjit_atleast_3d_/Reshape_1", "StatefulPartitionedCall/jax2tf_main_/pjit_atleast_3d_/Reshape_2", "StatefulPartitionedCall/jax2tf_main_/concat/axis"], "attr": {"N": {"i": "3"}, "T": {"type": "DT_FLOAT"}, "Tidx": {"type": "DT_INT32"}}}, {"name": "Identity", "op": "Identity", "input": ["StatefulPartitionedCall/jax2tf_main_/concat"], "attr": {"T": {"type": "DT_FLOAT"}}}], "library": {}, "versions": {"producer": 1286}}, "weightsManifest": [{"paths": ["group1-shard1of1.bin"], "weights": [{"name": "StatefulPartitionedCall/jax2tf_main_/pjit_atleast_3d_/Reshape/shape", "shape": [3], "dtype": "int32"}, {"name": "StatefulPartitionedCall/jax2tf_main_/pjit_atleast_3d_/Reshape_1/shape", "shape": [3], "dtype": "int32"}, {"name": "StatefulPartitionedCall/Const_97", "shape": [], "dtype": "float32"}, {"name": "StatefulPartitionedCall/Const_95", "shape": [], "dtype": "float32"}, {"name": "StatefulPartitionedCall/jax2tf_main_/vmap/vmap/transpose/jax2tf_main_/vmap/vmap/jvp/Const_11", "shape": [], "dtype": "bool"}, {"name": "StatefulPartitionedCall/jax2tf_main_/vmap/vmap/transpose/jax2tf_main_/vmap/vmap/jvp/pjit_absolute_/BroadcastTo_9", "shape": [92, 92, 3], "dtype": "float32"}, {"name": "StatefulPartitionedCall/jax2tf_main_/vmap/vmap/jvp/Const_5", "shape": [], "dtype": "float32"}, {"name": "StatefulPartitionedCall/jax2tf_main_/vmap/vmap/transpose/jax2tf_main_/vmap/vmap/jvp/Const_9", "shape": [], "dtype": "bool"}, {"name": "StatefulPartitionedCall/jax2tf_main_/vmap/vmap/jvp/Const_7", "shape": [], "dtype": "float32"}, {"name": "StatefulPartitionedCall/jax2tf_main_/vmap/vmap/jvp/pjit_norm_/Sum_1/reduction_indices", "shape": [1], "dtype": "int32"}, {"name": "StatefulPartitionedCall/jax2tf_main_/vmap/vmap/transpose/jax2tf_main_/vmap/vmap/jvp/pjit_norm_/Reshape_1/shape", "shape": [3], "dtype": "int32"}, {"name": "StatefulPartitionedCall/jax2tf_main_/vmap/vmap/transpose/jax2tf_main_/vmap/vmap/jvp/pjit_norm_/BroadcastTo_1/shape", "shape": [3], "dtype": "int32"}, {"name": "StatefulPartitionedCall/jax2tf_main_/vmap/vmap/pjit__lambda__/Reshape_20/shape", "shape": [3], "dtype": "int32"}, {"name": "StatefulPartitionedCall/jax2tf_main_/vmap/vmap/pjit_fn_/Cast", "shape": [], "dtype": "float32"}, {"name": "StatefulPartitionedCall/jax2tf_main_/vmap/vmap/pjit_dot_/Reshape/shape", "shape": [3], "dtype": "int32"}, {"name": "StatefulPartitionedCall/jax2tf_main_/vmap/vmap/transpose/jax2tf_main_/vmap/vmap/jvp/Const_5", "shape": [], "dtype": "bool"}, {"name": "StatefulPartitionedCall/jax2tf_main_/vmap/vmap/transpose/jax2tf_main_/vmap/vmap/jvp/pjit_absolute_/BroadcastTo_4", "shape": [92, 92, 3], "dtype": "float32"}, {"name": "StatefulPartitionedCall/jax2tf_main_/vmap/vmap/jvp/Const_1", "shape": [], "dtype": "float32"}, {"name": "StatefulPartitionedCall/jax2tf_main_/vmap/vmap/transpose/jax2tf_main_/vmap/vmap/jvp/Const_3", "shape": [], "dtype": "bool"}, {"name": "StatefulPartitionedCall/jax2tf_main_/vmap/vmap/jvp/Const_3", "shape": [], "dtype": "float32"}, {"name": "StatefulPartitionedCall/jax2tf_main_/vmap/vmap/jvp/pjit_norm_/Sum/reduction_indices", "shape": [1], "dtype": "int32"}, {"name": "StatefulPartitionedCall/jax2tf_main_/vmap/vmap/transpose/jax2tf_main_/vmap/vmap/jvp/pjit_norm_/Reshape/shape", "shape": [3], "dtype": "int32"}, {"name": "StatefulPartitionedCall/jax2tf_main_/vmap/vmap/transpose/jax2tf_main_/vmap/vmap/jvp/pjit_norm_/BroadcastTo/shape", "shape": [3], "dtype": "int32"}, {"name": "StatefulPartitionedCall/jax2tf_main_/vmap/vmap/pjit_fn_/BroadcastTo_38", "shape": [1, 1, 3], "dtype": "float32"}, {"name": "StatefulPartitionedCall/jax2tf_main_/vmap/vmap/pjit_fn_/BroadcastTo_35", "shape": [1, 1, 3], "dtype": "float32"}, {"name": "StatefulPartitionedCall/jax2tf_main_/vmap/vmap/pjit_fn_/BroadcastTo_32", "shape": [1, 1, 3], "dtype": "float32"}, {"name": "StatefulPartitionedCall/jax2tf_main_/vmap/vmap/pjit_fn_/BroadcastTo_29", "shape": [1, 1, 3], "dtype": "float32"}, {"name": "StatefulPartitionedCall/jax2tf_main_/vmap/vmap/pjit_fn_/BroadcastTo_26", "shape": [1, 1, 3], "dtype": "float32"}, {"name": "StatefulPartitionedCall/jax2tf_main_/vmap/vmap/pjit_fn_/BroadcastTo_23", "shape": [1, 1, 3], "dtype": "float32"}, {"name": "StatefulPartitionedCall/jax2tf_main_/vmap/vmap/pjit_fn_/BroadcastTo_20", "shape": [1, 1, 3], "dtype": "float32"}, {"name": "StatefulPartitionedCall/jax2tf_main_/vmap/vmap/pjit_fn_/BroadcastTo_17", "shape": [1, 1, 3], "dtype": "float32"}, {"name": "StatefulPartitionedCall/jax2tf_main_/vmap/vmap/pjit_fn_/BroadcastTo_14", "shape": [1, 1, 3], "dtype": "float32"}, {"name": "StatefulPartitionedCall/jax2tf_main_/vmap/vmap/pjit_fn_/BroadcastTo_11", "shape": [1, 1, 3], "dtype": "float32"}, {"name": "StatefulPartitionedCall/jax2tf_main_/vmap/vmap/pjit__lambda__/BroadcastTo_3", "shape": [1, 1, 3], "dtype": "float32"}, {"name": "StatefulPartitionedCall/jax2tf_main_/vmap/vmap/pjit_norm_/Sum_5/reduction_indices", "shape": [1], "dtype": "int32"}, {"name": "StatefulPartitionedCall/jax2tf_main_/vmap/vmap/pjit_true_divide_/truediv_1", "shape": [3], "dtype": "float32"}, {"name": "StatefulPartitionedCall/jax2tf_main_/vmap/vmap/clip_by_value", "shape": [1], "dtype": "int32"}, {"name": "StatefulPartitionedCall/jax2tf_main_/vmap/vmap/Slice/size", "shape": [1], "dtype": "int32"}, {"name": "StatefulPartitionedCall/jax2tf_main_/vmap/vmap/Reshape/shape_1", "shape": [0], "dtype": "int32"}, {"name": "StatefulPartitionedCall/jax2tf_main_/vmap/vmap/pjit_fn_/Reshape_2/shape", "shape": [2], "dtype": "int32"}, {"name": "StatefulPartitionedCall/jax2tf_main_/vmap/vmap/pjit_fn_/Mul_1", "shape": [92, 3], "dtype": "float32"}, {"name": "StatefulPartitionedCall/jax2tf_main_/vmap/vmap/pjit_fn_/Reshape_6/shape", "shape": [3], "dtype": "int32"}, {"name": "StatefulPartitionedCall/jax2tf_main_/vmap/vmap/pjit_fn_/BroadcastTo_5", "shape": [92, 1, 3], "dtype": "float32"}, {"name": "StatefulPartitionedCall/jax2tf_main_/vmap/vmap/pjit_norm_/Sum_3/reduction_indices", "shape": [1], "dtype": "int32"}, {"name": "StatefulPartitionedCall/jax2tf_main_/vmap/vmap/pjit_true_divide_/Reshape/shape", "shape": [3], "dtype": "int32"}, {"name": "StatefulPartitionedCall/jax2tf_main_/vmap/vmap/pjit_fn_/Reshape_12/shape", "shape": [3], "dtype": "int32"}, {"name": "StatefulPartitionedCall/jax2tf_main_/vmap/vmap/pjit__lambda__/BroadcastTo_5", "shape": [1, 1, 3], "dtype": "float32"}, {"name": "StatefulPartitionedCall/jax2tf_main_/vmap/vmap/pjit_norm_/Sum_6/reduction_indices", "shape": [1], "dtype": "int32"}, {"name": "StatefulPartitionedCall/Const_26", "shape": [], "dtype": "float32"}, {"name": "StatefulPartitionedCall/jax2tf_main_/vmap/vmap/pjit_fn_/Reshape_15/shape", "shape": [3], "dtype": "int32"}, {"name": "StatefulPartitionedCall/jax2tf_main_/vmap/vmap/pjit__lambda__/BroadcastTo_7", "shape": [1, 1, 3], "dtype": "float32"}, {"name": "StatefulPartitionedCall/jax2tf_main_/vmap/vmap/pjit_norm_/Sum_7/reduction_indices", "shape": [1], "dtype": "int32"}, {"name": "StatefulPartitionedCall/Const_29", "shape": [], "dtype": "float32"}, {"name": "StatefulPartitionedCall/jax2tf_main_/vmap/vmap/pjit_fn_/Reshape_18/shape", "shape": [3], "dtype": "int32"}, {"name": "StatefulPartitionedCall/jax2tf_main_/vmap/vmap/pjit__lambda__/BroadcastTo_9", "shape": [1, 1, 3], "dtype": "float32"}, {"name": "StatefulPartitionedCall/jax2tf_main_/vmap/vmap/pjit_norm_/Sum_8/reduction_indices", "shape": [1], "dtype": "int32"}, {"name": "StatefulPartitionedCall/Const_32", "shape": [], "dtype": "float32"}, {"name": "StatefulPartitionedCall/jax2tf_main_/vmap/vmap/pjit_fn_/Reshape_21/shape", "shape": [3], "dtype": "int32"}, {"name": "StatefulPartitionedCall/jax2tf_main_/vmap/vmap/pjit__lambda__/BroadcastTo_11", "shape": [1, 1, 3], "dtype": "float32"}, {"name": "StatefulPartitionedCall/jax2tf_main_/vmap/vmap/pjit_norm_/Sum_9/reduction_indices", "shape": [1], "dtype": "int32"}, {"name": "StatefulPartitionedCall/Const_35", "shape": [], "dtype": "float32"}, {"name": "StatefulPartitionedCall/jax2tf_main_/vmap/vmap/pjit_fn_/Reshape_24/shape", "shape": [3], "dtype": "int32"}, {"name": "StatefulPartitionedCall/jax2tf_main_/vmap/vmap/pjit__lambda__/BroadcastTo_13", "shape": [1, 1, 3], "dtype": "float32"}, {"name": "StatefulPartitionedCall/jax2tf_main_/vmap/vmap/pjit_norm_/Sum_10/reduction_indices", "shape": [1], "dtype": "int32"}, {"name": "StatefulPartitionedCall/Const_38", "shape": [], "dtype": "float32"}, {"name": "StatefulPartitionedCall/jax2tf_main_/vmap/vmap/pjit_fn_/Reshape_27/shape", "shape": [3], "dtype": "int32"}, {"name": "StatefulPartitionedCall/jax2tf_main_/vmap/vmap/pjit__lambda__/BroadcastTo_15", "shape": [1, 1, 3], "dtype": "float32"}, {"name": "StatefulPartitionedCall/jax2tf_main_/vmap/vmap/pjit_norm_/Sum_11/reduction_indices", "shape": [1], "dtype": "int32"}, {"name": "StatefulPartitionedCall/Const_41", "shape": [], "dtype": "float32"}, {"name": "StatefulPartitionedCall/jax2tf_main_/vmap/vmap/pjit_fn_/Reshape_30/shape", "shape": [3], "dtype": "int32"}, {"name": "StatefulPartitionedCall/jax2tf_main_/vmap/vmap/pjit__lambda__/BroadcastTo_17", "shape": [1, 1, 3], "dtype": "float32"}, {"name": "StatefulPartitionedCall/jax2tf_main_/vmap/vmap/pjit_norm_/Sum_12/reduction_indices", "shape": [1], "dtype": "int32"}, {"name": "StatefulPartitionedCall/Const_44", "shape": [], "dtype": "float32"}, {"name": "StatefulPartitionedCall/jax2tf_main_/vmap/vmap/pjit_fn_/Reshape_33/shape", "shape": [3], "dtype": "int32"}, {"name": "StatefulPartitionedCall/jax2tf_main_/vmap/vmap/pjit__lambda__/BroadcastTo_19", "shape": [1, 1, 3], "dtype": "float32"}, {"name": "StatefulPartitionedCall/jax2tf_main_/vmap/vmap/pjit_norm_/Sum_13/reduction_indices", "shape": [1], "dtype": "int32"}, {"name": "StatefulPartitionedCall/Const_47", "shape": [], "dtype": "float32"}, {"name": "StatefulPartitionedCall/jax2tf_main_/vmap/vmap/pjit_fn_/Reshape_36/shape", "shape": [3], "dtype": "int32"}, {"name": "StatefulPartitionedCall/jax2tf_main_/vmap/vmap/jvp/pjit__lambda__/BroadcastTo_1", "shape": [1, 1, 3], "dtype": "float32"}, {"name": "StatefulPartitionedCall/jax2tf_main_/vmap/vmap/transpose/jax2tf_main_/vmap/vmap/jvp/pjit_absolute_/BroadcastTo_2", "shape": [92, 92, 3], "dtype": "float32"}, {"name": "StatefulPartitionedCall/jax2tf_main_/vmap/vmap/pjit_norm_/Sum_14/reduction_indices", "shape": [1], "dtype": "int32"}, {"name": "StatefulPartitionedCall/jax2tf_main_/vmap/vmap/pjit_true_divide_/Reshape_1/shape", "shape": [3], "dtype": "int32"}, {"name": "StatefulPartitionedCall/jax2tf_main_/vmap/vmap/pjit__lambda__/BroadcastTo_22", "shape": [1, 1, 3], "dtype": "float32"}, {"name": "StatefulPartitionedCall/jax2tf_main_/vmap/vmap/pjit_norm_/Sum_15/reduction_indices", "shape": [1], "dtype": "int32"}, {"name": "StatefulPartitionedCall/Const_59", "shape": [], "dtype": "float32"}, {"name": "StatefulPartitionedCall/jax2tf_main_/vmap/vmap/pjit_fn_/Reshape_39/shape", "shape": [3], "dtype": "int32"}, {"name": "StatefulPartitionedCall/jax2tf_main_/vmap/vmap/pjit__lambda__/BroadcastTo_24", "shape": [1, 1, 3], "dtype": "float32"}, {"name": "StatefulPartitionedCall/jax2tf_main_/vmap/vmap/pjit_norm_/Sum_16/reduction_indices", "shape": [1], "dtype": "int32"}, {"name": "StatefulPartitionedCall/Const_64", "shape": [], "dtype": "float32"}, {"name": "StatefulPartitionedCall/jax2tf_main_/vmap/vmap/pjit_fn_/Reshape_40/shape", "shape": [3], "dtype": "int32"}, {"name": "StatefulPartitionedCall/jax2tf_main_/vmap/vmap/pjit__lambda__/BroadcastTo_26", "shape": [1, 1, 3], "dtype": "float32"}, {"name": "StatefulPartitionedCall/jax2tf_main_/vmap/vmap/pjit_norm_/Sum_17/reduction_indices", "shape": [1], "dtype": "int32"}, {"name": "StatefulPartitionedCall/Const_67", "shape": [], "dtype": "float32"}, {"name": "StatefulPartitionedCall/jax2tf_main_/vmap/vmap/pjit_fn_/Reshape_41/shape", "shape": [3], "dtype": "int32"}, {"name": "StatefulPartitionedCall/jax2tf_main_/vmap/vmap/pjit__lambda__/BroadcastTo_28", "shape": [1, 1, 3], "dtype": "float32"}, {"name": "StatefulPartitionedCall/jax2tf_main_/vmap/vmap/pjit_norm_/Sum_18/reduction_indices", "shape": [1], "dtype": "int32"}, {"name": "StatefulPartitionedCall/Const_70", "shape": [], "dtype": "float32"}, {"name": "StatefulPartitionedCall/jax2tf_main_/vmap/vmap/pjit_fn_/Reshape_42/shape", "shape": [3], "dtype": "int32"}, {"name": "StatefulPartitionedCall/jax2tf_main_/vmap/vmap/pjit__lambda__/BroadcastTo_30", "shape": [1, 1, 3], "dtype": "float32"}, {"name": "StatefulPartitionedCall/jax2tf_main_/vmap/vmap/pjit_norm_/Sum_19/reduction_indices", "shape": [1], "dtype": "int32"}, {"name": "StatefulPartitionedCall/Const_73", "shape": [], "dtype": "float32"}, {"name": "StatefulPartitionedCall/jax2tf_main_/vmap/vmap/pjit_fn_/Reshape_43/shape", "shape": [3], "dtype": "int32"}, {"name": "StatefulPartitionedCall/jax2tf_main_/vmap/vmap/pjit__lambda__/BroadcastTo_32", "shape": [1, 1, 3], "dtype": "float32"}, {"name": "StatefulPartitionedCall/jax2tf_main_/vmap/vmap/pjit_norm_/Sum_20/reduction_indices", "shape": [1], "dtype": "int32"}, {"name": "StatefulPartitionedCall/Const_76", "shape": [], "dtype": "float32"}, {"name": "StatefulPartitionedCall/jax2tf_main_/vmap/vmap/pjit_fn_/Reshape_44/shape", "shape": [3], "dtype": "int32"}, {"name": "StatefulPartitionedCall/jax2tf_main_/vmap/vmap/pjit__lambda__/BroadcastTo_34", "shape": [1, 1, 3], "dtype": "float32"}, {"name": "StatefulPartitionedCall/jax2tf_main_/vmap/vmap/pjit_norm_/Sum_21/reduction_indices", "shape": [1], "dtype": "int32"}, {"name": "StatefulPartitionedCall/Const_79", "shape": [], "dtype": "float32"}, {"name": "StatefulPartitionedCall/jax2tf_main_/vmap/vmap/pjit_fn_/Reshape_45/shape", "shape": [3], "dtype": "int32"}, {"name": "StatefulPartitionedCall/jax2tf_main_/vmap/vmap/pjit__lambda__/BroadcastTo_36", "shape": [1, 1, 3], "dtype": "float32"}, {"name": "StatefulPartitionedCall/jax2tf_main_/vmap/vmap/pjit_norm_/Sum_22/reduction_indices", "shape": [1], "dtype": "int32"}, {"name": "StatefulPartitionedCall/Const_82", "shape": [], "dtype": "float32"}, {"name": "StatefulPartitionedCall/jax2tf_main_/vmap/vmap/pjit_fn_/Reshape_46/shape", "shape": [3], "dtype": "int32"}, {"name": "StatefulPartitionedCall/jax2tf_main_/vmap/vmap/pjit__lambda__/BroadcastTo_38", "shape": [1, 1, 3], "dtype": "float32"}, {"name": "StatefulPartitionedCall/jax2tf_main_/vmap/vmap/pjit_norm_/Sum_23/reduction_indices", "shape": [1], "dtype": "int32"}, {"name": "StatefulPartitionedCall/Const_85", "shape": [], "dtype": "float32"}, {"name": "StatefulPartitionedCall/jax2tf_main_/vmap/vmap/pjit_fn_/Reshape_47/shape", "shape": [3], "dtype": "int32"}, {"name": "StatefulPartitionedCall/jax2tf_main_/vmap/vmap/pjit__lambda__/BroadcastTo_40", "shape": [1, 1, 3], "dtype": "float32"}, {"name": "StatefulPartitionedCall/jax2tf_main_/vmap/vmap/pjit_norm_/Sum_24/reduction_indices", "shape": [1], "dtype": "int32"}, {"name": "StatefulPartitionedCall/Const_88", "shape": [], "dtype": "float32"}, {"name": "StatefulPartitionedCall/jax2tf_main_/vmap/vmap/pjit_fn_/Reshape_48/shape", "shape": [3], "dtype": "int32"}, {"name": "StatefulPartitionedCall/jax2tf_main_/vmap/vmap/jvp/pjit__lambda__/BroadcastTo_3", "shape": [1, 1, 3], "dtype": "float32"}, {"name": "StatefulPartitionedCall/jax2tf_main_/vmap/vmap/transpose/jax2tf_main_/vmap/vmap/jvp/pjit_absolute_/BroadcastTo_7", "shape": [92, 92, 3], "dtype": "float32"}, {"name": "StatefulPartitionedCall/jax2tf_main_/vmap/vmap/pjit_norm_/Sum_25/reduction_indices", "shape": [1], "dtype": "int32"}, {"name": "StatefulPartitionedCall/jax2tf_main_/vmap/vmap/pjit_true_divide_/Reshape_2/shape", "shape": [3], "dtype": "int32"}, {"name": "StatefulPartitionedCall/jax2tf_main_/vmap/vmap/pjit_true_divide_/truediv", "shape": [3], "dtype": "float32"}, {"name": "StatefulPartitionedCall/jax2tf_main_/vmap/transpose/perm", "shape": [2], "dtype": "int32"}, {"name": "StatefulPartitionedCall/jax2tf_main_/pjit_atleast_3d_/Reshape_2/shape", "shape": [3], "dtype": "int32"}, {"name": "StatefulPartitionedCall/jax2tf_main_/concat/axis", "shape": [], "dtype": "int32"}, {"name": "StatefulPartitionedCall/jax2tf_main_/vmap/vmap/pjit_fn_/BroadcastTo_9", "shape": [92, 92, 1], "dtype": "float32"}, {"name": "StatefulPartitionedCall/jax2tf_main_/vmap/vmap/pjit__lambda__/Sub_4", "shape": [92, 92], "dtype": "float32"}]}]}