{"format": "graph-model", "generatedBy": "2.15.0", "convertedBy": "TensorFlow.js Converter v4.17.0", "signature": {"inputs": {"xs_0": {"name": "xs_0:0", "dtype": "DT_FLOAT", "tensorShape": {"dim": [{"size": "3"}]}}}, "outputs": {"output_0": {"name": "Identity:0", "dtype": "DT_FLOAT", "tensorShape": {"dim": [{"size": "512"}, {"size": "512"}]}}}}, "modelTopology": {"node": [{"name": "ConstantFolding/PartitionedCall/jax2tf_main_/vmap/vmap/pjit_true_divide_/truediv_7_recip", "op": "Const", "attr": {"value": {"tensor": {"dtype": "DT_FLOAT", "tensorShape": {}}}, "dtype": {"type": "DT_FLOAT"}}}, {"name": "PartitionedCall/jax2tf_main_/vmap/vmap/transpose/jax2tf_main_/vmap/vmap/jvp/Const_1", "op": "Const", "attr": {"value": {"tensor": {"dtype": "DT_BOOL", "tensorShape": {}}}, "dtype": {"type": "DT_BOOL"}}}, {"name": "PartitionedCall/jax2tf_main_/vmap/vmap/transpose/jax2tf_main_/vmap/vmap/jvp/pjit_remainder_/Reshape_2", "op": "Const", "attr": {"value": {"tensor": {"dtype": "DT_FLOAT", "tensorShape": {"dim": [{"size": "1"}, {"size": "512"}, {"size": "3"}]}}}, "dtype": {"type": "DT_FLOAT"}}}, {"name": "PartitionedCall/jax2tf_main_/vmap/vmap/transpose/jax2tf_main_/vmap/vmap/jvp/pjit_remainder_/BroadcastTo_2/shape", "op": "Const", "attr": {"value": {"tensor": {"dtype": "DT_INT32", "tensorShape": {"dim": [{"size": "3"}]}}}, "dtype": {"type": "DT_INT32"}}}, {"name": "PartitionedCall/jax2tf_main_/vmap/vmap/transpose/jax2tf_main_/vmap/vmap/jvp/Const_2", "op": "Const", "attr": {"value": {"tensor": {"dtype": "DT_BOOL", "tensorShape": {}}}, "dtype": {"type": "DT_BOOL"}}}, {"name": "PartitionedCall/jax2tf_main_/vmap/vmap/jvp/Const_4", "op": "Const", "attr": {"value": {"tensor": {"dtype": "DT_FLOAT", "tensorShape": {}}}, "dtype": {"type": "DT_FLOAT"}}}, {"name": "PartitionedCall/jax2tf_main_/vmap/vmap/jvp/pjit_norm_/Sum/reduction_indices", "op": "Const", "attr": {"value": {"tensor": {"dtype": "DT_INT32", "tensorShape": {"dim": [{"size": "1"}]}}}, "dtype": {"type": "DT_INT32"}}}, {"name": "PartitionedCall/jax2tf_main_/vmap/vmap/transpose/jax2tf_main_/vmap/vmap/jvp/pjit_norm_/Reshape/shape", "op": "Const", "attr": {"value": {"tensor": {"dtype": "DT_INT32", "tensorShape": {"dim": [{"size": "3"}]}}}, "dtype": {"type": "DT_INT32"}}}, {"name": "PartitionedCall/jax2tf_main_/vmap/vmap/transpose/jax2tf_main_/vmap/vmap/jvp/pjit_norm_/BroadcastTo/shape", "op": "Const", "attr": {"value": {"tensor": {"dtype": "DT_INT32", "tensorShape": {"dim": [{"size": "3"}]}}}, "dtype": {"type": "DT_INT32"}}}, {"name": "PartitionedCall/jax2tf_main_/vmap/vmap/jvp/Const_1", "op": "Const", "attr": {"value": {"tensor": {"dtype": "DT_FLOAT", "tensorShape": {}}}, "dtype": {"type": "DT_FLOAT"}}}, {"name": "PartitionedCall/jax2tf_main_/vmap/vmap/jvp/pjit_remainder_/Less_1", "op": "Const", "attr": {"value": {"tensor": {"dtype": "DT_BOOL", "tensorShape": {}}}, "dtype": {"type": "DT_BOOL"}}}, {"name": "PartitionedCall/jax2tf_main_/vmap/vmap/jvp/Const", "op": "Const", "attr": {"value": {"tensor": {"dtype": "DT_FLOAT", "tensorShape": {}}}, "dtype": {"type": "DT_FLOAT"}}}, {"name": "PartitionedCall/Const_79", "op": "Const", "attr": {"value": {"tensor": {"dtype": "DT_FLOAT", "tensorShape": {}}}, "dtype": {"type": "DT_FLOAT"}}}, {"name": "PartitionedCall/jax2tf_main_/vmap/vmap/pjit_fn_/Reshape_68/shape", "op": "Const", "attr": {"value": {"tensor": {"dtype": "DT_INT32", "tensorShape": {"dim": [{"size": "3"}]}}}, "dtype": {"type": "DT_INT32"}}}, {"name": "PartitionedCall/jax2tf_main_/vmap/vmap/pjit_fn_/Reshape_66/shape", "op": "Const", "attr": {"value": {"tensor": {"dtype": "DT_INT32", "tensorShape": {"dim": [{"size": "3"}]}}}, "dtype": {"type": "DT_INT32"}}}, {"name": "PartitionedCall/jax2tf_main_/vmap/vmap/jvp/pjit_remainder_/Abs_1", "op": "Const", "attr": {"value": {"tensor": {"dtype": "DT_FLOAT", "tensorShape": {}}}, "dtype": {"type": "DT_FLOAT"}}}, {"name": "PartitionedCall/Const_80", "op": "Const", "attr": {"value": {"tensor": {"dtype": "DT_FLOAT", "tensorShape": {}}}, "dtype": {"type": "DT_FLOAT"}}}, {"name": "PartitionedCall/jax2tf_main_/vmap/vmap/transpose/jax2tf_main_/vmap/vmap/jvp/pjit_remainder_/Reshape_4", "op": "Const", "attr": {"value": {"tensor": {"dtype": "DT_FLOAT", "tensorShape": {"dim": [{"size": "1"}, {"size": "512"}, {"size": "3"}]}}}, "dtype": {"type": "DT_FLOAT"}}}, {"name": "PartitionedCall/jax2tf_main_/vmap/vmap/transpose/jax2tf_main_/vmap/vmap/jvp/pjit_remainder_/BroadcastTo_4/shape", "op": "Const", "attr": {"value": {"tensor": {"dtype": "DT_INT32", "tensorShape": {"dim": [{"size": "3"}]}}}, "dtype": {"type": "DT_INT32"}}}, {"name": "PartitionedCall/jax2tf_main_/vmap/vmap/pjit_true_divide_/truediv_6", "op": "Const", "attr": {"value": {"tensor": {"dtype": "DT_FLOAT", "tensorShape": {"dim": [{"size": "3"}]}}}, "dtype": {"type": "DT_FLOAT"}}}, {"name": "PartitionedCall/jax2tf_main_/vmap/vmap/pjit_fn_/Cast_1", "op": "Const", "attr": {"value": {"tensor": {"dtype": "DT_FLOAT", "tensorShape": {}}}, "dtype": {"type": "DT_FLOAT"}}}, {"name": "PartitionedCall/Const_86", "op": "Const", "attr": {"value": {"tensor": {"dtype": "DT_FLOAT", "tensorShape": {}}}, "dtype": {"type": "DT_FLOAT"}}}, {"name": "PartitionedCall/Const_85", "op": "Const", "attr": {"value": {"tensor": {"dtype": "DT_FLOAT", "tensorShape": {}}}, "dtype": {"type": "DT_FLOAT"}}}, {"name": "PartitionedCall/Const_84", "op": "Const", "attr": {"value": {"tensor": {"dtype": "DT_FLOAT", "tensorShape": {}}}, "dtype": {"type": "DT_FLOAT"}}}, {"name": "PartitionedCall/jax2tf_main_/vmap/vmap/Const_70", "op": "Const", "attr": {"value": {"tensor": {"dtype": "DT_FLOAT", "tensorShape": {}}}, "dtype": {"type": "DT_FLOAT"}}}, {"name": "PartitionedCall/jax2tf_main_/vmap/vmap/pjit_remainder_/Less_39", "op": "Const", "attr": {"value": {"tensor": {"dtype": "DT_BOOL", "tensorShape": {}}}, "dtype": {"type": "DT_BOOL"}}}, {"name": "PartitionedCall/jax2tf_main_/vmap/vmap/Const_69", "op": "Const", "attr": {"value": {"tensor": {"dtype": "DT_FLOAT", "tensorShape": {}}}, "dtype": {"type": "DT_FLOAT"}}}, {"name": "PartitionedCall/Const_76", "op": "Const", "attr": {"value": {"tensor": {"dtype": "DT_FLOAT", "tensorShape": {}}}, "dtype": {"type": "DT_FLOAT"}}}, {"name": "PartitionedCall/jax2tf_main_/vmap/vmap/pjit_fn_/Reshape_65/shape", "op": "Const", "attr": {"value": {"tensor": {"dtype": "DT_INT32", "tensorShape": {"dim": [{"size": "3"}]}}}, "dtype": {"type": "DT_INT32"}}}, {"name": "PartitionedCall/jax2tf_main_/vmap/vmap/Const_67", "op": "Const", "attr": {"value": {"tensor": {"dtype": "DT_FLOAT", "tensorShape": {}}}, "dtype": {"type": "DT_FLOAT"}}}, {"name": "PartitionedCall/jax2tf_main_/vmap/vmap/pjit_remainder_/Less_37", "op": "Const", "attr": {"value": {"tensor": {"dtype": "DT_BOOL", "tensorShape": {}}}, "dtype": {"type": "DT_BOOL"}}}, {"name": "PartitionedCall/jax2tf_main_/vmap/vmap/Const_66", "op": "Const", "attr": {"value": {"tensor": {"dtype": "DT_FLOAT", "tensorShape": {}}}, "dtype": {"type": "DT_FLOAT"}}}, {"name": "PartitionedCall/Const_73", "op": "Const", "attr": {"value": {"tensor": {"dtype": "DT_FLOAT", "tensorShape": {}}}, "dtype": {"type": "DT_FLOAT"}}}, {"name": "PartitionedCall/jax2tf_main_/vmap/vmap/pjit_fn_/Reshape_62/shape", "op": "Const", "attr": {"value": {"tensor": {"dtype": "DT_INT32", "tensorShape": {"dim": [{"size": "3"}]}}}, "dtype": {"type": "DT_INT32"}}}, {"name": "PartitionedCall/jax2tf_main_/vmap/vmap/Const_64", "op": "Const", "attr": {"value": {"tensor": {"dtype": "DT_FLOAT", "tensorShape": {}}}, "dtype": {"type": "DT_FLOAT"}}}, {"name": "PartitionedCall/jax2tf_main_/vmap/vmap/pjit_remainder_/Less_35", "op": "Const", "attr": {"value": {"tensor": {"dtype": "DT_BOOL", "tensorShape": {}}}, "dtype": {"type": "DT_BOOL"}}}, {"name": "PartitionedCall/jax2tf_main_/vmap/vmap/Const_63", "op": "Const", "attr": {"value": {"tensor": {"dtype": "DT_FLOAT", "tensorShape": {}}}, "dtype": {"type": "DT_FLOAT"}}}, {"name": "PartitionedCall/Const_70", "op": "Const", "attr": {"value": {"tensor": {"dtype": "DT_FLOAT", "tensorShape": {}}}, "dtype": {"type": "DT_FLOAT"}}}, {"name": "PartitionedCall/jax2tf_main_/vmap/vmap/pjit_fn_/Reshape_59/shape", "op": "Const", "attr": {"value": {"tensor": {"dtype": "DT_INT32", "tensorShape": {"dim": [{"size": "3"}]}}}, "dtype": {"type": "DT_INT32"}}}, {"name": "PartitionedCall/jax2tf_main_/vmap/vmap/Const_61", "op": "Const", "attr": {"value": {"tensor": {"dtype": "DT_FLOAT", "tensorShape": {}}}, "dtype": {"type": "DT_FLOAT"}}}, {"name": "PartitionedCall/jax2tf_main_/vmap/vmap/pjit_remainder_/Less_33", "op": "Const", "attr": {"value": {"tensor": {"dtype": "DT_BOOL", "tensorShape": {}}}, "dtype": {"type": "DT_BOOL"}}}, {"name": "PartitionedCall/jax2tf_main_/vmap/vmap/Const_60", "op": "Const", "attr": {"value": {"tensor": {"dtype": "DT_FLOAT", "tensorShape": {}}}, "dtype": {"type": "DT_FLOAT"}}}, {"name": "PartitionedCall/Const_67", "op": "Const", "attr": {"value": {"tensor": {"dtype": "DT_FLOAT", "tensorShape": {}}}, "dtype": {"type": "DT_FLOAT"}}}, {"name": "PartitionedCall/jax2tf_main_/vmap/vmap/pjit_fn_/Reshape_56/shape", "op": "Const", "attr": {"value": {"tensor": {"dtype": "DT_INT32", "tensorShape": {"dim": [{"size": "3"}]}}}, "dtype": {"type": "DT_INT32"}}}, {"name": "PartitionedCall/jax2tf_main_/vmap/vmap/Const_58", "op": "Const", "attr": {"value": {"tensor": {"dtype": "DT_FLOAT", "tensorShape": {}}}, "dtype": {"type": "DT_FLOAT"}}}, {"name": "PartitionedCall/jax2tf_main_/vmap/vmap/pjit_remainder_/Less_31", "op": "Const", "attr": {"value": {"tensor": {"dtype": "DT_BOOL", "tensorShape": {}}}, "dtype": {"type": "DT_BOOL"}}}, {"name": "PartitionedCall/jax2tf_main_/vmap/vmap/Const_57", "op": "Const", "attr": {"value": {"tensor": {"dtype": "DT_FLOAT", "tensorShape": {}}}, "dtype": {"type": "DT_FLOAT"}}}, {"name": "PartitionedCall/Const_64", "op": "Const", "attr": {"value": {"tensor": {"dtype": "DT_FLOAT", "tensorShape": {}}}, "dtype": {"type": "DT_FLOAT"}}}, {"name": "PartitionedCall/jax2tf_main_/vmap/vmap/pjit_fn_/Reshape_53/shape", "op": "Const", "attr": {"value": {"tensor": {"dtype": "DT_INT32", "tensorShape": {"dim": [{"size": "3"}]}}}, "dtype": {"type": "DT_INT32"}}}, {"name": "PartitionedCall/jax2tf_main_/vmap/vmap/Const_55", "op": "Const", "attr": {"value": {"tensor": {"dtype": "DT_FLOAT", "tensorShape": {}}}, "dtype": {"type": "DT_FLOAT"}}}, {"name": "PartitionedCall/jax2tf_main_/vmap/vmap/pjit_remainder_/Less_29", "op": "Const", "attr": {"value": {"tensor": {"dtype": "DT_BOOL", "tensorShape": {}}}, "dtype": {"type": "DT_BOOL"}}}, {"name": "PartitionedCall/jax2tf_main_/vmap/vmap/Const_54", "op": "Const", "attr": {"value": {"tensor": {"dtype": "DT_FLOAT", "tensorShape": {}}}, "dtype": {"type": "DT_FLOAT"}}}, {"name": "PartitionedCall/Const_61", "op": "Const", "attr": {"value": {"tensor": {"dtype": "DT_FLOAT", "tensorShape": {}}}, "dtype": {"type": "DT_FLOAT"}}}, {"name": "PartitionedCall/jax2tf_main_/vmap/vmap/pjit_fn_/Reshape_50/shape", "op": "Const", "attr": {"value": {"tensor": {"dtype": "DT_INT32", "tensorShape": {"dim": [{"size": "3"}]}}}, "dtype": {"type": "DT_INT32"}}}, {"name": "PartitionedCall/jax2tf_main_/vmap/vmap/Const_52", "op": "Const", "attr": {"value": {"tensor": {"dtype": "DT_FLOAT", "tensorShape": {}}}, "dtype": {"type": "DT_FLOAT"}}}, {"name": "PartitionedCall/jax2tf_main_/vmap/vmap/pjit_remainder_/Less_27", "op": "Const", "attr": {"value": {"tensor": {"dtype": "DT_BOOL", "tensorShape": {}}}, "dtype": {"type": "DT_BOOL"}}}, {"name": "PartitionedCall/jax2tf_main_/vmap/vmap/Const_51", "op": "Const", "attr": {"value": {"tensor": {"dtype": "DT_FLOAT", "tensorShape": {}}}, "dtype": {"type": "DT_FLOAT"}}}, {"name": "PartitionedCall/Const_58", "op": "Const", "attr": {"value": {"tensor": {"dtype": "DT_FLOAT", "tensorShape": {}}}, "dtype": {"type": "DT_FLOAT"}}}, {"name": "PartitionedCall/jax2tf_main_/vmap/vmap/pjit_fn_/Reshape_47/shape", "op": "Const", "attr": {"value": {"tensor": {"dtype": "DT_INT32", "tensorShape": {"dim": [{"size": "3"}]}}}, "dtype": {"type": "DT_INT32"}}}, {"name": "PartitionedCall/jax2tf_main_/vmap/vmap/Const_49", "op": "Const", "attr": {"value": {"tensor": {"dtype": "DT_FLOAT", "tensorShape": {}}}, "dtype": {"type": "DT_FLOAT"}}}, {"name": "PartitionedCall/jax2tf_main_/vmap/vmap/pjit_remainder_/Less_25", "op": "Const", "attr": {"value": {"tensor": {"dtype": "DT_BOOL", "tensorShape": {}}}, "dtype": {"type": "DT_BOOL"}}}, {"name": "PartitionedCall/jax2tf_main_/vmap/vmap/Const_48", "op": "Const", "attr": {"value": {"tensor": {"dtype": "DT_FLOAT", "tensorShape": {}}}, "dtype": {"type": "DT_FLOAT"}}}, {"name": "PartitionedCall/Const_55", "op": "Const", "attr": {"value": {"tensor": {"dtype": "DT_FLOAT", "tensorShape": {}}}, "dtype": {"type": "DT_FLOAT"}}}, {"name": "PartitionedCall/jax2tf_main_/vmap/vmap/pjit_fn_/Reshape_44/shape", "op": "Const", "attr": {"value": {"tensor": {"dtype": "DT_INT32", "tensorShape": {"dim": [{"size": "3"}]}}}, "dtype": {"type": "DT_INT32"}}}, {"name": "PartitionedCall/jax2tf_main_/vmap/vmap/Const_46", "op": "Const", "attr": {"value": {"tensor": {"dtype": "DT_FLOAT", "tensorShape": {}}}, "dtype": {"type": "DT_FLOAT"}}}, {"name": "PartitionedCall/jax2tf_main_/vmap/vmap/pjit_remainder_/Less_23", "op": "Const", "attr": {"value": {"tensor": {"dtype": "DT_BOOL", "tensorShape": {}}}, "dtype": {"type": "DT_BOOL"}}}, {"name": "PartitionedCall/jax2tf_main_/vmap/vmap/Const_45", "op": "Const", "attr": {"value": {"tensor": {"dtype": "DT_FLOAT", "tensorShape": {}}}, "dtype": {"type": "DT_FLOAT"}}}, {"name": "PartitionedCall/Const_52", "op": "Const", "attr": {"value": {"tensor": {"dtype": "DT_FLOAT", "tensorShape": {}}}, "dtype": {"type": "DT_FLOAT"}}}, {"name": "PartitionedCall/jax2tf_main_/vmap/vmap/pjit_fn_/Reshape_41/shape", "op": "Const", "attr": {"value": {"tensor": {"dtype": "DT_INT32", "tensorShape": {"dim": [{"size": "3"}]}}}, "dtype": {"type": "DT_INT32"}}}, {"name": "PartitionedCall/jax2tf_main_/vmap/vmap/Const_43", "op": "Const", "attr": {"value": {"tensor": {"dtype": "DT_FLOAT", "tensorShape": {}}}, "dtype": {"type": "DT_FLOAT"}}}, {"name": "PartitionedCall/jax2tf_main_/vmap/vmap/pjit_remainder_/Less_21", "op": "Const", "attr": {"value": {"tensor": {"dtype": "DT_BOOL", "tensorShape": {}}}, "dtype": {"type": "DT_BOOL"}}}, {"name": "PartitionedCall/jax2tf_main_/vmap/vmap/Const_42", "op": "Const", "attr": {"value": {"tensor": {"dtype": "DT_FLOAT", "tensorShape": {}}}, "dtype": {"type": "DT_FLOAT"}}}, {"name": "PartitionedCall/Const_49", "op": "Const", "attr": {"value": {"tensor": {"dtype": "DT_FLOAT", "tensorShape": {}}}, "dtype": {"type": "DT_FLOAT"}}}, {"name": "PartitionedCall/jax2tf_main_/vmap/vmap/pjit_fn_/Reshape_38/shape", "op": "Const", "attr": {"value": {"tensor": {"dtype": "DT_INT32", "tensorShape": {"dim": [{"size": "3"}]}}}, "dtype": {"type": "DT_INT32"}}}, {"name": "PartitionedCall/jax2tf_main_/vmap/vmap/Const_40", "op": "Const", "attr": {"value": {"tensor": {"dtype": "DT_FLOAT", "tensorShape": {}}}, "dtype": {"type": "DT_FLOAT"}}}, {"name": "PartitionedCall/jax2tf_main_/vmap/vmap/pjit_remainder_/Less_19", "op": "Const", "attr": {"value": {"tensor": {"dtype": "DT_BOOL", "tensorShape": {}}}, "dtype": {"type": "DT_BOOL"}}}, {"name": "PartitionedCall/jax2tf_main_/vmap/vmap/Const_39", "op": "Const", "attr": {"value": {"tensor": {"dtype": "DT_FLOAT", "tensorShape": {}}}, "dtype": {"type": "DT_FLOAT"}}}, {"name": "PartitionedCall/Const_46", "op": "Const", "attr": {"value": {"tensor": {"dtype": "DT_FLOAT", "tensorShape": {}}}, "dtype": {"type": "DT_FLOAT"}}}, {"name": "PartitionedCall/jax2tf_main_/vmap/vmap/pjit_fn_/Reshape_35/shape", "op": "Const", "attr": {"value": {"tensor": {"dtype": "DT_INT32", "tensorShape": {"dim": [{"size": "3"}]}}}, "dtype": {"type": "DT_INT32"}}}, {"name": "PartitionedCall/jax2tf_main_/vmap/vmap/Const_37", "op": "Const", "attr": {"value": {"tensor": {"dtype": "DT_FLOAT", "tensorShape": {}}}, "dtype": {"type": "DT_FLOAT"}}}, {"name": "PartitionedCall/jax2tf_main_/vmap/vmap/pjit_remainder_/Less_17", "op": "Const", "attr": {"value": {"tensor": {"dtype": "DT_BOOL", "tensorShape": {}}}, "dtype": {"type": "DT_BOOL"}}}, {"name": "PartitionedCall/jax2tf_main_/vmap/vmap/Const_36", "op": "Const", "attr": {"value": {"tensor": {"dtype": "DT_FLOAT", "tensorShape": {}}}, "dtype": {"type": "DT_FLOAT"}}}, {"name": "PartitionedCall/Const_43", "op": "Const", "attr": {"value": {"tensor": {"dtype": "DT_FLOAT", "tensorShape": {}}}, "dtype": {"type": "DT_FLOAT"}}}, {"name": "PartitionedCall/jax2tf_main_/vmap/vmap/pjit_fn_/Reshape_32/shape", "op": "Const", "attr": {"value": {"tensor": {"dtype": "DT_INT32", "tensorShape": {"dim": [{"size": "3"}]}}}, "dtype": {"type": "DT_INT32"}}}, {"name": "PartitionedCall/jax2tf_main_/vmap/vmap/Const_34", "op": "Const", "attr": {"value": {"tensor": {"dtype": "DT_FLOAT", "tensorShape": {}}}, "dtype": {"type": "DT_FLOAT"}}}, {"name": "PartitionedCall/jax2tf_main_/vmap/vmap/pjit_remainder_/Less_15", "op": "Const", "attr": {"value": {"tensor": {"dtype": "DT_BOOL", "tensorShape": {}}}, "dtype": {"type": "DT_BOOL"}}}, {"name": "PartitionedCall/jax2tf_main_/vmap/vmap/Const_33", "op": "Const", "attr": {"value": {"tensor": {"dtype": "DT_FLOAT", "tensorShape": {}}}, "dtype": {"type": "DT_FLOAT"}}}, {"name": "PartitionedCall/Const_40", "op": "Const", "attr": {"value": {"tensor": {"dtype": "DT_FLOAT", "tensorShape": {}}}, "dtype": {"type": "DT_FLOAT"}}}, {"name": "PartitionedCall/jax2tf_main_/vmap/vmap/pjit_fn_/Reshape_29/shape", "op": "Const", "attr": {"value": {"tensor": {"dtype": "DT_INT32", "tensorShape": {"dim": [{"size": "3"}]}}}, "dtype": {"type": "DT_INT32"}}}, {"name": "PartitionedCall/jax2tf_main_/vmap/vmap/Const_31", "op": "Const", "attr": {"value": {"tensor": {"dtype": "DT_FLOAT", "tensorShape": {}}}, "dtype": {"type": "DT_FLOAT"}}}, {"name": "PartitionedCall/jax2tf_main_/vmap/vmap/pjit_remainder_/Less_13", "op": "Const", "attr": {"value": {"tensor": {"dtype": "DT_BOOL", "tensorShape": {}}}, "dtype": {"type": "DT_BOOL"}}}, {"name": "PartitionedCall/jax2tf_main_/vmap/vmap/Const_30", "op": "Const", "attr": {"value": {"tensor": {"dtype": "DT_FLOAT", "tensorShape": {}}}, "dtype": {"type": "DT_FLOAT"}}}, {"name": "PartitionedCall/Const_37", "op": "Const", "attr": {"value": {"tensor": {"dtype": "DT_FLOAT", "tensorShape": {}}}, "dtype": {"type": "DT_FLOAT"}}}, {"name": "PartitionedCall/jax2tf_main_/vmap/vmap/pjit_fn_/Reshape_26/shape", "op": "Const", "attr": {"value": {"tensor": {"dtype": "DT_INT32", "tensorShape": {"dim": [{"size": "3"}]}}}, "dtype": {"type": "DT_INT32"}}}, {"name": "PartitionedCall/jax2tf_main_/vmap/vmap/Const_28", "op": "Const", "attr": {"value": {"tensor": {"dtype": "DT_FLOAT", "tensorShape": {}}}, "dtype": {"type": "DT_FLOAT"}}}, {"name": "PartitionedCall/jax2tf_main_/vmap/vmap/pjit_remainder_/Less_11", "op": "Const", "attr": {"value": {"tensor": {"dtype": "DT_BOOL", "tensorShape": {}}}, "dtype": {"type": "DT_BOOL"}}}, {"name": "PartitionedCall/jax2tf_main_/vmap/vmap/Const_27", "op": "Const", "attr": {"value": {"tensor": {"dtype": "DT_FLOAT", "tensorShape": {}}}, "dtype": {"type": "DT_FLOAT"}}}, {"name": "PartitionedCall/Const_34", "op": "Const", "attr": {"value": {"tensor": {"dtype": "DT_FLOAT", "tensorShape": {}}}, "dtype": {"type": "DT_FLOAT"}}}, {"name": "PartitionedCall/jax2tf_main_/vmap/vmap/pjit_fn_/Reshape_23/shape", "op": "Const", "attr": {"value": {"tensor": {"dtype": "DT_INT32", "tensorShape": {"dim": [{"size": "3"}]}}}, "dtype": {"type": "DT_INT32"}}}, {"name": "PartitionedCall/jax2tf_main_/vmap/vmap/Const_25", "op": "Const", "attr": {"value": {"tensor": {"dtype": "DT_FLOAT", "tensorShape": {}}}, "dtype": {"type": "DT_FLOAT"}}}, {"name": "PartitionedCall/jax2tf_main_/vmap/vmap/pjit_remainder_/Less_9", "op": "Const", "attr": {"value": {"tensor": {"dtype": "DT_BOOL", "tensorShape": {}}}, "dtype": {"type": "DT_BOOL"}}}, {"name": "PartitionedCall/jax2tf_main_/vmap/vmap/Const_24", "op": "Const", "attr": {"value": {"tensor": {"dtype": "DT_FLOAT", "tensorShape": {}}}, "dtype": {"type": "DT_FLOAT"}}}, {"name": "PartitionedCall/Const_31", "op": "Const", "attr": {"value": {"tensor": {"dtype": "DT_FLOAT", "tensorShape": {}}}, "dtype": {"type": "DT_FLOAT"}}}, {"name": "PartitionedCall/jax2tf_main_/vmap/vmap/pjit_fn_/Reshape_20/shape", "op": "Const", "attr": {"value": {"tensor": {"dtype": "DT_INT32", "tensorShape": {"dim": [{"size": "3"}]}}}, "dtype": {"type": "DT_INT32"}}}, {"name": "PartitionedCall/jax2tf_main_/vmap/vmap/Const_22", "op": "Const", "attr": {"value": {"tensor": {"dtype": "DT_FLOAT", "tensorShape": {}}}, "dtype": {"type": "DT_FLOAT"}}}, {"name": "PartitionedCall/jax2tf_main_/vmap/vmap/pjit_remainder_/Less_7", "op": "Const", "attr": {"value": {"tensor": {"dtype": "DT_BOOL", "tensorShape": {}}}, "dtype": {"type": "DT_BOOL"}}}, {"name": "PartitionedCall/jax2tf_main_/vmap/vmap/Const_21", "op": "Const", "attr": {"value": {"tensor": {"dtype": "DT_FLOAT", "tensorShape": {}}}, "dtype": {"type": "DT_FLOAT"}}}, {"name": "PartitionedCall/Const_28", "op": "Const", "attr": {"value": {"tensor": {"dtype": "DT_FLOAT", "tensorShape": {}}}, "dtype": {"type": "DT_FLOAT"}}}, {"name": "PartitionedCall/jax2tf_main_/vmap/vmap/pjit_fn_/Reshape_17/shape", "op": "Const", "attr": {"value": {"tensor": {"dtype": "DT_INT32", "tensorShape": {"dim": [{"size": "3"}]}}}, "dtype": {"type": "DT_INT32"}}}, {"name": "PartitionedCall/jax2tf_main_/vmap/vmap/Const_19", "op": "Const", "attr": {"value": {"tensor": {"dtype": "DT_FLOAT", "tensorShape": {}}}, "dtype": {"type": "DT_FLOAT"}}}, {"name": "PartitionedCall/jax2tf_main_/vmap/vmap/pjit_remainder_/Less_5", "op": "Const", "attr": {"value": {"tensor": {"dtype": "DT_BOOL", "tensorShape": {}}}, "dtype": {"type": "DT_BOOL"}}}, {"name": "PartitionedCall/jax2tf_main_/vmap/vmap/Const_18", "op": "Const", "attr": {"value": {"tensor": {"dtype": "DT_FLOAT", "tensorShape": {}}}, "dtype": {"type": "DT_FLOAT"}}}, {"name": "PartitionedCall/Const_25", "op": "Const", "attr": {"value": {"tensor": {"dtype": "DT_FLOAT", "tensorShape": {}}}, "dtype": {"type": "DT_FLOAT"}}}, {"name": "PartitionedCall/jax2tf_main_/vmap/vmap/pjit_fn_/Reshape_14/shape", "op": "Const", "attr": {"value": {"tensor": {"dtype": "DT_INT32", "tensorShape": {"dim": [{"size": "3"}]}}}, "dtype": {"type": "DT_INT32"}}}, {"name": "PartitionedCall/jax2tf_main_/vmap/vmap/Const_16", "op": "Const", "attr": {"value": {"tensor": {"dtype": "DT_FLOAT", "tensorShape": {}}}, "dtype": {"type": "DT_FLOAT"}}}, {"name": "PartitionedCall/jax2tf_main_/vmap/vmap/pjit_remainder_/Less_3", "op": "Const", "attr": {"value": {"tensor": {"dtype": "DT_BOOL", "tensorShape": {}}}, "dtype": {"type": "DT_BOOL"}}}, {"name": "PartitionedCall/jax2tf_main_/vmap/vmap/Const_15", "op": "Const", "attr": {"value": {"tensor": {"dtype": "DT_FLOAT", "tensorShape": {}}}, "dtype": {"type": "DT_FLOAT"}}}, {"name": "PartitionedCall/Const_22", "op": "Const", "attr": {"value": {"tensor": {"dtype": "DT_FLOAT", "tensorShape": {}}}, "dtype": {"type": "DT_FLOAT"}}}, {"name": "PartitionedCall/jax2tf_main_/vmap/vmap/pjit_fn_/Reshape_11/shape", "op": "Const", "attr": {"value": {"tensor": {"dtype": "DT_INT32", "tensorShape": {"dim": [{"size": "3"}]}}}, "dtype": {"type": "DT_INT32"}}}, {"name": "PartitionedCall/jax2tf_main_/vmap/vmap/Const_13", "op": "Const", "attr": {"value": {"tensor": {"dtype": "DT_FLOAT", "tensorShape": {}}}, "dtype": {"type": "DT_FLOAT"}}}, {"name": "PartitionedCall/jax2tf_main_/vmap/vmap/pjit_remainder_/Less_1", "op": "Const", "attr": {"value": {"tensor": {"dtype": "DT_BOOL", "tensorShape": {}}}, "dtype": {"type": "DT_BOOL"}}}, {"name": "PartitionedCall/jax2tf_main_/vmap/vmap/Const_12", "op": "Const", "attr": {"value": {"tensor": {"dtype": "DT_FLOAT", "tensorShape": {}}}, "dtype": {"type": "DT_FLOAT"}}}, {"name": "PartitionedCall/Const_18", "op": "Const", "attr": {"value": {"tensor": {"dtype": "DT_FLOAT", "tensorShape": {}}}, "dtype": {"type": "DT_FLOAT"}}}, {"name": "PartitionedCall/jax2tf_main_/vmap/vmap/pjit_fn_/Reshape_8/shape", "op": "Const", "attr": {"value": {"tensor": {"dtype": "DT_INT32", "tensorShape": {"dim": [{"size": "3"}]}}}, "dtype": {"type": "DT_INT32"}}}, {"name": "PartitionedCall/jax2tf_main_/vmap/vmap/pjit_fn_/Reshape_2/shape", "op": "Const", "attr": {"value": {"tensor": {"dtype": "DT_INT32", "tensorShape": {"dim": [{"size": "2"}]}}}, "dtype": {"type": "DT_INT32"}}}, {"name": "PartitionedCall/jax2tf_main_/vmap/vmap/pjit_fn_/BroadcastTo_1", "op": "Const", "attr": {"value": {"tensor": {"dtype": "DT_FLOAT", "tensorShape": {"dim": [{"size": "512"}, {"size": "1"}]}}}, "dtype": {"type": "DT_FLOAT"}}}, {"name": "PartitionedCall/jax2tf_main_/vmap/vmap/pjit_cross_/Reshape_15/shape", "op": "Const", "attr": {"value": {"tensor": {"dtype": "DT_INT32", "tensorShape": {"dim": [{"size": "1"}]}}}, "dtype": {"type": "DT_INT32"}}}, {"name": "PartitionedCall/jax2tf_main_/vmap/vmap/pjit_cross_/clip_by_value_8", "op": "Const", "attr": {"value": {"tensor": {"dtype": "DT_INT32", "tensorShape": {"dim": [{"size": "1"}]}}}, "dtype": {"type": "DT_INT32"}}}, {"name": "PartitionedCall/jax2tf_main_/vmap/vmap/pjit_cross_/add_8", "op": "Const", "attr": {"value": {"tensor": {"dtype": "DT_INT32", "tensorShape": {"dim": [{"size": "1"}]}}}, "dtype": {"type": "DT_INT32"}}}, {"name": "PartitionedCall/jax2tf_main_/vmap/vmap/pjit_cross_/ones_like_8", "op": "Const", "attr": {"value": {"tensor": {"dtype": "DT_INT32", "tensorShape": {"dim": [{"size": "1"}]}}}, "dtype": {"type": "DT_INT32"}}}, {"name": "PartitionedCall/jax2tf_main_/vmap/vmap/pjit_cross_/clip_by_value_11", "op": "Const", "attr": {"value": {"tensor": {"dtype": "DT_INT32", "tensorShape": {"dim": [{"size": "1"}]}}}, "dtype": {"type": "DT_INT32"}}}, {"name": "PartitionedCall/jax2tf_main_/vmap/vmap/pjit_cross_/add_11", "op": "Const", "attr": {"value": {"tensor": {"dtype": "DT_INT32", "tensorShape": {"dim": [{"size": "1"}]}}}, "dtype": {"type": "DT_INT32"}}}, {"name": "PartitionedCall/jax2tf_main_/vmap/vmap/pjit_cross_/ones_like_11", "op": "Const", "attr": {"value": {"tensor": {"dtype": "DT_INT32", "tensorShape": {"dim": [{"size": "1"}]}}}, "dtype": {"type": "DT_INT32"}}}, {"name": "PartitionedCall/jax2tf_main_/vmap/vmap/pjit_cross_/Reshape_16/shape", "op": "Const", "attr": {"value": {"tensor": {"dtype": "DT_INT32", "tensorShape": {"dim": [{"size": "1"}]}}}, "dtype": {"type": "DT_INT32"}}}, {"name": "PartitionedCall/jax2tf_main_/vmap/vmap/pjit_cross_/clip_by_value_6", "op": "Const", "attr": {"value": {"tensor": {"dtype": "DT_INT32", "tensorShape": {"dim": [{"size": "1"}]}}}, "dtype": {"type": "DT_INT32"}}}, {"name": "PartitionedCall/jax2tf_main_/vmap/vmap/pjit_cross_/add_6", "op": "Const", "attr": {"value": {"tensor": {"dtype": "DT_INT32", "tensorShape": {"dim": [{"size": "1"}]}}}, "dtype": {"type": "DT_INT32"}}}, {"name": "PartitionedCall/jax2tf_main_/vmap/vmap/pjit_cross_/ones_like_6", "op": "Const", "attr": {"value": {"tensor": {"dtype": "DT_INT32", "tensorShape": {"dim": [{"size": "1"}]}}}, "dtype": {"type": "DT_INT32"}}}, {"name": "PartitionedCall/jax2tf_main_/vmap/vmap/pjit_cross_/clip_by_value_10", "op": "Const", "attr": {"value": {"tensor": {"dtype": "DT_INT32", "tensorShape": {"dim": [{"size": "1"}]}}}, "dtype": {"type": "DT_INT32"}}}, {"name": "PartitionedCall/jax2tf_main_/vmap/vmap/pjit_cross_/add_10", "op": "Const", "attr": {"value": {"tensor": {"dtype": "DT_INT32", "tensorShape": {"dim": [{"size": "1"}]}}}, "dtype": {"type": "DT_INT32"}}}, {"name": "PartitionedCall/jax2tf_main_/vmap/vmap/pjit_cross_/ones_like_10", "op": "Const", "attr": {"value": {"tensor": {"dtype": "DT_INT32", "tensorShape": {"dim": [{"size": "1"}]}}}, "dtype": {"type": "DT_INT32"}}}, {"name": "PartitionedCall/jax2tf_main_/vmap/vmap/pjit_cross_/clip_by_value_7", "op": "Const", "attr": {"value": {"tensor": {"dtype": "DT_INT32", "tensorShape": {"dim": [{"size": "1"}]}}}, "dtype": {"type": "DT_INT32"}}}, {"name": "PartitionedCall/jax2tf_main_/vmap/vmap/pjit_cross_/add_7", "op": "Const", "attr": {"value": {"tensor": {"dtype": "DT_INT32", "tensorShape": {"dim": [{"size": "1"}]}}}, "dtype": {"type": "DT_INT32"}}}, {"name": "PartitionedCall/jax2tf_main_/vmap/vmap/pjit_cross_/ones_like_7", "op": "Const", "attr": {"value": {"tensor": {"dtype": "DT_INT32", "tensorShape": {"dim": [{"size": "1"}]}}}, "dtype": {"type": "DT_INT32"}}}, {"name": "PartitionedCall/jax2tf_main_/vmap/vmap/pjit_cross_/clip_by_value_9", "op": "Const", "attr": {"value": {"tensor": {"dtype": "DT_INT32", "tensorShape": {"dim": [{"size": "1"}]}}}, "dtype": {"type": "DT_INT32"}}}, {"name": "PartitionedCall/jax2tf_main_/vmap/vmap/pjit_cross_/add_9", "op": "Const", "attr": {"value": {"tensor": {"dtype": "DT_INT32", "tensorShape": {"dim": [{"size": "1"}]}}}, "dtype": {"type": "DT_INT32"}}}, {"name": "PartitionedCall/jax2tf_main_/vmap/vmap/pjit_cross_/ones_like_9", "op": "Const", "attr": {"value": {"tensor": {"dtype": "DT_INT32", "tensorShape": {"dim": [{"size": "1"}]}}}, "dtype": {"type": "DT_INT32"}}}, {"name": "PartitionedCall/jax2tf_main_/vmap/vmap/pjit_cross_/Reshape_17/shape", "op": "Const", "attr": {"value": {"tensor": {"dtype": "DT_INT32", "tensorShape": {"dim": [{"size": "1"}]}}}, "dtype": {"type": "DT_INT32"}}}, {"name": "PartitionedCall/jax2tf_main_/vmap/vmap/pjit_cross_/Cast_1/x", "op": "Const", "attr": {"value": {"tensor": {"dtype": "DT_INT32", "tensorShape": {}}}, "dtype": {"type": "DT_INT32"}}}, {"name": "PartitionedCall/jax2tf_main_/vmap/vmap/pjit_fn_/Reshape/shape", "op": "Const", "attr": {"value": {"tensor": {"dtype": "DT_INT32", "tensorShape": {"dim": [{"size": "2"}]}}}, "dtype": {"type": "DT_INT32"}}}, {"name": "PartitionedCall/jax2tf_main_/vmap/vmap/pjit_fn_/Reshape_6/shape", "op": "Const", "attr": {"value": {"tensor": {"dtype": "DT_INT32", "tensorShape": {"dim": [{"size": "3"}]}}}, "dtype": {"type": "DT_INT32"}}}, {"name": "PartitionedCall/jax2tf_main_/vmap/vmap/pjit_fn_/BroadcastTo_4", "op": "Const", "attr": {"value": {"tensor": {"dtype": "DT_FLOAT", "tensorShape": {"dim": [{"size": "512"}, {"size": "1"}]}}}, "dtype": {"type": "DT_FLOAT"}}}, {"name": "PartitionedCall/jax2tf_main_/vmap/vmap/pjit_cross_/Reshape_6/shape", "op": "Const", "attr": {"value": {"tensor": {"dtype": "DT_INT32", "tensorShape": {"dim": [{"size": "1"}]}}}, "dtype": {"type": "DT_INT32"}}}, {"name": "PartitionedCall/jax2tf_main_/vmap/vmap/pjit_cross_/Reshape_7/shape", "op": "Const", "attr": {"value": {"tensor": {"dtype": "DT_INT32", "tensorShape": {"dim": [{"size": "1"}]}}}, "dtype": {"type": "DT_INT32"}}}, {"name": "PartitionedCall/jax2tf_main_/vmap/vmap/pjit_cross_/clip_by_value_4", "op": "Const", "attr": {"value": {"tensor": {"dtype": "DT_INT32", "tensorShape": {"dim": [{"size": "1"}]}}}, "dtype": {"type": "DT_INT32"}}}, {"name": "PartitionedCall/jax2tf_main_/vmap/vmap/pjit_cross_/add_4", "op": "Const", "attr": {"value": {"tensor": {"dtype": "DT_INT32", "tensorShape": {"dim": [{"size": "1"}]}}}, "dtype": {"type": "DT_INT32"}}}, {"name": "PartitionedCall/jax2tf_main_/vmap/vmap/pjit_cross_/ones_like_4", "op": "Const", "attr": {"value": {"tensor": {"dtype": "DT_INT32", "tensorShape": {"dim": [{"size": "1"}]}}}, "dtype": {"type": "DT_INT32"}}}, {"name": "PartitionedCall/jax2tf_main_/vmap/vmap/Reshape_2/shape", "op": "Const", "attr": {"value": {"tensor": {"dtype": "DT_INT32", "tensorShape": {"dim": [{"size": "1"}]}}}, "dtype": {"type": "DT_INT32"}}}, {"name": "PartitionedCall/jax2tf_main_/vmap/vmap/Reshape_3/shape", "op": "Const", "attr": {"value": {"tensor": {"dtype": "DT_INT32", "tensorShape": {"dim": [{"size": "1"}]}}}, "dtype": {"type": "DT_INT32"}}}, {"name": "PartitionedCall/jax2tf_main_/vmap/vmap/BroadcastTo_2", "op": "Const", "attr": {"value": {"tensor": {"dtype": "DT_FLOAT", "tensorShape": {"dim": [{"size": "1"}]}}}, "dtype": {"type": "DT_FLOAT"}}}, {"name": "PartitionedCall/jax2tf_main_/vmap/vmap/Cast/x", "op": "Const", "attr": {"value": {"tensor": {"dtype": "DT_INT32", "tensorShape": {}}}, "dtype": {"type": "DT_INT32"}}}, {"name": "PartitionedCall/jax2tf_main_/vmap/vmap/Reshape_8/shape", "op": "Const", "attr": {"value": {"tensor": {"dtype": "DT_INT32", "tensorShape": {"dim": [{"size": "2"}]}}}, "dtype": {"type": "DT_INT32"}}}, {"name": "PartitionedCall/jax2tf_main_/vmap/vmap/Reshape_5/shape", "op": "Const", "attr": {"value": {"tensor": {"dtype": "DT_INT32", "tensorShape": {"dim": [{"size": "1"}]}}}, "dtype": {"type": "DT_INT32"}}}, {"name": "PartitionedCall/jax2tf_main_/vmap/vmap/strided_slice/stack", "op": "Const", "attr": {"value": {"tensor": {"dtype": "DT_INT32", "tensorShape": {"dim": [{"size": "1"}]}}}, "dtype": {"type": "DT_INT32"}}}, {"name": "PartitionedCall/jax2tf_main_/vmap/vmap/strided_slice/stack_1", "op": "Const", "attr": {"value": {"tensor": {"dtype": "DT_INT32", "tensorShape": {"dim": [{"size": "1"}]}}}, "dtype": {"type": "DT_INT32"}}}, {"name": "PartitionedCall/jax2tf_main_/vmap/vmap/strided_slice/stack_2", "op": "Const", "attr": {"value": {"tensor": {"dtype": "DT_INT32", "tensorShape": {"dim": [{"size": "1"}]}}}, "dtype": {"type": "DT_INT32"}}}, {"name": "PartitionedCall/jax2tf_main_/vmap/vmap/Reshape/shape_1", "op": "Const", "attr": {"value": {"tensor": {"dtype": "DT_INT32", "tensorShape": {"dim": [{}]}}}, "dtype": {"type": "DT_INT32"}}}, {"name": "ConstantFolding/PartitionedCall/jax2tf_main_/vmap/vmap/pjit_true_divide_/truediv_recip", "op": "Const", "attr": {"value": {"tensor": {"dtype": "DT_FLOAT", "tensorShape": {}}}, "dtype": {"type": "DT_FLOAT"}}}, {"name": "PartitionedCall/jax2tf_main_/vmap/vmap/strided_slice_1/stack", "op": "Const", "attr": {"value": {"tensor": {"dtype": "DT_INT32", "tensorShape": {"dim": [{"size": "1"}]}}}, "dtype": {"type": "DT_INT32"}}}, {"name": "PartitionedCall/jax2tf_main_/vmap/vmap/strided_slice_1/stack_1", "op": "Const", "attr": {"value": {"tensor": {"dtype": "DT_INT32", "tensorShape": {"dim": [{"size": "1"}]}}}, "dtype": {"type": "DT_INT32"}}}, {"name": "PartitionedCall/jax2tf_main_/vmap/vmap/strided_slice_1/stack_2", "op": "Const", "attr": {"value": {"tensor": {"dtype": "DT_INT32", "tensorShape": {"dim": [{"size": "1"}]}}}, "dtype": {"type": "DT_INT32"}}}, {"name": "PartitionedCall/jax2tf_main_/vmap/vmap/Reshape_1/shape_1", "op": "Const", "attr": {"value": {"tensor": {"dtype": "DT_INT32", "tensorShape": {"dim": [{}]}}}, "dtype": {"type": "DT_INT32"}}}, {"name": "ConstantFolding/PartitionedCall/jax2tf_main_/vmap/vmap/pjit_true_divide_/truediv_1_recip", "op": "Const", "attr": {"value": {"tensor": {"dtype": "DT_FLOAT", "tensorShape": {}}}, "dtype": {"type": "DT_FLOAT"}}}, {"name": "PartitionedCall/Const_7", "op": "Const", "attr": {"value": {"tensor": {"dtype": "DT_FLOAT", "tensorShape": {}}}, "dtype": {"type": "DT_FLOAT"}}}, {"name": "PartitionedCall/jax2tf_main_/vmap/vmap/Reshape_6/shape", "op": "Const", "attr": {"value": {"tensor": {"dtype": "DT_INT32", "tensorShape": {"dim": [{"size": "1"}]}}}, "dtype": {"type": "DT_INT32"}}}, {"name": "PartitionedCall/jax2tf_main_/vmap/vmap/BroadcastTo_5", "op": "Const", "attr": {"value": {"tensor": {"dtype": "DT_FLOAT", "tensorShape": {"dim": [{"size": "1"}]}}}, "dtype": {"type": "DT_FLOAT"}}}, {"name": "PartitionedCall/jax2tf_main_/vmap/vmap/Cast_1/x", "op": "Const", "attr": {"value": {"tensor": {"dtype": "DT_INT32", "tensorShape": {}}}, "dtype": {"type": "DT_INT32"}}}, {"name": "PartitionedCall/jax2tf_main_/vmap/vmap/Reshape_9/shape", "op": "Const", "attr": {"value": {"tensor": {"dtype": "DT_INT32", "tensorShape": {"dim": [{"size": "2"}]}}}, "dtype": {"type": "DT_INT32"}}}, {"name": "PartitionedCall/jax2tf_main_/vmap/vmap/BroadcastTo_8", "op": "Const", "attr": {"value": {"tensor": {"dtype": "DT_FLOAT", "tensorShape": {"dim": [{"size": "1"}, {"size": "3"}]}}}, "dtype": {"type": "DT_FLOAT"}}}, {"name": "PartitionedCall/jax2tf_main_/vmap/vmap/Cast_2/x", "op": "Const", "attr": {"value": {"tensor": {"dtype": "DT_INT32", "tensorShape": {}}}, "dtype": {"type": "DT_INT32"}}}, {"name": "PartitionedCall/jax2tf_main_/vmap/vmap/pjit_matmul_/ExpandDims", "op": "Const", "attr": {"value": {"tensor": {"dtype": "DT_FLOAT", "tensorShape": {"dim": [{"size": "3"}, {"size": "1"}]}}}, "dtype": {"type": "DT_FLOAT"}}}, {"name": "ConstantFolding/PartitionedCall/jax2tf_main_/vmap/vmap/concat_3_partial_split_0", "op": "Const", "attr": {"value": {"tensor": {"dtype": "DT_FLOAT", "tensorShape": {"dim": [{"size": "2"}]}}}, "dtype": {"type": "DT_FLOAT"}}}, {"name": "PartitionedCall/jax2tf_main_/vmap/vmap/pjit_fn_/Cast", "op": "Const", "attr": {"value": {"tensor": {"dtype": "DT_FLOAT", "tensorShape": {}}}, "dtype": {"type": "DT_FLOAT"}}}, {"name": "PartitionedCall/jax2tf_main_/vmap/vmap/strided_slice_2/stack", "op": "Const", "attr": {"value": {"tensor": {"dtype": "DT_INT32", "tensorShape": {"dim": [{"size": "1"}]}}}, "dtype": {"type": "DT_INT32"}}}, {"name": "PartitionedCall/jax2tf_main_/vmap/vmap/strided_slice_2/stack_1", "op": "Const", "attr": {"value": {"tensor": {"dtype": "DT_INT32", "tensorShape": {"dim": [{"size": "1"}]}}}, "dtype": {"type": "DT_INT32"}}}, {"name": "PartitionedCall/jax2tf_main_/vmap/vmap/strided_slice_2/stack_2", "op": "Const", "attr": {"value": {"tensor": {"dtype": "DT_INT32", "tensorShape": {"dim": [{"size": "1"}]}}}, "dtype": {"type": "DT_INT32"}}}, {"name": "PartitionedCall/jax2tf_main_/vmap/vmap/Reshape_11/shape_1", "op": "Const", "attr": {"value": {"tensor": {"dtype": "DT_INT32", "tensorShape": {"dim": [{}]}}}, "dtype": {"type": "DT_INT32"}}}, {"name": "ConstantFolding/PartitionedCall/jax2tf_main_/vmap/vmap/pjit_true_divide_/truediv_2_recip", "op": "Const", "attr": {"value": {"tensor": {"dtype": "DT_FLOAT", "tensorShape": {}}}, "dtype": {"type": "DT_FLOAT"}}}, {"name": "PartitionedCall/Const_12", "op": "Const", "attr": {"value": {"tensor": {"dtype": "DT_FLOAT", "tensorShape": {}}}, "dtype": {"type": "DT_FLOAT"}}}, {"name": "PartitionedCall/jax2tf_main_/vmap/vmap/Reshape_14/shape", "op": "Const", "attr": {"value": {"tensor": {"dtype": "DT_INT32", "tensorShape": {"dim": [{"size": "1"}]}}}, "dtype": {"type": "DT_INT32"}}}, {"name": "PartitionedCall/jax2tf_main_/vmap/vmap/Cast_3/x", "op": "Const", "attr": {"value": {"tensor": {"dtype": "DT_INT32", "tensorShape": {}}}, "dtype": {"type": "DT_INT32"}}}, {"name": "PartitionedCall/jax2tf_main_/vmap/vmap/pjit_norm_/Sum/reduction_indices", "op": "Const", "attr": {"value": {"tensor": {"dtype": "DT_INT32", "tensorShape": {"dim": [{"size": "1"}]}}}, "dtype": {"type": "DT_INT32"}}}, {"name": "PartitionedCall/jax2tf_main_/vmap/vmap/pjit_cross_/clip_by_value_3", "op": "Const", "attr": {"value": {"tensor": {"dtype": "DT_INT32", "tensorShape": {"dim": [{"size": "1"}]}}}, "dtype": {"type": "DT_INT32"}}}, {"name": "PartitionedCall/jax2tf_main_/vmap/vmap/pjit_cross_/add_3", "op": "Const", "attr": {"value": {"tensor": {"dtype": "DT_INT32", "tensorShape": {"dim": [{"size": "1"}]}}}, "dtype": {"type": "DT_INT32"}}}, {"name": "PartitionedCall/jax2tf_main_/vmap/vmap/pjit_cross_/ones_like_3", "op": "Const", "attr": {"value": {"tensor": {"dtype": "DT_INT32", "tensorShape": {"dim": [{"size": "1"}]}}}, "dtype": {"type": "DT_INT32"}}}, {"name": "PartitionedCall/jax2tf_main_/vmap/vmap/pjit_cross_/Cast/x", "op": "Const", "attr": {"value": {"tensor": {"dtype": "DT_INT32", "tensorShape": {}}}, "dtype": {"type": "DT_INT32"}}}, {"name": "PartitionedCall/jax2tf_main_/vmap/vmap/pjit_norm_/Sum_1/reduction_indices", "op": "Const", "attr": {"value": {"tensor": {"dtype": "DT_INT32", "tensorShape": {"dim": [{"size": "1"}]}}}, "dtype": {"type": "DT_INT32"}}}, {"name": "PartitionedCall/jax2tf_main_/vmap/vmap/pjit_fn_/Reshape_3/shape", "op": "Const", "attr": {"value": {"tensor": {"dtype": "DT_INT32", "tensorShape": {"dim": [{"size": "2"}]}}}, "dtype": {"type": "DT_INT32"}}}, {"name": "PartitionedCall/jax2tf_main_/vmap/vmap/pjit_fn_/Reshape_5/shape", "op": "Const", "attr": {"value": {"tensor": {"dtype": "DT_INT32", "tensorShape": {"dim": [{"size": "3"}]}}}, "dtype": {"type": "DT_INT32"}}}, {"name": "PartitionedCall/jax2tf_main_/vmap/vmap/pjit_norm_/Sum_2/reduction_indices", "op": "Const", "attr": {"value": {"tensor": {"dtype": "DT_INT32", "tensorShape": {"dim": [{"size": "1"}]}}}, "dtype": {"type": "DT_INT32"}}}, {"name": "PartitionedCall/jax2tf_main_/vmap/vmap/pjit_true_divide_/Reshape/shape", "op": "Const", "attr": {"value": {"tensor": {"dtype": "DT_INT32", "tensorShape": {"dim": [{"size": "3"}]}}}, "dtype": {"type": "DT_INT32"}}}, {"name": "PartitionedCall/jax2tf_main_/vmap/vmap/pjit_remainder_/Abs_1", "op": "Const", "attr": {"value": {"tensor": {"dtype": "DT_FLOAT", "tensorShape": {}}}, "dtype": {"type": "DT_FLOAT"}}}, {"name": "PartitionedCall/Const_19", "op": "Const", "attr": {"value": {"tensor": {"dtype": "DT_FLOAT", "tensorShape": {}}}, "dtype": {"type": "DT_FLOAT"}}}, {"name": "PartitionedCall/jax2tf_main_/vmap/vmap/pjit_norm_/Sum_3/reduction_indices", "op": "Const", "attr": {"value": {"tensor": {"dtype": "DT_INT32", "tensorShape": {"dim": [{"size": "1"}]}}}, "dtype": {"type": "DT_INT32"}}}, {"name": "PartitionedCall/Const_20", "op": "Const", "attr": {"value": {"tensor": {"dtype": "DT_FLOAT", "tensorShape": {}}}, "dtype": {"type": "DT_FLOAT"}}}, {"name": "PartitionedCall/jax2tf_main_/vmap/vmap/pjit_fn_/Reshape_9/shape", "op": "Const", "attr": {"value": {"tensor": {"dtype": "DT_INT32", "tensorShape": {"dim": [{"size": "3"}]}}}, "dtype": {"type": "DT_INT32"}}}, {"name": "PartitionedCall/jax2tf_main_/vmap/vmap/pjit_remainder_/Abs_3", "op": "Const", "attr": {"value": {"tensor": {"dtype": "DT_FLOAT", "tensorShape": {}}}, "dtype": {"type": "DT_FLOAT"}}}, {"name": "PartitionedCall/Const_23", "op": "Const", "attr": {"value": {"tensor": {"dtype": "DT_FLOAT", "tensorShape": {}}}, "dtype": {"type": "DT_FLOAT"}}}, {"name": "PartitionedCall/jax2tf_main_/vmap/vmap/pjit_norm_/Sum_4/reduction_indices", "op": "Const", "attr": {"value": {"tensor": {"dtype": "DT_INT32", "tensorShape": {"dim": [{"size": "1"}]}}}, "dtype": {"type": "DT_INT32"}}}, {"name": "PartitionedCall/Const_24", "op": "Const", "attr": {"value": {"tensor": {"dtype": "DT_FLOAT", "tensorShape": {}}}, "dtype": {"type": "DT_FLOAT"}}}, {"name": "PartitionedCall/jax2tf_main_/vmap/vmap/pjit_fn_/Reshape_12/shape", "op": "Const", "attr": {"value": {"tensor": {"dtype": "DT_INT32", "tensorShape": {"dim": [{"size": "3"}]}}}, "dtype": {"type": "DT_INT32"}}}, {"name": "PartitionedCall/jax2tf_main_/vmap/vmap/pjit_remainder_/Abs_5", "op": "Const", "attr": {"value": {"tensor": {"dtype": "DT_FLOAT", "tensorShape": {}}}, "dtype": {"type": "DT_FLOAT"}}}, {"name": "PartitionedCall/Const_26", "op": "Const", "attr": {"value": {"tensor": {"dtype": "DT_FLOAT", "tensorShape": {}}}, "dtype": {"type": "DT_FLOAT"}}}, {"name": "PartitionedCall/jax2tf_main_/vmap/vmap/pjit_norm_/Sum_5/reduction_indices", "op": "Const", "attr": {"value": {"tensor": {"dtype": "DT_INT32", "tensorShape": {"dim": [{"size": "1"}]}}}, "dtype": {"type": "DT_INT32"}}}, {"name": "PartitionedCall/Const_27", "op": "Const", "attr": {"value": {"tensor": {"dtype": "DT_FLOAT", "tensorShape": {}}}, "dtype": {"type": "DT_FLOAT"}}}, {"name": "PartitionedCall/jax2tf_main_/vmap/vmap/pjit_fn_/Reshape_15/shape", "op": "Const", "attr": {"value": {"tensor": {"dtype": "DT_INT32", "tensorShape": {"dim": [{"size": "3"}]}}}, "dtype": {"type": "DT_INT32"}}}, {"name": "PartitionedCall/jax2tf_main_/vmap/vmap/pjit_remainder_/Abs_7", "op": "Const", "attr": {"value": {"tensor": {"dtype": "DT_FLOAT", "tensorShape": {}}}, "dtype": {"type": "DT_FLOAT"}}}, {"name": "PartitionedCall/Const_29", "op": "Const", "attr": {"value": {"tensor": {"dtype": "DT_FLOAT", "tensorShape": {}}}, "dtype": {"type": "DT_FLOAT"}}}, {"name": "PartitionedCall/jax2tf_main_/vmap/vmap/pjit_norm_/Sum_6/reduction_indices", "op": "Const", "attr": {"value": {"tensor": {"dtype": "DT_INT32", "tensorShape": {"dim": [{"size": "1"}]}}}, "dtype": {"type": "DT_INT32"}}}, {"name": "PartitionedCall/Const_30", "op": "Const", "attr": {"value": {"tensor": {"dtype": "DT_FLOAT", "tensorShape": {}}}, "dtype": {"type": "DT_FLOAT"}}}, {"name": "PartitionedCall/jax2tf_main_/vmap/vmap/pjit_fn_/Reshape_18/shape", "op": "Const", "attr": {"value": {"tensor": {"dtype": "DT_INT32", "tensorShape": {"dim": [{"size": "3"}]}}}, "dtype": {"type": "DT_INT32"}}}, {"name": "PartitionedCall/jax2tf_main_/vmap/vmap/pjit_remainder_/Abs_9", "op": "Const", "attr": {"value": {"tensor": {"dtype": "DT_FLOAT", "tensorShape": {}}}, "dtype": {"type": "DT_FLOAT"}}}, {"name": "PartitionedCall/Const_32", "op": "Const", "attr": {"value": {"tensor": {"dtype": "DT_FLOAT", "tensorShape": {}}}, "dtype": {"type": "DT_FLOAT"}}}, {"name": "PartitionedCall/jax2tf_main_/vmap/vmap/pjit_norm_/Sum_7/reduction_indices", "op": "Const", "attr": {"value": {"tensor": {"dtype": "DT_INT32", "tensorShape": {"dim": [{"size": "1"}]}}}, "dtype": {"type": "DT_INT32"}}}, {"name": "PartitionedCall/Const_33", "op": "Const", "attr": {"value": {"tensor": {"dtype": "DT_FLOAT", "tensorShape": {}}}, "dtype": {"type": "DT_FLOAT"}}}, {"name": "PartitionedCall/jax2tf_main_/vmap/vmap/pjit_fn_/Reshape_21/shape", "op": "Const", "attr": {"value": {"tensor": {"dtype": "DT_INT32", "tensorShape": {"dim": [{"size": "3"}]}}}, "dtype": {"type": "DT_INT32"}}}, {"name": "PartitionedCall/jax2tf_main_/vmap/vmap/pjit_remainder_/Abs_11", "op": "Const", "attr": {"value": {"tensor": {"dtype": "DT_FLOAT", "tensorShape": {}}}, "dtype": {"type": "DT_FLOAT"}}}, {"name": "PartitionedCall/Const_35", "op": "Const", "attr": {"value": {"tensor": {"dtype": "DT_FLOAT", "tensorShape": {}}}, "dtype": {"type": "DT_FLOAT"}}}, {"name": "PartitionedCall/jax2tf_main_/vmap/vmap/pjit_norm_/Sum_8/reduction_indices", "op": "Const", "attr": {"value": {"tensor": {"dtype": "DT_INT32", "tensorShape": {"dim": [{"size": "1"}]}}}, "dtype": {"type": "DT_INT32"}}}, {"name": "PartitionedCall/Const_36", "op": "Const", "attr": {"value": {"tensor": {"dtype": "DT_FLOAT", "tensorShape": {}}}, "dtype": {"type": "DT_FLOAT"}}}, {"name": "PartitionedCall/jax2tf_main_/vmap/vmap/pjit_fn_/Reshape_24/shape", "op": "Const", "attr": {"value": {"tensor": {"dtype": "DT_INT32", "tensorShape": {"dim": [{"size": "3"}]}}}, "dtype": {"type": "DT_INT32"}}}, {"name": "PartitionedCall/jax2tf_main_/vmap/vmap/pjit_remainder_/Abs_13", "op": "Const", "attr": {"value": {"tensor": {"dtype": "DT_FLOAT", "tensorShape": {}}}, "dtype": {"type": "DT_FLOAT"}}}, {"name": "PartitionedCall/Const_38", "op": "Const", "attr": {"value": {"tensor": {"dtype": "DT_FLOAT", "tensorShape": {}}}, "dtype": {"type": "DT_FLOAT"}}}, {"name": "PartitionedCall/jax2tf_main_/vmap/vmap/pjit_norm_/Sum_9/reduction_indices", "op": "Const", "attr": {"value": {"tensor": {"dtype": "DT_INT32", "tensorShape": {"dim": [{"size": "1"}]}}}, "dtype": {"type": "DT_INT32"}}}, {"name": "PartitionedCall/Const_39", "op": "Const", "attr": {"value": {"tensor": {"dtype": "DT_FLOAT", "tensorShape": {}}}, "dtype": {"type": "DT_FLOAT"}}}, {"name": "PartitionedCall/jax2tf_main_/vmap/vmap/pjit_fn_/Reshape_27/shape", "op": "Const", "attr": {"value": {"tensor": {"dtype": "DT_INT32", "tensorShape": {"dim": [{"size": "3"}]}}}, "dtype": {"type": "DT_INT32"}}}, {"name": "PartitionedCall/jax2tf_main_/vmap/vmap/pjit_remainder_/Abs_15", "op": "Const", "attr": {"value": {"tensor": {"dtype": "DT_FLOAT", "tensorShape": {}}}, "dtype": {"type": "DT_FLOAT"}}}, {"name": "PartitionedCall/Const_41", "op": "Const", "attr": {"value": {"tensor": {"dtype": "DT_FLOAT", "tensorShape": {}}}, "dtype": {"type": "DT_FLOAT"}}}, {"name": "PartitionedCall/jax2tf_main_/vmap/vmap/pjit_norm_/Sum_10/reduction_indices", "op": "Const", "attr": {"value": {"tensor": {"dtype": "DT_INT32", "tensorShape": {"dim": [{"size": "1"}]}}}, "dtype": {"type": "DT_INT32"}}}, {"name": "PartitionedCall/Const_42", "op": "Const", "attr": {"value": {"tensor": {"dtype": "DT_FLOAT", "tensorShape": {}}}, "dtype": {"type": "DT_FLOAT"}}}, {"name": "PartitionedCall/jax2tf_main_/vmap/vmap/pjit_fn_/Reshape_30/shape", "op": "Const", "attr": {"value": {"tensor": {"dtype": "DT_INT32", "tensorShape": {"dim": [{"size": "3"}]}}}, "dtype": {"type": "DT_INT32"}}}, {"name": "PartitionedCall/jax2tf_main_/vmap/vmap/pjit_remainder_/Abs_17", "op": "Const", "attr": {"value": {"tensor": {"dtype": "DT_FLOAT", "tensorShape": {}}}, "dtype": {"type": "DT_FLOAT"}}}, {"name": "PartitionedCall/Const_44", "op": "Const", "attr": {"value": {"tensor": {"dtype": "DT_FLOAT", "tensorShape": {}}}, "dtype": {"type": "DT_FLOAT"}}}, {"name": "PartitionedCall/jax2tf_main_/vmap/vmap/pjit_norm_/Sum_11/reduction_indices", "op": "Const", "attr": {"value": {"tensor": {"dtype": "DT_INT32", "tensorShape": {"dim": [{"size": "1"}]}}}, "dtype": {"type": "DT_INT32"}}}, {"name": "PartitionedCall/Const_45", "op": "Const", "attr": {"value": {"tensor": {"dtype": "DT_FLOAT", "tensorShape": {}}}, "dtype": {"type": "DT_FLOAT"}}}, {"name": "PartitionedCall/jax2tf_main_/vmap/vmap/pjit_fn_/Reshape_33/shape", "op": "Const", "attr": {"value": {"tensor": {"dtype": "DT_INT32", "tensorShape": {"dim": [{"size": "3"}]}}}, "dtype": {"type": "DT_INT32"}}}, {"name": "PartitionedCall/jax2tf_main_/vmap/vmap/pjit_remainder_/Abs_19", "op": "Const", "attr": {"value": {"tensor": {"dtype": "DT_FLOAT", "tensorShape": {}}}, "dtype": {"type": "DT_FLOAT"}}}, {"name": "PartitionedCall/Const_47", "op": "Const", "attr": {"value": {"tensor": {"dtype": "DT_FLOAT", "tensorShape": {}}}, "dtype": {"type": "DT_FLOAT"}}}, {"name": "PartitionedCall/jax2tf_main_/vmap/vmap/pjit_norm_/Sum_12/reduction_indices", "op": "Const", "attr": {"value": {"tensor": {"dtype": "DT_INT32", "tensorShape": {"dim": [{"size": "1"}]}}}, "dtype": {"type": "DT_INT32"}}}, {"name": "PartitionedCall/Const_48", "op": "Const", "attr": {"value": {"tensor": {"dtype": "DT_FLOAT", "tensorShape": {}}}, "dtype": {"type": "DT_FLOAT"}}}, {"name": "PartitionedCall/jax2tf_main_/vmap/vmap/pjit_fn_/Reshape_36/shape", "op": "Const", "attr": {"value": {"tensor": {"dtype": "DT_INT32", "tensorShape": {"dim": [{"size": "3"}]}}}, "dtype": {"type": "DT_INT32"}}}, {"name": "PartitionedCall/jax2tf_main_/vmap/vmap/pjit_remainder_/Abs_21", "op": "Const", "attr": {"value": {"tensor": {"dtype": "DT_FLOAT", "tensorShape": {}}}, "dtype": {"type": "DT_FLOAT"}}}, {"name": "PartitionedCall/Const_50", "op": "Const", "attr": {"value": {"tensor": {"dtype": "DT_FLOAT", "tensorShape": {}}}, "dtype": {"type": "DT_FLOAT"}}}, {"name": "PartitionedCall/jax2tf_main_/vmap/vmap/pjit_norm_/Sum_13/reduction_indices", "op": "Const", "attr": {"value": {"tensor": {"dtype": "DT_INT32", "tensorShape": {"dim": [{"size": "1"}]}}}, "dtype": {"type": "DT_INT32"}}}, {"name": "PartitionedCall/Const_51", "op": "Const", "attr": {"value": {"tensor": {"dtype": "DT_FLOAT", "tensorShape": {}}}, "dtype": {"type": "DT_FLOAT"}}}, {"name": "PartitionedCall/jax2tf_main_/vmap/vmap/pjit_fn_/Reshape_39/shape", "op": "Const", "attr": {"value": {"tensor": {"dtype": "DT_INT32", "tensorShape": {"dim": [{"size": "3"}]}}}, "dtype": {"type": "DT_INT32"}}}, {"name": "PartitionedCall/jax2tf_main_/vmap/vmap/pjit_remainder_/Abs_23", "op": "Const", "attr": {"value": {"tensor": {"dtype": "DT_FLOAT", "tensorShape": {}}}, "dtype": {"type": "DT_FLOAT"}}}, {"name": "PartitionedCall/Const_53", "op": "Const", "attr": {"value": {"tensor": {"dtype": "DT_FLOAT", "tensorShape": {}}}, "dtype": {"type": "DT_FLOAT"}}}, {"name": "PartitionedCall/jax2tf_main_/vmap/vmap/pjit_norm_/Sum_14/reduction_indices", "op": "Const", "attr": {"value": {"tensor": {"dtype": "DT_INT32", "tensorShape": {"dim": [{"size": "1"}]}}}, "dtype": {"type": "DT_INT32"}}}, {"name": "PartitionedCall/Const_54", "op": "Const", "attr": {"value": {"tensor": {"dtype": "DT_FLOAT", "tensorShape": {}}}, "dtype": {"type": "DT_FLOAT"}}}, {"name": "PartitionedCall/jax2tf_main_/vmap/vmap/pjit_fn_/Reshape_42/shape", "op": "Const", "attr": {"value": {"tensor": {"dtype": "DT_INT32", "tensorShape": {"dim": [{"size": "3"}]}}}, "dtype": {"type": "DT_INT32"}}}, {"name": "PartitionedCall/jax2tf_main_/vmap/vmap/pjit_remainder_/Abs_25", "op": "Const", "attr": {"value": {"tensor": {"dtype": "DT_FLOAT", "tensorShape": {}}}, "dtype": {"type": "DT_FLOAT"}}}, {"name": "PartitionedCall/Const_56", "op": "Const", "attr": {"value": {"tensor": {"dtype": "DT_FLOAT", "tensorShape": {}}}, "dtype": {"type": "DT_FLOAT"}}}, {"name": "PartitionedCall/jax2tf_main_/vmap/vmap/pjit_norm_/Sum_15/reduction_indices", "op": "Const", "attr": {"value": {"tensor": {"dtype": "DT_INT32", "tensorShape": {"dim": [{"size": "1"}]}}}, "dtype": {"type": "DT_INT32"}}}, {"name": "PartitionedCall/Const_57", "op": "Const", "attr": {"value": {"tensor": {"dtype": "DT_FLOAT", "tensorShape": {}}}, "dtype": {"type": "DT_FLOAT"}}}, {"name": "PartitionedCall/jax2tf_main_/vmap/vmap/pjit_fn_/Reshape_45/shape", "op": "Const", "attr": {"value": {"tensor": {"dtype": "DT_INT32", "tensorShape": {"dim": [{"size": "3"}]}}}, "dtype": {"type": "DT_INT32"}}}, {"name": "PartitionedCall/jax2tf_main_/vmap/vmap/pjit_remainder_/Abs_27", "op": "Const", "attr": {"value": {"tensor": {"dtype": "DT_FLOAT", "tensorShape": {}}}, "dtype": {"type": "DT_FLOAT"}}}, {"name": "PartitionedCall/Const_59", "op": "Const", "attr": {"value": {"tensor": {"dtype": "DT_FLOAT", "tensorShape": {}}}, "dtype": {"type": "DT_FLOAT"}}}, {"name": "PartitionedCall/jax2tf_main_/vmap/vmap/pjit_norm_/Sum_16/reduction_indices", "op": "Const", "attr": {"value": {"tensor": {"dtype": "DT_INT32", "tensorShape": {"dim": [{"size": "1"}]}}}, "dtype": {"type": "DT_INT32"}}}, {"name": "PartitionedCall/Const_60", "op": "Const", "attr": {"value": {"tensor": {"dtype": "DT_FLOAT", "tensorShape": {}}}, "dtype": {"type": "DT_FLOAT"}}}, {"name": "PartitionedCall/jax2tf_main_/vmap/vmap/pjit_fn_/Reshape_48/shape", "op": "Const", "attr": {"value": {"tensor": {"dtype": "DT_INT32", "tensorShape": {"dim": [{"size": "3"}]}}}, "dtype": {"type": "DT_INT32"}}}, {"name": "PartitionedCall/jax2tf_main_/vmap/vmap/pjit_remainder_/Abs_29", "op": "Const", "attr": {"value": {"tensor": {"dtype": "DT_FLOAT", "tensorShape": {}}}, "dtype": {"type": "DT_FLOAT"}}}, {"name": "PartitionedCall/Const_62", "op": "Const", "attr": {"value": {"tensor": {"dtype": "DT_FLOAT", "tensorShape": {}}}, "dtype": {"type": "DT_FLOAT"}}}, {"name": "PartitionedCall/jax2tf_main_/vmap/vmap/pjit_norm_/Sum_17/reduction_indices", "op": "Const", "attr": {"value": {"tensor": {"dtype": "DT_INT32", "tensorShape": {"dim": [{"size": "1"}]}}}, "dtype": {"type": "DT_INT32"}}}, {"name": "PartitionedCall/Const_63", "op": "Const", "attr": {"value": {"tensor": {"dtype": "DT_FLOAT", "tensorShape": {}}}, "dtype": {"type": "DT_FLOAT"}}}, {"name": "PartitionedCall/jax2tf_main_/vmap/vmap/pjit_fn_/Reshape_51/shape", "op": "Const", "attr": {"value": {"tensor": {"dtype": "DT_INT32", "tensorShape": {"dim": [{"size": "3"}]}}}, "dtype": {"type": "DT_INT32"}}}, {"name": "PartitionedCall/jax2tf_main_/vmap/vmap/pjit_remainder_/Abs_31", "op": "Const", "attr": {"value": {"tensor": {"dtype": "DT_FLOAT", "tensorShape": {}}}, "dtype": {"type": "DT_FLOAT"}}}, {"name": "PartitionedCall/Const_65", "op": "Const", "attr": {"value": {"tensor": {"dtype": "DT_FLOAT", "tensorShape": {}}}, "dtype": {"type": "DT_FLOAT"}}}, {"name": "PartitionedCall/jax2tf_main_/vmap/vmap/pjit_norm_/Sum_18/reduction_indices", "op": "Const", "attr": {"value": {"tensor": {"dtype": "DT_INT32", "tensorShape": {"dim": [{"size": "1"}]}}}, "dtype": {"type": "DT_INT32"}}}, {"name": "PartitionedCall/Const_66", "op": "Const", "attr": {"value": {"tensor": {"dtype": "DT_FLOAT", "tensorShape": {}}}, "dtype": {"type": "DT_FLOAT"}}}, {"name": "PartitionedCall/jax2tf_main_/vmap/vmap/pjit_fn_/Reshape_54/shape", "op": "Const", "attr": {"value": {"tensor": {"dtype": "DT_INT32", "tensorShape": {"dim": [{"size": "3"}]}}}, "dtype": {"type": "DT_INT32"}}}, {"name": "PartitionedCall/jax2tf_main_/vmap/vmap/pjit_remainder_/Abs_33", "op": "Const", "attr": {"value": {"tensor": {"dtype": "DT_FLOAT", "tensorShape": {}}}, "dtype": {"type": "DT_FLOAT"}}}, {"name": "PartitionedCall/Const_68", "op": "Const", "attr": {"value": {"tensor": {"dtype": "DT_FLOAT", "tensorShape": {}}}, "dtype": {"type": "DT_FLOAT"}}}, {"name": "PartitionedCall/jax2tf_main_/vmap/vmap/pjit_norm_/Sum_19/reduction_indices", "op": "Const", "attr": {"value": {"tensor": {"dtype": "DT_INT32", "tensorShape": {"dim": [{"size": "1"}]}}}, "dtype": {"type": "DT_INT32"}}}, {"name": "PartitionedCall/Const_69", "op": "Const", "attr": {"value": {"tensor": {"dtype": "DT_FLOAT", "tensorShape": {}}}, "dtype": {"type": "DT_FLOAT"}}}, {"name": "PartitionedCall/jax2tf_main_/vmap/vmap/pjit_fn_/Reshape_57/shape", "op": "Const", "attr": {"value": {"tensor": {"dtype": "DT_INT32", "tensorShape": {"dim": [{"size": "3"}]}}}, "dtype": {"type": "DT_INT32"}}}, {"name": "PartitionedCall/jax2tf_main_/vmap/vmap/pjit_remainder_/Abs_35", "op": "Const", "attr": {"value": {"tensor": {"dtype": "DT_FLOAT", "tensorShape": {}}}, "dtype": {"type": "DT_FLOAT"}}}, {"name": "PartitionedCall/Const_71", "op": "Const", "attr": {"value": {"tensor": {"dtype": "DT_FLOAT", "tensorShape": {}}}, "dtype": {"type": "DT_FLOAT"}}}, {"name": "PartitionedCall/jax2tf_main_/vmap/vmap/pjit_norm_/Sum_20/reduction_indices", "op": "Const", "attr": {"value": {"tensor": {"dtype": "DT_INT32", "tensorShape": {"dim": [{"size": "1"}]}}}, "dtype": {"type": "DT_INT32"}}}, {"name": "PartitionedCall/Const_72", "op": "Const", "attr": {"value": {"tensor": {"dtype": "DT_FLOAT", "tensorShape": {}}}, "dtype": {"type": "DT_FLOAT"}}}, {"name": "PartitionedCall/jax2tf_main_/vmap/vmap/pjit_fn_/Reshape_60/shape", "op": "Const", "attr": {"value": {"tensor": {"dtype": "DT_INT32", "tensorShape": {"dim": [{"size": "3"}]}}}, "dtype": {"type": "DT_INT32"}}}, {"name": "PartitionedCall/jax2tf_main_/vmap/vmap/pjit_remainder_/Abs_37", "op": "Const", "attr": {"value": {"tensor": {"dtype": "DT_FLOAT", "tensorShape": {}}}, "dtype": {"type": "DT_FLOAT"}}}, {"name": "PartitionedCall/Const_74", "op": "Const", "attr": {"value": {"tensor": {"dtype": "DT_FLOAT", "tensorShape": {}}}, "dtype": {"type": "DT_FLOAT"}}}, {"name": "PartitionedCall/jax2tf_main_/vmap/vmap/pjit_norm_/Sum_21/reduction_indices", "op": "Const", "attr": {"value": {"tensor": {"dtype": "DT_INT32", "tensorShape": {"dim": [{"size": "1"}]}}}, "dtype": {"type": "DT_INT32"}}}, {"name": "PartitionedCall/Const_75", "op": "Const", "attr": {"value": {"tensor": {"dtype": "DT_FLOAT", "tensorShape": {}}}, "dtype": {"type": "DT_FLOAT"}}}, {"name": "PartitionedCall/jax2tf_main_/vmap/vmap/pjit_fn_/Reshape_63/shape", "op": "Const", "attr": {"value": {"tensor": {"dtype": "DT_INT32", "tensorShape": {"dim": [{"size": "3"}]}}}, "dtype": {"type": "DT_INT32"}}}, {"name": "PartitionedCall/jax2tf_main_/vmap/vmap/pjit_remainder_/Abs_39", "op": "Const", "attr": {"value": {"tensor": {"dtype": "DT_FLOAT", "tensorShape": {}}}, "dtype": {"type": "DT_FLOAT"}}}, {"name": "PartitionedCall/Const_77", "op": "Const", "attr": {"value": {"tensor": {"dtype": "DT_FLOAT", "tensorShape": {}}}, "dtype": {"type": "DT_FLOAT"}}}, {"name": "PartitionedCall/jax2tf_main_/vmap/vmap/pjit_norm_/Sum_22/reduction_indices", "op": "Const", "attr": {"value": {"tensor": {"dtype": "DT_INT32", "tensorShape": {"dim": [{"size": "1"}]}}}, "dtype": {"type": "DT_INT32"}}}, {"name": "PartitionedCall/Const_78", "op": "Const", "attr": {"value": {"tensor": {"dtype": "DT_FLOAT", "tensorShape": {}}}, "dtype": {"type": "DT_FLOAT"}}}, {"name": "PartitionedCall/jax2tf_main_/vmap/transpose/perm", "op": "Const", "attr": {"value": {"tensor": {"dtype": "DT_INT32", "tensorShape": {"dim": [{"size": "2"}]}}}, "dtype": {"type": "DT_INT32"}}}, {"name": "xs_0", "op": "Placeholder", "attr": {"shape": {"shape": {"dim": [{"size": "3"}]}}, "dtype": {"type": "DT_FLOAT"}}}, {"name": "PartitionedCall/jax2tf_main_/vmap/vmap/transpose/jax2tf_main_/vmap/vmap/jvp/pjit_remainder_/BroadcastTo_2", "op": "BroadcastTo", "input": ["PartitionedCall/jax2tf_main_/vmap/vmap/transpose/jax2tf_main_/vmap/vmap/jvp/pjit_remainder_/Reshape_2", "PartitionedCall/jax2tf_main_/vmap/vmap/transpose/jax2tf_main_/vmap/vmap/jvp/pjit_remainder_/BroadcastTo_2/shape"], "attr": {"Tidx": {"type": "DT_INT32"}, "T": {"type": "DT_FLOAT"}}}, {"name": "PartitionedCall/jax2tf_main_/vmap/vmap/transpose/jax2tf_main_/vmap/vmap/jvp/pjit_remainder_/BroadcastTo_4", "op": "BroadcastTo", "input": ["PartitionedCall/jax2tf_main_/vmap/vmap/transpose/jax2tf_main_/vmap/vmap/jvp/pjit_remainder_/Reshape_4", "PartitionedCall/jax2tf_main_/vmap/vmap/transpose/jax2tf_main_/vmap/vmap/jvp/pjit_remainder_/BroadcastTo_4/shape"], "attr": {"T": {"type": "DT_FLOAT"}, "Tidx": {"type": "DT_INT32"}}}, {"name": "PartitionedCall/jax2tf_main_/vmap/vmap/strided_slice", "op": "StridedSlice", "input": ["xs_0", "PartitionedCall/jax2tf_main_/vmap/vmap/strided_slice/stack", "PartitionedCall/jax2tf_main_/vmap/vmap/strided_slice/stack_1", "PartitionedCall/jax2tf_main_/vmap/vmap/strided_slice/stack_2"], "attr": {"shrink_axis_mask": {"i": "0"}, "Index": {"type": "DT_INT32"}, "new_axis_mask": {"i": "0"}, "begin_mask": {"i": "0"}, "T": {"type": "DT_FLOAT"}, "end_mask": {"i": "0"}, "ellipsis_mask": {"i": "0"}}}, {"name": "PartitionedCall/jax2tf_main_/vmap/vmap/strided_slice_1", "op": "StridedSlice", "input": ["xs_0", "PartitionedCall/jax2tf_main_/vmap/vmap/strided_slice_1/stack", "PartitionedCall/jax2tf_main_/vmap/vmap/strided_slice_1/stack_1", "PartitionedCall/jax2tf_main_/vmap/vmap/strided_slice_1/stack_2"], "attr": {"shrink_axis_mask": {"i": "0"}, "Index": {"type": "DT_INT32"}, "new_axis_mask": {"i": "0"}, "begin_mask": {"i": "0"}, "T": {"type": "DT_FLOAT"}, "end_mask": {"i": "0"}, "ellipsis_mask": {"i": "0"}}}, {"name": "PartitionedCall/jax2tf_main_/vmap/vmap/strided_slice_2", "op": "StridedSlice", "input": ["xs_0", "PartitionedCall/jax2tf_main_/vmap/vmap/strided_slice_2/stack", "PartitionedCall/jax2tf_main_/vmap/vmap/strided_slice_2/stack_1", "PartitionedCall/jax2tf_main_/vmap/vmap/strided_slice_2/stack_2"], "attr": {"shrink_axis_mask": {"i": "0"}, "new_axis_mask": {"i": "0"}, "Index": {"type": "DT_INT32"}, "begin_mask": {"i": "0"}, "end_mask": {"i": "0"}, "T": {"type": "DT_FLOAT"}, "ellipsis_mask": {"i": "0"}}}, {"name": "PartitionedCall/jax2tf_main_/vmap/vmap/Reshape", "op": "Reshape", "input": ["PartitionedCall/jax2tf_main_/vmap/vmap/strided_slice", "PartitionedCall/jax2tf_main_/vmap/vmap/Reshape/shape_1"], "attr": {"T": {"type": "DT_FLOAT"}, "Tshape": {"type": "DT_INT32"}}}, {"name": "PartitionedCall/jax2tf_main_/vmap/vmap/Reshape_1", "op": "Reshape", "input": ["PartitionedCall/jax2tf_main_/vmap/vmap/strided_slice_1", "PartitionedCall/jax2tf_main_/vmap/vmap/Reshape_1/shape_1"], "attr": {"T": {"type": "DT_FLOAT"}, "Tshape": {"type": "DT_INT32"}}}, {"name": "PartitionedCall/jax2tf_main_/vmap/vmap/Reshape_11", "op": "Reshape", "input": ["PartitionedCall/jax2tf_main_/vmap/vmap/strided_slice_2", "PartitionedCall/jax2tf_main_/vmap/vmap/Reshape_11/shape_1"], "attr": {"T": {"type": "DT_FLOAT"}, "Tshape": {"type": "DT_INT32"}}}, {"name": "PartitionedCall/jax2tf_main_/vmap/vmap/pjit_true_divide_/truediv", "op": "Mul", "input": ["PartitionedCall/jax2tf_main_/vmap/vmap/Reshape", "ConstantFolding/PartitionedCall/jax2tf_main_/vmap/vmap/pjit_true_divide_/truediv_recip"], "attr": {"T": {"type": "DT_FLOAT"}}}, {"name": "PartitionedCall/jax2tf_main_/vmap/vmap/pjit_true_divide_/truediv_1", "op": "Mul", "input": ["PartitionedCall/jax2tf_main_/vmap/vmap/Reshape_1", "ConstantFolding/PartitionedCall/jax2tf_main_/vmap/vmap/pjit_true_divide_/truediv_1_recip"], "attr": {"T": {"type": "DT_FLOAT"}}}, {"name": "PartitionedCall/jax2tf_main_/vmap/vmap/pjit_true_divide_/truediv_2", "op": "Mul", "input": ["PartitionedCall/jax2tf_main_/vmap/vmap/Reshape_11", "ConstantFolding/PartitionedCall/jax2tf_main_/vmap/vmap/pjit_true_divide_/truediv_2_recip"], "attr": {"T": {"type": "DT_FLOAT"}}}, {"name": "PartitionedCall/jax2tf_main_/vmap/vmap/pjit_fn_/AddV2", "op": "Sub", "input": ["PartitionedCall/jax2tf_main_/vmap/vmap/pjit_true_divide_/truediv_1", "PartitionedCall/Const_7"], "attr": {"T": {"type": "DT_FLOAT"}}}, {"name": "PartitionedCall/jax2tf_main_/vmap/vmap/pjit__lambda__/Sub_1", "op": "Sub", "input": ["PartitionedCall/jax2tf_main_/vmap/vmap/pjit_true_divide_/truediv_2", "PartitionedCall/Const_12"], "attr": {"T": {"type": "DT_FLOAT"}}}, {"name": "PartitionedCall/jax2tf_main_/vmap/vmap/pjit__lambda__/Sub", "op": "Add", "input": ["PartitionedCall/jax2tf_main_/vmap/vmap/pjit_true_divide_/truediv", "PartitionedCall/jax2tf_main_/vmap/vmap/pjit_fn_/AddV2"], "attr": {"T": {"type": "DT_FLOAT"}}}, {"name": "PartitionedCall/jax2tf_main_/vmap/vmap/pjit_fn_/Mul", "op": "Mul", "input": ["PartitionedCall/jax2tf_main_/vmap/vmap/pjit_fn_/Cast", "PartitionedCall/jax2tf_main_/vmap/vmap/pjit__lambda__/Sub_1"], "attr": {"T": {"type": "DT_FLOAT"}}}, {"name": "PartitionedCall/jax2tf_main_/vmap/vmap/pjit_sin_/Sin", "op": "Sin", "input": ["PartitionedCall/jax2tf_main_/vmap/vmap/pjit__lambda__/Sub"], "attr": {"T": {"type": "DT_FLOAT"}}}, {"name": "PartitionedCall/jax2tf_main_/vmap/vmap/pjit_cos_/Cos", "op": "Cos", "input": ["PartitionedCall/jax2tf_main_/vmap/vmap/pjit__lambda__/Sub"], "attr": {"T": {"type": "DT_FLOAT"}}}, {"name": "PartitionedCall/jax2tf_main_/vmap/vmap/Reshape_14", "op": "Reshape", "input": ["PartitionedCall/jax2tf_main_/vmap/vmap/pjit_fn_/Mul", "PartitionedCall/jax2tf_main_/vmap/vmap/Reshape_14/shape"], "attr": {"T": {"type": "DT_FLOAT"}, "Tshape": {"type": "DT_INT32"}}}, {"name": "PartitionedCall/jax2tf_main_/vmap/vmap/pjit_negative_/Neg", "op": "Neg", "input": ["PartitionedCall/jax2tf_main_/vmap/vmap/pjit_sin_/Sin"], "attr": {"T": {"type": "DT_FLOAT"}}}, {"name": "PartitionedCall/jax2tf_main_/vmap/vmap/Reshape_5", "op": "Reshape", "input": ["PartitionedCall/jax2tf_main_/vmap/vmap/pjit_sin_/Sin", "PartitionedCall/jax2tf_main_/vmap/vmap/Reshape_5/shape"], "attr": {"T": {"type": "DT_FLOAT"}, "Tshape": {"type": "DT_INT32"}}}, {"name": "PartitionedCall/jax2tf_main_/vmap/vmap/Reshape_2", "op": "Reshape", "input": ["PartitionedCall/jax2tf_main_/vmap/vmap/pjit_cos_/Cos", "PartitionedCall/jax2tf_main_/vmap/vmap/Reshape_2/shape"], "attr": {"T": {"type": "DT_FLOAT"}, "Tshape": {"type": "DT_INT32"}}}, {"name": "PartitionedCall/jax2tf_main_/vmap/vmap/Reshape_6", "op": "Reshape", "input": ["PartitionedCall/jax2tf_main_/vmap/vmap/pjit_cos_/Cos", "PartitionedCall/jax2tf_main_/vmap/vmap/Reshape_6/shape"], "attr": {"T": {"type": "DT_FLOAT"}, "Tshape": {"type": "DT_INT32"}}}, {"name": "PartitionedCall/jax2tf_main_/vmap/vmap/concat_3", "op": "ConcatV2", "input": ["ConstantFolding/PartitionedCall/jax2tf_main_/vmap/vmap/concat_3_partial_split_0", "PartitionedCall/jax2tf_main_/vmap/vmap/Reshape_14", "PartitionedCall/jax2tf_main_/vmap/vmap/Cast_3/x"], "attr": {"N": {"i": "2"}, "T": {"type": "DT_FLOAT"}, "Tidx": {"type": "DT_INT32"}}}, {"name": "PartitionedCall/jax2tf_main_/vmap/vmap/Reshape_3", "op": "Reshape", "input": ["PartitionedCall/jax2tf_main_/vmap/vmap/pjit_negative_/Neg", "PartitionedCall/jax2tf_main_/vmap/vmap/Reshape_3/shape"], "attr": {"T": {"type": "DT_FLOAT"}, "Tshape": {"type": "DT_INT32"}}}, {"name": "PartitionedCall/jax2tf_main_/vmap/vmap/concat_1", "op": "ConcatV2", "input": ["PartitionedCall/jax2tf_main_/vmap/vmap/Reshape_5", "PartitionedCall/jax2tf_main_/vmap/vmap/Reshape_6", "PartitionedCall/jax2tf_main_/vmap/vmap/BroadcastTo_5", "PartitionedCall/jax2tf_main_/vmap/vmap/Cast_1/x"], "attr": {"N": {"i": "3"}, "T": {"type": "DT_FLOAT"}, "Tidx": {"type": "DT_INT32"}}}, {"name": "PartitionedCall/jax2tf_main_/vmap/vmap/concat", "op": "ConcatV2", "input": ["PartitionedCall/jax2tf_main_/vmap/vmap/Reshape_2", "PartitionedCall/jax2tf_main_/vmap/vmap/Reshape_3", "PartitionedCall/jax2tf_main_/vmap/vmap/BroadcastTo_2", "PartitionedCall/jax2tf_main_/vmap/vmap/Cast/x"], "attr": {"N": {"i": "3"}, "T": {"type": "DT_FLOAT"}, "Tidx": {"type": "DT_INT32"}}}, {"name": "PartitionedCall/jax2tf_main_/vmap/vmap/Reshape_9", "op": "Reshape", "input": ["PartitionedCall/jax2tf_main_/vmap/vmap/concat_1", "PartitionedCall/jax2tf_main_/vmap/vmap/Reshape_9/shape"], "attr": {"T": {"type": "DT_FLOAT"}, "Tshape": {"type": "DT_INT32"}}}, {"name": "PartitionedCall/jax2tf_main_/vmap/vmap/Reshape_8", "op": "Reshape", "input": ["PartitionedCall/jax2tf_main_/vmap/vmap/concat", "PartitionedCall/jax2tf_main_/vmap/vmap/Reshape_8/shape"], "attr": {"T": {"type": "DT_FLOAT"}, "Tshape": {"type": "DT_INT32"}}}, {"name": "PartitionedCall/jax2tf_main_/vmap/vmap/concat_2", "op": "ConcatV2", "input": ["PartitionedCall/jax2tf_main_/vmap/vmap/Reshape_8", "PartitionedCall/jax2tf_main_/vmap/vmap/Reshape_9", "PartitionedCall/jax2tf_main_/vmap/vmap/BroadcastTo_8", "PartitionedCall/jax2tf_main_/vmap/vmap/Cast_2/x"], "attr": {"N": {"i": "3"}, "T": {"type": "DT_FLOAT"}, "Tidx": {"type": "DT_INT32"}}}, {"name": "PartitionedCall/jax2tf_main_/vmap/vmap/pjit_matmul_/MatMul", "op": "MatMul", "input": ["PartitionedCall/jax2tf_main_/vmap/vmap/concat_2", "PartitionedCall/jax2tf_main_/vmap/vmap/pjit_matmul_/ExpandDims"], "device": "/device:CPU:0", "attr": {"transpose_a": {"b": false}, "_input_shapes": {"list": {"shape": [{"dim": [{"size": "3"}, {"size": "3"}]}, {"dim": [{"size": "3"}, {"size": "1"}]}]}}, "T": {"type": "DT_FLOAT"}, "transpose_b": {"b": false}}}, {"name": "PartitionedCall/jax2tf_main_/vmap/vmap/pjit_matmul_/Squeeze", "op": "Squeeze", "input": ["PartitionedCall/jax2tf_main_/vmap/vmap/pjit_matmul_/MatMul"], "attr": {"T": {"type": "DT_FLOAT"}, "squeeze_dims": {"list": {"i": ["1"]}}}}, {"name": "PartitionedCall/jax2tf_main_/vmap/vmap/pjit_fn_/AddV2_1", "op": "AddV2", "input": ["PartitionedCall/jax2tf_main_/vmap/vmap/pjit_matmul_/Squeeze", "PartitionedCall/jax2tf_main_/vmap/vmap/concat_3"], "attr": {"T": {"type": "DT_FLOAT"}}}, {"name": "PartitionedCall/jax2tf_main_/vmap/vmap/pjit_fn_/Reshape_68", "op": "Reshape", "input": ["PartitionedCall/jax2tf_main_/vmap/vmap/pjit_fn_/AddV2_1", "PartitionedCall/jax2tf_main_/vmap/vmap/pjit_fn_/Reshape_68/shape"], "attr": {"T": {"type": "DT_FLOAT"}, "Tshape": {"type": "DT_INT32"}}}, {"name": "PartitionedCall/jax2tf_main_/vmap/vmap/pjit_fn_/Reshape_65", "op": "Reshape", "input": ["PartitionedCall/jax2tf_main_/vmap/vmap/pjit_fn_/AddV2_1", "PartitionedCall/jax2tf_main_/vmap/vmap/pjit_fn_/Reshape_65/shape"], "attr": {"T": {"type": "DT_FLOAT"}, "Tshape": {"type": "DT_INT32"}}}, {"name": "PartitionedCall/jax2tf_main_/vmap/vmap/pjit_fn_/Reshape_62", "op": "Reshape", "input": ["PartitionedCall/jax2tf_main_/vmap/vmap/pjit_fn_/AddV2_1", "PartitionedCall/jax2tf_main_/vmap/vmap/pjit_fn_/Reshape_62/shape"], "attr": {"T": {"type": "DT_FLOAT"}, "Tshape": {"type": "DT_INT32"}}}, {"name": "PartitionedCall/jax2tf_main_/vmap/vmap/pjit_fn_/Reshape_59", "op": "Reshape", "input": ["PartitionedCall/jax2tf_main_/vmap/vmap/pjit_fn_/AddV2_1", "PartitionedCall/jax2tf_main_/vmap/vmap/pjit_fn_/Reshape_59/shape"], "attr": {"T": {"type": "DT_FLOAT"}, "Tshape": {"type": "DT_INT32"}}}, {"name": "PartitionedCall/jax2tf_main_/vmap/vmap/pjit_fn_/Reshape_56", "op": "Reshape", "input": ["PartitionedCall/jax2tf_main_/vmap/vmap/pjit_fn_/AddV2_1", "PartitionedCall/jax2tf_main_/vmap/vmap/pjit_fn_/Reshape_56/shape"], "attr": {"T": {"type": "DT_FLOAT"}, "Tshape": {"type": "DT_INT32"}}}, {"name": "PartitionedCall/jax2tf_main_/vmap/vmap/pjit_fn_/Reshape_53", "op": "Reshape", "input": ["PartitionedCall/jax2tf_main_/vmap/vmap/pjit_fn_/AddV2_1", "PartitionedCall/jax2tf_main_/vmap/vmap/pjit_fn_/Reshape_53/shape"], "attr": {"T": {"type": "DT_FLOAT"}, "Tshape": {"type": "DT_INT32"}}}, {"name": "PartitionedCall/jax2tf_main_/vmap/vmap/pjit_fn_/Reshape_50", "op": "Reshape", "input": ["PartitionedCall/jax2tf_main_/vmap/vmap/pjit_fn_/AddV2_1", "PartitionedCall/jax2tf_main_/vmap/vmap/pjit_fn_/Reshape_50/shape"], "attr": {"T": {"type": "DT_FLOAT"}, "Tshape": {"type": "DT_INT32"}}}, {"name": "PartitionedCall/jax2tf_main_/vmap/vmap/pjit_fn_/Reshape_47", "op": "Reshape", "input": ["PartitionedCall/jax2tf_main_/vmap/vmap/pjit_fn_/AddV2_1", "PartitionedCall/jax2tf_main_/vmap/vmap/pjit_fn_/Reshape_47/shape"], "attr": {"T": {"type": "DT_FLOAT"}, "Tshape": {"type": "DT_INT32"}}}, {"name": "PartitionedCall/jax2tf_main_/vmap/vmap/pjit_fn_/Reshape_44", "op": "Reshape", "input": ["PartitionedCall/jax2tf_main_/vmap/vmap/pjit_fn_/AddV2_1", "PartitionedCall/jax2tf_main_/vmap/vmap/pjit_fn_/Reshape_44/shape"], "attr": {"T": {"type": "DT_FLOAT"}, "Tshape": {"type": "DT_INT32"}}}, {"name": "PartitionedCall/jax2tf_main_/vmap/vmap/pjit_fn_/Reshape_41", "op": "Reshape", "input": ["PartitionedCall/jax2tf_main_/vmap/vmap/pjit_fn_/AddV2_1", "PartitionedCall/jax2tf_main_/vmap/vmap/pjit_fn_/Reshape_41/shape"], "attr": {"T": {"type": "DT_FLOAT"}, "Tshape": {"type": "DT_INT32"}}}, {"name": "PartitionedCall/jax2tf_main_/vmap/vmap/pjit_fn_/Reshape_38", "op": "Reshape", "input": ["PartitionedCall/jax2tf_main_/vmap/vmap/pjit_fn_/AddV2_1", "PartitionedCall/jax2tf_main_/vmap/vmap/pjit_fn_/Reshape_38/shape"], "attr": {"T": {"type": "DT_FLOAT"}, "Tshape": {"type": "DT_INT32"}}}, {"name": "PartitionedCall/jax2tf_main_/vmap/vmap/pjit_fn_/Reshape_35", "op": "Reshape", "input": ["PartitionedCall/jax2tf_main_/vmap/vmap/pjit_fn_/AddV2_1", "PartitionedCall/jax2tf_main_/vmap/vmap/pjit_fn_/Reshape_35/shape"], "attr": {"T": {"type": "DT_FLOAT"}, "Tshape": {"type": "DT_INT32"}}}, {"name": "PartitionedCall/jax2tf_main_/vmap/vmap/pjit_fn_/Reshape_32", "op": "Reshape", "input": ["PartitionedCall/jax2tf_main_/vmap/vmap/pjit_fn_/AddV2_1", "PartitionedCall/jax2tf_main_/vmap/vmap/pjit_fn_/Reshape_32/shape"], "attr": {"T": {"type": "DT_FLOAT"}, "Tshape": {"type": "DT_INT32"}}}, {"name": "PartitionedCall/jax2tf_main_/vmap/vmap/pjit_fn_/Reshape_29", "op": "Reshape", "input": ["PartitionedCall/jax2tf_main_/vmap/vmap/pjit_fn_/AddV2_1", "PartitionedCall/jax2tf_main_/vmap/vmap/pjit_fn_/Reshape_29/shape"], "attr": {"T": {"type": "DT_FLOAT"}, "Tshape": {"type": "DT_INT32"}}}, {"name": "PartitionedCall/jax2tf_main_/vmap/vmap/pjit_fn_/Reshape_26", "op": "Reshape", "input": ["PartitionedCall/jax2tf_main_/vmap/vmap/pjit_fn_/AddV2_1", "PartitionedCall/jax2tf_main_/vmap/vmap/pjit_fn_/Reshape_26/shape"], "attr": {"T": {"type": "DT_FLOAT"}, "Tshape": {"type": "DT_INT32"}}}, {"name": "PartitionedCall/jax2tf_main_/vmap/vmap/pjit_fn_/Reshape_23", "op": "Reshape", "input": ["PartitionedCall/jax2tf_main_/vmap/vmap/pjit_fn_/AddV2_1", "PartitionedCall/jax2tf_main_/vmap/vmap/pjit_fn_/Reshape_23/shape"], "attr": {"T": {"type": "DT_FLOAT"}, "Tshape": {"type": "DT_INT32"}}}, {"name": "PartitionedCall/jax2tf_main_/vmap/vmap/pjit_fn_/Reshape_20", "op": "Reshape", "input": ["PartitionedCall/jax2tf_main_/vmap/vmap/pjit_fn_/AddV2_1", "PartitionedCall/jax2tf_main_/vmap/vmap/pjit_fn_/Reshape_20/shape"], "attr": {"T": {"type": "DT_FLOAT"}, "Tshape": {"type": "DT_INT32"}}}, {"name": "PartitionedCall/jax2tf_main_/vmap/vmap/pjit_fn_/Reshape_17", "op": "Reshape", "input": ["PartitionedCall/jax2tf_main_/vmap/vmap/pjit_fn_/AddV2_1", "PartitionedCall/jax2tf_main_/vmap/vmap/pjit_fn_/Reshape_17/shape"], "attr": {"T": {"type": "DT_FLOAT"}, "Tshape": {"type": "DT_INT32"}}}, {"name": "PartitionedCall/jax2tf_main_/vmap/vmap/pjit_fn_/Reshape_14", "op": "Reshape", "input": ["PartitionedCall/jax2tf_main_/vmap/vmap/pjit_fn_/AddV2_1", "PartitionedCall/jax2tf_main_/vmap/vmap/pjit_fn_/Reshape_14/shape"], "attr": {"T": {"type": "DT_FLOAT"}, "Tshape": {"type": "DT_INT32"}}}, {"name": "PartitionedCall/jax2tf_main_/vmap/vmap/pjit_fn_/Reshape_11", "op": "Reshape", "input": ["PartitionedCall/jax2tf_main_/vmap/vmap/pjit_fn_/AddV2_1", "PartitionedCall/jax2tf_main_/vmap/vmap/pjit_fn_/Reshape_11/shape"], "attr": {"T": {"type": "DT_FLOAT"}, "Tshape": {"type": "DT_INT32"}}}, {"name": "PartitionedCall/jax2tf_main_/vmap/vmap/pjit_fn_/Reshape_8", "op": "Reshape", "input": ["PartitionedCall/jax2tf_main_/vmap/vmap/pjit_fn_/AddV2_1", "PartitionedCall/jax2tf_main_/vmap/vmap/pjit_fn_/Reshape_8/shape"], "attr": {"T": {"type": "DT_FLOAT"}, "Tshape": {"type": "DT_INT32"}}}, {"name": "PartitionedCall/jax2tf_main_/vmap/vmap/pjit_negative_/Neg_1", "op": "Neg", "input": ["PartitionedCall/jax2tf_main_/vmap/vmap/pjit_fn_/AddV2_1"], "attr": {"T": {"type": "DT_FLOAT"}}}, {"name": "PartitionedCall/jax2tf_main_/vmap/vmap/pjit_norm_/ArithmeticOptimizer/ReplaceMulWithSquare_Mul", "op": "Square", "input": ["PartitionedCall/jax2tf_main_/vmap/vmap/pjit_negative_/Neg_1"], "attr": {"T": {"type": "DT_FLOAT"}}}, {"name": "PartitionedCall/jax2tf_main_/vmap/vmap/pjit_norm_/Sum", "op": "Sum", "input": ["PartitionedCall/jax2tf_main_/vmap/vmap/pjit_norm_/ArithmeticOptimizer/ReplaceMulWithSquare_Mul", "PartitionedCall/jax2tf_main_/vmap/vmap/pjit_norm_/Sum/reduction_indices"], "attr": {"Tidx": {"type": "DT_INT32"}, "T": {"type": "DT_FLOAT"}, "keep_dims": {"b": false}}}, {"name": "PartitionedCall/jax2tf_main_/vmap/vmap/pjit_norm_/Sqrt", "op": "Rsqrt", "input": ["PartitionedCall/jax2tf_main_/vmap/vmap/pjit_norm_/Sum"], "attr": {"T": {"type": "DT_FLOAT"}}}, {"name": "PartitionedCall/jax2tf_main_/vmap/vmap/pjit_true_divide_/truediv_3", "op": "Mul", "input": ["PartitionedCall/jax2tf_main_/vmap/vmap/pjit_negative_/Neg_1", "PartitionedCall/jax2tf_main_/vmap/vmap/pjit_norm_/Sqrt"], "attr": {"T": {"type": "DT_FLOAT"}}}, {"name": "PartitionedCall/jax2tf_main_/vmap/vmap/pjit_fn_/Reshape_2", "op": "Reshape", "input": ["PartitionedCall/jax2tf_main_/vmap/vmap/pjit_true_divide_/truediv_3", "PartitionedCall/jax2tf_main_/vmap/vmap/pjit_fn_/Reshape_2/shape"], "attr": {"T": {"type": "DT_FLOAT"}, "Tshape": {"type": "DT_INT32"}}}, {"name": "PartitionedCall/jax2tf_main_/vmap/vmap/pjit_cross_/StridedSlice_8", "op": "StridedSlice", "input": ["PartitionedCall/jax2tf_main_/vmap/vmap/pjit_true_divide_/truediv_3", "PartitionedCall/jax2tf_main_/vmap/vmap/pjit_cross_/clip_by_value_8", "PartitionedCall/jax2tf_main_/vmap/vmap/pjit_cross_/add_8", "PartitionedCall/jax2tf_main_/vmap/vmap/pjit_cross_/ones_like_8"], "attr": {"shrink_axis_mask": {"i": "1"}, "Index": {"type": "DT_INT32"}, "new_axis_mask": {"i": "0"}, "begin_mask": {"i": "0"}, "T": {"type": "DT_FLOAT"}, "end_mask": {"i": "0"}, "ellipsis_mask": {"i": "0"}}}, {"name": "PartitionedCall/jax2tf_main_/vmap/vmap/pjit_cross_/StridedSlice_6", "op": "StridedSlice", "input": ["PartitionedCall/jax2tf_main_/vmap/vmap/pjit_true_divide_/truediv_3", "PartitionedCall/jax2tf_main_/vmap/vmap/pjit_cross_/clip_by_value_6", "PartitionedCall/jax2tf_main_/vmap/vmap/pjit_cross_/add_6", "PartitionedCall/jax2tf_main_/vmap/vmap/pjit_cross_/ones_like_6"], "attr": {"shrink_axis_mask": {"i": "1"}, "Index": {"type": "DT_INT32"}, "new_axis_mask": {"i": "0"}, "begin_mask": {"i": "0"}, "T": {"type": "DT_FLOAT"}, "end_mask": {"i": "0"}, "ellipsis_mask": {"i": "0"}}}, {"name": "PartitionedCall/jax2tf_main_/vmap/vmap/pjit_cross_/StridedSlice_7", "op": "StridedSlice", "input": ["PartitionedCall/jax2tf_main_/vmap/vmap/pjit_true_divide_/truediv_3", "PartitionedCall/jax2tf_main_/vmap/vmap/pjit_cross_/clip_by_value_7", "PartitionedCall/jax2tf_main_/vmap/vmap/pjit_cross_/add_7", "PartitionedCall/jax2tf_main_/vmap/vmap/pjit_cross_/ones_like_7"], "attr": {"shrink_axis_mask": {"i": "1"}, "Index": {"type": "DT_INT32"}, "new_axis_mask": {"i": "0"}, "begin_mask": {"i": "0"}, "end_mask": {"i": "0"}, "T": {"type": "DT_FLOAT"}, "ellipsis_mask": {"i": "0"}}}, {"name": "PartitionedCall/jax2tf_main_/vmap/vmap/pjit_cross_/StridedSlice_4", "op": "StridedSlice", "input": ["PartitionedCall/jax2tf_main_/vmap/vmap/pjit_true_divide_/truediv_3", "PartitionedCall/jax2tf_main_/vmap/vmap/pjit_cross_/clip_by_value_4", "PartitionedCall/jax2tf_main_/vmap/vmap/pjit_cross_/add_4", "PartitionedCall/jax2tf_main_/vmap/vmap/pjit_cross_/ones_like_4"], "attr": {"shrink_axis_mask": {"i": "1"}, "new_axis_mask": {"i": "0"}, "Index": {"type": "DT_INT32"}, "begin_mask": {"i": "0"}, "T": {"type": "DT_FLOAT"}, "end_mask": {"i": "0"}, "ellipsis_mask": {"i": "0"}}}, {"name": "PartitionedCall/jax2tf_main_/vmap/vmap/pjit_cross_/StridedSlice_3", "op": "StridedSlice", "input": ["PartitionedCall/jax2tf_main_/vmap/vmap/pjit_true_divide_/truediv_3", "PartitionedCall/jax2tf_main_/vmap/vmap/pjit_cross_/clip_by_value_3", "PartitionedCall/jax2tf_main_/vmap/vmap/pjit_cross_/add_3", "PartitionedCall/jax2tf_main_/vmap/vmap/pjit_cross_/ones_like_3"], "attr": {"shrink_axis_mask": {"i": "1"}, "new_axis_mask": {"i": "0"}, "Index": {"type": "DT_INT32"}, "begin_mask": {"i": "0"}, "end_mask": {"i": "0"}, "T": {"type": "DT_FLOAT"}, "ellipsis_mask": {"i": "0"}}}, {"name": "PartitionedCall/jax2tf_main_/vmap/vmap/pjit_cross_/Sub_6", "op": "Neg", "input": ["PartitionedCall/jax2tf_main_/vmap/vmap/pjit_cross_/StridedSlice_4"], "attr": {"T": {"type": "DT_FLOAT"}}}, {"name": "PartitionedCall/jax2tf_main_/vmap/vmap/pjit_cross_/Reshape_7", "op": "Reshape", "input": ["PartitionedCall/jax2tf_main_/vmap/vmap/pjit_cross_/StridedSlice_3", "PartitionedCall/jax2tf_main_/vmap/vmap/pjit_cross_/Reshape_7/shape"], "attr": {"T": {"type": "DT_FLOAT"}, "Tshape": {"type": "DT_INT32"}}}, {"name": "PartitionedCall/jax2tf_main_/vmap/vmap/pjit_cross_/Reshape_8", "op": "Const", "input": ["^PartitionedCall/jax2tf_main_/vmap/vmap/pjit_cross_/StridedSlice_4", "^PartitionedCall/jax2tf_main_/vmap/vmap/pjit_cross_/StridedSlice_3"], "attr": {"value": {"tensor": {"dtype": "DT_FLOAT", "tensorShape": {"dim": [{"size": "1"}]}}}, "dtype": {"type": "DT_FLOAT"}}}, {"name": "PartitionedCall/jax2tf_main_/vmap/vmap/pjit_cross_/Reshape_6", "op": "Reshape", "input": ["PartitionedCall/jax2tf_main_/vmap/vmap/pjit_cross_/Sub_6", "PartitionedCall/jax2tf_main_/vmap/vmap/pjit_cross_/Reshape_6/shape"], "attr": {"T": {"type": "DT_FLOAT"}, "Tshape": {"type": "DT_INT32"}}}, {"name": "PartitionedCall/jax2tf_main_/vmap/vmap/pjit_cross_/concat", "op": "ConcatV2", "input": ["PartitionedCall/jax2tf_main_/vmap/vmap/pjit_cross_/Reshape_6", "PartitionedCall/jax2tf_main_/vmap/vmap/pjit_cross_/Reshape_7", "PartitionedCall/jax2tf_main_/vmap/vmap/pjit_cross_/Reshape_8", "PartitionedCall/jax2tf_main_/vmap/vmap/pjit_cross_/Cast/x"], "attr": {"N": {"i": "3"}, "T": {"type": "DT_FLOAT"}, "Tidx": {"type": "DT_INT32"}}}, {"name": "PartitionedCall/jax2tf_main_/vmap/vmap/pjit_norm_/ArithmeticOptimizer/ReplaceMulWithSquare_Mul_1", "op": "Square", "input": ["PartitionedCall/jax2tf_main_/vmap/vmap/pjit_cross_/concat"], "attr": {"T": {"type": "DT_FLOAT"}}}, {"name": "PartitionedCall/jax2tf_main_/vmap/vmap/pjit_norm_/Sum_1", "op": "Sum", "input": ["PartitionedCall/jax2tf_main_/vmap/vmap/pjit_norm_/ArithmeticOptimizer/ReplaceMulWithSquare_Mul_1", "PartitionedCall/jax2tf_main_/vmap/vmap/pjit_norm_/Sum_1/reduction_indices"], "attr": {"T": {"type": "DT_FLOAT"}, "Tidx": {"type": "DT_INT32"}, "keep_dims": {"b": false}}}, {"name": "PartitionedCall/jax2tf_main_/vmap/vmap/pjit_norm_/Sqrt_1", "op": "Rsqrt", "input": ["PartitionedCall/jax2tf_main_/vmap/vmap/pjit_norm_/Sum_1"], "attr": {"T": {"type": "DT_FLOAT"}}}, {"name": "PartitionedCall/jax2tf_main_/vmap/vmap/pjit_true_divide_/truediv_4", "op": "Mul", "input": ["PartitionedCall/jax2tf_main_/vmap/vmap/pjit_cross_/concat", "PartitionedCall/jax2tf_main_/vmap/vmap/pjit_norm_/Sqrt_1"], "attr": {"T": {"type": "DT_FLOAT"}}}, {"name": "PartitionedCall/jax2tf_main_/vmap/vmap/pjit_cross_/StridedSlice_11", "op": "StridedSlice", "input": ["PartitionedCall/jax2tf_main_/vmap/vmap/pjit_true_divide_/truediv_4", "PartitionedCall/jax2tf_main_/vmap/vmap/pjit_cross_/clip_by_value_11", "PartitionedCall/jax2tf_main_/vmap/vmap/pjit_cross_/add_11", "PartitionedCall/jax2tf_main_/vmap/vmap/pjit_cross_/ones_like_11"], "attr": {"shrink_axis_mask": {"i": "1"}, "Index": {"type": "DT_INT32"}, "new_axis_mask": {"i": "0"}, "begin_mask": {"i": "0"}, "end_mask": {"i": "0"}, "T": {"type": "DT_FLOAT"}, "ellipsis_mask": {"i": "0"}}}, {"name": "PartitionedCall/jax2tf_main_/vmap/vmap/pjit_cross_/StridedSlice_10", "op": "StridedSlice", "input": ["PartitionedCall/jax2tf_main_/vmap/vmap/pjit_true_divide_/truediv_4", "PartitionedCall/jax2tf_main_/vmap/vmap/pjit_cross_/clip_by_value_10", "PartitionedCall/jax2tf_main_/vmap/vmap/pjit_cross_/add_10", "PartitionedCall/jax2tf_main_/vmap/vmap/pjit_cross_/ones_like_10"], "attr": {"shrink_axis_mask": {"i": "1"}, "new_axis_mask": {"i": "0"}, "Index": {"type": "DT_INT32"}, "begin_mask": {"i": "0"}, "T": {"type": "DT_FLOAT"}, "end_mask": {"i": "0"}, "ellipsis_mask": {"i": "0"}}}, {"name": "PartitionedCall/jax2tf_main_/vmap/vmap/pjit_cross_/StridedSlice_9", "op": "StridedSlice", "input": ["PartitionedCall/jax2tf_main_/vmap/vmap/pjit_true_divide_/truediv_4", "PartitionedCall/jax2tf_main_/vmap/vmap/pjit_cross_/clip_by_value_9", "PartitionedCall/jax2tf_main_/vmap/vmap/pjit_cross_/add_9", "PartitionedCall/jax2tf_main_/vmap/vmap/pjit_cross_/ones_like_9"], "attr": {"shrink_axis_mask": {"i": "1"}, "new_axis_mask": {"i": "0"}, "Index": {"type": "DT_INT32"}, "begin_mask": {"i": "0"}, "T": {"type": "DT_FLOAT"}, "end_mask": {"i": "0"}, "ellipsis_mask": {"i": "0"}}}, {"name": "PartitionedCall/jax2tf_main_/vmap/vmap/pjit_fn_/Reshape_3", "op": "Reshape", "input": ["PartitionedCall/jax2tf_main_/vmap/vmap/pjit_true_divide_/truediv_4", "PartitionedCall/jax2tf_main_/vmap/vmap/pjit_fn_/Reshape_3/shape"], "attr": {"T": {"type": "DT_FLOAT"}, "Tshape": {"type": "DT_INT32"}}}, {"name": "PartitionedCall/jax2tf_main_/vmap/vmap/pjit_cross_/Mul_6", "op": "Mul", "input": ["PartitionedCall/jax2tf_main_/vmap/vmap/pjit_cross_/StridedSlice_7", "PartitionedCall/jax2tf_main_/vmap/vmap/pjit_cross_/StridedSlice_11"], "attr": {"T": {"type": "DT_FLOAT"}}}, {"name": "PartitionedCall/jax2tf_main_/vmap/vmap/pjit_cross_/Mul_9", "op": "Mul", "input": ["PartitionedCall/jax2tf_main_/vmap/vmap/pjit_cross_/StridedSlice_6", "PartitionedCall/jax2tf_main_/vmap/vmap/pjit_cross_/StridedSlice_11"], "attr": {"T": {"type": "DT_FLOAT"}}}, {"name": "PartitionedCall/jax2tf_main_/vmap/vmap/pjit_cross_/Mul_7", "op": "Mul", "input": ["PartitionedCall/jax2tf_main_/vmap/vmap/pjit_cross_/StridedSlice_8", "PartitionedCall/jax2tf_main_/vmap/vmap/pjit_cross_/StridedSlice_10"], "attr": {"T": {"type": "DT_FLOAT"}}}, {"name": "PartitionedCall/jax2tf_main_/vmap/vmap/pjit_cross_/Mul_10", "op": "Mul", "input": ["PartitionedCall/jax2tf_main_/vmap/vmap/pjit_cross_/StridedSlice_6", "PartitionedCall/jax2tf_main_/vmap/vmap/pjit_cross_/StridedSlice_10"], "attr": {"T": {"type": "DT_FLOAT"}}}, {"name": "PartitionedCall/jax2tf_main_/vmap/vmap/pjit_cross_/Mul_8", "op": "Mul", "input": ["PartitionedCall/jax2tf_main_/vmap/vmap/pjit_cross_/StridedSlice_8", "PartitionedCall/jax2tf_main_/vmap/vmap/pjit_cross_/StridedSlice_9"], "attr": {"T": {"type": "DT_FLOAT"}}}, {"name": "PartitionedCall/jax2tf_main_/vmap/vmap/pjit_cross_/Mul_11", "op": "Mul", "input": ["PartitionedCall/jax2tf_main_/vmap/vmap/pjit_cross_/StridedSlice_7", "PartitionedCall/jax2tf_main_/vmap/vmap/pjit_cross_/StridedSlice_9"], "attr": {"T": {"type": "DT_FLOAT"}}}, {"name": "PartitionedCall/jax2tf_main_/vmap/vmap/pjit_fn_/Mul_2", "op": "Mul", "input": ["PartitionedCall/jax2tf_main_/vmap/vmap/pjit_fn_/BroadcastTo_4", "PartitionedCall/jax2tf_main_/vmap/vmap/pjit_fn_/Reshape_3"], "attr": {"T": {"type": "DT_FLOAT"}}}, {"name": "PartitionedCall/jax2tf_main_/vmap/vmap/pjit_cross_/Sub_15", "op": "Sub", "input": ["PartitionedCall/jax2tf_main_/vmap/vmap/pjit_cross_/Mul_6", "PartitionedCall/jax2tf_main_/vmap/vmap/pjit_cross_/Mul_7"], "attr": {"T": {"type": "DT_FLOAT"}}}, {"name": "PartitionedCall/jax2tf_main_/vmap/vmap/pjit_cross_/Sub_16", "op": "Sub", "input": ["PartitionedCall/jax2tf_main_/vmap/vmap/pjit_cross_/Mul_8", "PartitionedCall/jax2tf_main_/vmap/vmap/pjit_cross_/Mul_9"], "attr": {"T": {"type": "DT_FLOAT"}}}, {"name": "PartitionedCall/jax2tf_main_/vmap/vmap/pjit_cross_/Sub_17", "op": "Sub", "input": ["PartitionedCall/jax2tf_main_/vmap/vmap/pjit_cross_/Mul_10", "PartitionedCall/jax2tf_main_/vmap/vmap/pjit_cross_/Mul_11"], "attr": {"T": {"type": "DT_FLOAT"}}}, {"name": "PartitionedCall/jax2tf_main_/vmap/vmap/pjit_fn_/Reshape_5", "op": "Reshape", "input": ["PartitionedCall/jax2tf_main_/vmap/vmap/pjit_fn_/Mul_2", "PartitionedCall/jax2tf_main_/vmap/vmap/pjit_fn_/Reshape_5/shape"], "attr": {"T": {"type": "DT_FLOAT"}, "Tshape": {"type": "DT_INT32"}}}, {"name": "PartitionedCall/jax2tf_main_/vmap/vmap/pjit_cross_/Reshape_15", "op": "Reshape", "input": ["PartitionedCall/jax2tf_main_/vmap/vmap/pjit_cross_/Sub_15", "PartitionedCall/jax2tf_main_/vmap/vmap/pjit_cross_/Reshape_15/shape"], "attr": {"T": {"type": "DT_FLOAT"}, "Tshape": {"type": "DT_INT32"}}}, {"name": "PartitionedCall/jax2tf_main_/vmap/vmap/pjit_cross_/Reshape_16", "op": "Reshape", "input": ["PartitionedCall/jax2tf_main_/vmap/vmap/pjit_cross_/Sub_16", "PartitionedCall/jax2tf_main_/vmap/vmap/pjit_cross_/Reshape_16/shape"], "attr": {"T": {"type": "DT_FLOAT"}, "Tshape": {"type": "DT_INT32"}}}, {"name": "PartitionedCall/jax2tf_main_/vmap/vmap/pjit_cross_/Reshape_17", "op": "Reshape", "input": ["PartitionedCall/jax2tf_main_/vmap/vmap/pjit_cross_/Sub_17", "PartitionedCall/jax2tf_main_/vmap/vmap/pjit_cross_/Reshape_17/shape"], "attr": {"T": {"type": "DT_FLOAT"}, "Tshape": {"type": "DT_INT32"}}}, {"name": "PartitionedCall/jax2tf_main_/vmap/vmap/pjit_cross_/concat_1", "op": "ConcatV2", "input": ["PartitionedCall/jax2tf_main_/vmap/vmap/pjit_cross_/Reshape_15", "PartitionedCall/jax2tf_main_/vmap/vmap/pjit_cross_/Reshape_16", "PartitionedCall/jax2tf_main_/vmap/vmap/pjit_cross_/Reshape_17", "PartitionedCall/jax2tf_main_/vmap/vmap/pjit_cross_/Cast_1/x"], "attr": {"N": {"i": "3"}, "Tidx": {"type": "DT_INT32"}, "T": {"type": "DT_FLOAT"}}}, {"name": "PartitionedCall/jax2tf_main_/vmap/vmap/pjit_fn_/Reshape", "op": "Reshape", "input": ["PartitionedCall/jax2tf_main_/vmap/vmap/pjit_cross_/concat_1", "PartitionedCall/jax2tf_main_/vmap/vmap/pjit_fn_/Reshape/shape"], "attr": {"T": {"type": "DT_FLOAT"}, "Tshape": {"type": "DT_INT32"}}}, {"name": "PartitionedCall/jax2tf_main_/vmap/vmap/pjit_fn_/Mul_1", "op": "Mul", "input": ["PartitionedCall/jax2tf_main_/vmap/vmap/pjit_fn_/BroadcastTo_1", "PartitionedCall/jax2tf_main_/vmap/vmap/pjit_fn_/Reshape"], "attr": {"T": {"type": "DT_FLOAT"}}}, {"name": "PartitionedCall/jax2tf_main_/vmap/vmap/pjit_fn_/AddV2_2", "op": "AddV2", "input": ["PartitionedCall/jax2tf_main_/vmap/vmap/pjit_fn_/Reshape_2", "PartitionedCall/jax2tf_main_/vmap/vmap/pjit_fn_/Mul_1"], "attr": {"T": {"type": "DT_FLOAT"}}}, {"name": "PartitionedCall/jax2tf_main_/vmap/vmap/pjit_fn_/Reshape_6", "op": "Reshape", "input": ["PartitionedCall/jax2tf_main_/vmap/vmap/pjit_fn_/AddV2_2", "PartitionedCall/jax2tf_main_/vmap/vmap/pjit_fn_/Reshape_6/shape"], "attr": {"T": {"type": "DT_FLOAT"}, "Tshape": {"type": "DT_INT32"}}}, {"name": "PartitionedCall/jax2tf_main_/vmap/vmap/pjit_fn_/AddV2_3", "op": "AddV2", "input": ["PartitionedCall/jax2tf_main_/vmap/vmap/pjit_fn_/Reshape_6", "PartitionedCall/jax2tf_main_/vmap/vmap/pjit_fn_/Reshape_5"], "attr": {"T": {"type": "DT_FLOAT"}}}, {"name": "PartitionedCall/jax2tf_main_/vmap/vmap/pjit_norm_/ArithmeticOptimizer/ReplaceMulWithSquare_Mul_2", "op": "Square", "input": ["PartitionedCall/jax2tf_main_/vmap/vmap/pjit_fn_/AddV2_3"], "attr": {"T": {"type": "DT_FLOAT"}}}, {"name": "PartitionedCall/jax2tf_main_/vmap/vmap/pjit_norm_/Sum_2", "op": "Sum", "input": ["PartitionedCall/jax2tf_main_/vmap/vmap/pjit_norm_/ArithmeticOptimizer/ReplaceMulWithSquare_Mul_2", "PartitionedCall/jax2tf_main_/vmap/vmap/pjit_norm_/Sum_2/reduction_indices"], "attr": {"T": {"type": "DT_FLOAT"}, "Tidx": {"type": "DT_INT32"}, "keep_dims": {"b": false}}}, {"name": "PartitionedCall/jax2tf_main_/vmap/vmap/pjit_norm_/Sqrt_2", "op": "Sqrt", "input": ["PartitionedCall/jax2tf_main_/vmap/vmap/pjit_norm_/Sum_2"], "attr": {"T": {"type": "DT_FLOAT"}}}, {"name": "PartitionedCall/jax2tf_main_/vmap/vmap/pjit_true_divide_/Reshape", "op": "Reshape", "input": ["PartitionedCall/jax2tf_main_/vmap/vmap/pjit_norm_/Sqrt_2", "PartitionedCall/jax2tf_main_/vmap/vmap/pjit_true_divide_/Reshape/shape"], "attr": {"T": {"type": "DT_FLOAT"}, "Tshape": {"type": "DT_INT32"}}}, {"name": "PartitionedCall/jax2tf_main_/vmap/vmap/pjit_true_divide_/truediv_5", "op": "RealDiv", "input": ["PartitionedCall/jax2tf_main_/vmap/vmap/pjit_fn_/AddV2_3", "PartitionedCall/jax2tf_main_/vmap/vmap/pjit_true_divide_/Reshape"], "attr": {"T": {"type": "DT_FLOAT"}}}, {"name": "ConstantFolding/PartitionedCall/jax2tf_main_/vmap/vmap/pjit_fn_/AddV2_4-broadcastto_shape-0", "op": "Const", "input": ["^PartitionedCall/jax2tf_main_/vmap/vmap/pjit_true_divide_/truediv_5"], "attr": {"value": {"tensor": {"dtype": "DT_INT32", "tensorShape": {"dim": [{"size": "3"}]}}}, "dtype": {"type": "DT_INT32"}}}, {"name": "PartitionedCall/jax2tf_main_/vmap/vmap/pjit_fn_/AddV2_4", "op": "BroadcastTo", "input": ["PartitionedCall/jax2tf_main_/vmap/vmap/pjit_fn_/Reshape_8", "ConstantFolding/PartitionedCall/jax2tf_main_/vmap/vmap/pjit_fn_/AddV2_4-broadcastto_shape-0"], "attr": {"T": {"type": "DT_FLOAT"}, "Tidx": {"type": "DT_INT32"}}}, {"name": "PartitionedCall/jax2tf_main_/vmap/vmap/pjit_remainder_/Sign", "op": "Sign", "input": ["PartitionedCall/jax2tf_main_/vmap/vmap/pjit_fn_/AddV2_4"], "attr": {"T": {"type": "DT_FLOAT"}}}, {"name": "PartitionedCall/jax2tf_main_/vmap/vmap/pjit_remainder_/Abs", "op": "Abs", "input": ["PartitionedCall/jax2tf_main_/vmap/vmap/pjit_fn_/AddV2_4"], "attr": {"T": {"type": "DT_FLOAT"}}}, {"name": "PartitionedCall/jax2tf_main_/vmap/vmap/pjit_remainder_/FloorMod", "op": "FloorMod", "input": ["PartitionedCall/jax2tf_main_/vmap/vmap/pjit_remainder_/Abs", "PartitionedCall/jax2tf_main_/vmap/vmap/pjit_remainder_/Abs_1"], "attr": {"T": {"type": "DT_FLOAT"}}}, {"name": "PartitionedCall/jax2tf_main_/vmap/vmap/pjit_remainder_/mul", "op": "Mul", "input": ["PartitionedCall/jax2tf_main_/vmap/vmap/pjit_remainder_/Sign", "PartitionedCall/jax2tf_main_/vmap/vmap/pjit_remainder_/FloorMod"], "attr": {"T": {"type": "DT_FLOAT"}}}, {"name": "PartitionedCall/jax2tf_main_/vmap/vmap/pjit_remainder_/Less", "op": "Less", "input": ["PartitionedCall/jax2tf_main_/vmap/vmap/pjit_remainder_/mul", "PartitionedCall/jax2tf_main_/vmap/vmap/Const_13"], "attr": {"T": {"type": "DT_FLOAT"}}}, {"name": "PartitionedCall/jax2tf_main_/vmap/vmap/pjit_remainder_/NotEqual", "op": "NotEqual", "input": ["PartitionedCall/jax2tf_main_/vmap/vmap/pjit_remainder_/mul", "PartitionedCall/jax2tf_main_/vmap/vmap/Const_12"], "attr": {"T": {"type": "DT_FLOAT"}, "incompatible_shape_error": {"b": true}}}, {"name": "PartitionedCall/jax2tf_main_/vmap/vmap/pjit_remainder_/AddV2", "op": "AddV2", "input": ["PartitionedCall/jax2tf_main_/vmap/vmap/pjit_remainder_/mul", "PartitionedCall/Const_18"], "attr": {"T": {"type": "DT_FLOAT"}}}, {"name": "PartitionedCall/jax2tf_main_/vmap/vmap/pjit_remainder_/NotEqual_1", "op": "NotEqual", "input": ["PartitionedCall/jax2tf_main_/vmap/vmap/pjit_remainder_/Less", "PartitionedCall/jax2tf_main_/vmap/vmap/pjit_remainder_/Less_1"], "attr": {"T": {"type": "DT_BOOL"}, "incompatible_shape_error": {"b": true}}}, {"name": "PartitionedCall/jax2tf_main_/vmap/vmap/pjit_remainder_/LogicalAnd", "op": "LogicalAnd", "input": ["PartitionedCall/jax2tf_main_/vmap/vmap/pjit_remainder_/NotEqual_1", "PartitionedCall/jax2tf_main_/vmap/vmap/pjit_remainder_/NotEqual"]}, {"name": "PartitionedCall/jax2tf_main_/vmap/vmap/pjit_remainder_/SelectV2", "op": "SelectV2", "input": ["PartitionedCall/jax2tf_main_/vmap/vmap/pjit_remainder_/LogicalAnd", "PartitionedCall/jax2tf_main_/vmap/vmap/pjit_remainder_/AddV2", "PartitionedCall/jax2tf_main_/vmap/vmap/pjit_remainder_/mul"], "attr": {"T": {"type": "DT_FLOAT"}}}, {"name": "PartitionedCall/jax2tf_main_/vmap/vmap/pjit__lambda__/Sub_2", "op": "SquaredDifference", "input": ["PartitionedCall/jax2tf_main_/vmap/vmap/pjit_remainder_/SelectV2", "PartitionedCall/Const_19"], "attr": {"T": {"type": "DT_FLOAT"}}}, {"name": "PartitionedCall/jax2tf_main_/vmap/vmap/pjit_norm_/Sum_3", "op": "Sum", "input": ["PartitionedCall/jax2tf_main_/vmap/vmap/pjit__lambda__/Sub_2", "PartitionedCall/jax2tf_main_/vmap/vmap/pjit_norm_/Sum_3/reduction_indices"], "attr": {"T": {"type": "DT_FLOAT"}, "Tidx": {"type": "DT_INT32"}, "keep_dims": {"b": false}}}, {"name": "PartitionedCall/jax2tf_main_/vmap/vmap/pjit_norm_/Sqrt_3", "op": "Sqrt", "input": ["PartitionedCall/jax2tf_main_/vmap/vmap/pjit_norm_/Sum_3"], "attr": {"T": {"type": "DT_FLOAT"}}}, {"name": "PartitionedCall/jax2tf_main_/vmap/vmap/pjit__lambda__/Sub_3", "op": "Sub", "input": ["PartitionedCall/jax2tf_main_/vmap/vmap/pjit_norm_/Sqrt_3", "PartitionedCall/Const_20"], "attr": {"T": {"type": "DT_FLOAT"}}}, {"name": "PartitionedCall/jax2tf_main_/vmap/vmap/pjit_fn_/Reshape_9", "op": "Reshape", "input": ["PartitionedCall/jax2tf_main_/vmap/vmap/pjit__lambda__/Sub_3", "PartitionedCall/jax2tf_main_/vmap/vmap/pjit_fn_/Reshape_9/shape"], "attr": {"T": {"type": "DT_FLOAT"}, "Tshape": {"type": "DT_INT32"}}}, {"name": "PartitionedCall/jax2tf_main_/vmap/vmap/pjit_fn_/Mul_4", "op": "Mul", "input": ["PartitionedCall/jax2tf_main_/vmap/vmap/pjit_true_divide_/truediv_5", "PartitionedCall/jax2tf_main_/vmap/vmap/pjit_fn_/Reshape_9"], "attr": {"T": {"type": "DT_FLOAT"}}}, {"name": "PartitionedCall/jax2tf_main_/vmap/vmap/pjit_fn_/AddV2_6", "op": "AddV2", "input": ["PartitionedCall/jax2tf_main_/vmap/vmap/pjit_fn_/Reshape_11", "PartitionedCall/jax2tf_main_/vmap/vmap/pjit_fn_/Mul_4"], "attr": {"T": {"type": "DT_FLOAT"}}}, {"name": "PartitionedCall/jax2tf_main_/vmap/vmap/pjit_remainder_/Sign_1", "op": "Sign", "input": ["PartitionedCall/jax2tf_main_/vmap/vmap/pjit_fn_/AddV2_6"], "attr": {"T": {"type": "DT_FLOAT"}}}, {"name": "PartitionedCall/jax2tf_main_/vmap/vmap/pjit_remainder_/Abs_2", "op": "Abs", "input": ["PartitionedCall/jax2tf_main_/vmap/vmap/pjit_fn_/AddV2_6"], "attr": {"T": {"type": "DT_FLOAT"}}}, {"name": "PartitionedCall/jax2tf_main_/vmap/vmap/pjit_remainder_/FloorMod_1", "op": "FloorMod", "input": ["PartitionedCall/jax2tf_main_/vmap/vmap/pjit_remainder_/Abs_2", "PartitionedCall/jax2tf_main_/vmap/vmap/pjit_remainder_/Abs_3"], "attr": {"T": {"type": "DT_FLOAT"}}}, {"name": "PartitionedCall/jax2tf_main_/vmap/vmap/pjit_remainder_/mul_1", "op": "Mul", "input": ["PartitionedCall/jax2tf_main_/vmap/vmap/pjit_remainder_/Sign_1", "PartitionedCall/jax2tf_main_/vmap/vmap/pjit_remainder_/FloorMod_1"], "attr": {"T": {"type": "DT_FLOAT"}}}, {"name": "PartitionedCall/jax2tf_main_/vmap/vmap/pjit_remainder_/Less_2", "op": "Less", "input": ["PartitionedCall/jax2tf_main_/vmap/vmap/pjit_remainder_/mul_1", "PartitionedCall/jax2tf_main_/vmap/vmap/Const_16"], "attr": {"T": {"type": "DT_FLOAT"}}}, {"name": "PartitionedCall/jax2tf_main_/vmap/vmap/pjit_remainder_/NotEqual_2", "op": "NotEqual", "input": ["PartitionedCall/jax2tf_main_/vmap/vmap/pjit_remainder_/mul_1", "PartitionedCall/jax2tf_main_/vmap/vmap/Const_15"], "attr": {"T": {"type": "DT_FLOAT"}, "incompatible_shape_error": {"b": true}}}, {"name": "PartitionedCall/jax2tf_main_/vmap/vmap/pjit_remainder_/AddV2_1", "op": "AddV2", "input": ["PartitionedCall/jax2tf_main_/vmap/vmap/pjit_remainder_/mul_1", "PartitionedCall/Const_22"], "attr": {"T": {"type": "DT_FLOAT"}}}, {"name": "PartitionedCall/jax2tf_main_/vmap/vmap/pjit_remainder_/NotEqual_3", "op": "NotEqual", "input": ["PartitionedCall/jax2tf_main_/vmap/vmap/pjit_remainder_/Less_2", "PartitionedCall/jax2tf_main_/vmap/vmap/pjit_remainder_/Less_3"], "attr": {"T": {"type": "DT_BOOL"}, "incompatible_shape_error": {"b": true}}}, {"name": "PartitionedCall/jax2tf_main_/vmap/vmap/pjit_remainder_/LogicalAnd_1", "op": "LogicalAnd", "input": ["PartitionedCall/jax2tf_main_/vmap/vmap/pjit_remainder_/NotEqual_3", "PartitionedCall/jax2tf_main_/vmap/vmap/pjit_remainder_/NotEqual_2"]}, {"name": "PartitionedCall/jax2tf_main_/vmap/vmap/pjit_remainder_/SelectV2_1", "op": "SelectV2", "input": ["PartitionedCall/jax2tf_main_/vmap/vmap/pjit_remainder_/LogicalAnd_1", "PartitionedCall/jax2tf_main_/vmap/vmap/pjit_remainder_/AddV2_1", "PartitionedCall/jax2tf_main_/vmap/vmap/pjit_remainder_/mul_1"], "attr": {"T": {"type": "DT_FLOAT"}}}, {"name": "PartitionedCall/jax2tf_main_/vmap/vmap/pjit__lambda__/Sub_4", "op": "SquaredDifference", "input": ["PartitionedCall/jax2tf_main_/vmap/vmap/pjit_remainder_/SelectV2_1", "PartitionedCall/Const_23"], "attr": {"T": {"type": "DT_FLOAT"}}}, {"name": "PartitionedCall/jax2tf_main_/vmap/vmap/pjit_norm_/Sum_4", "op": "Sum", "input": ["PartitionedCall/jax2tf_main_/vmap/vmap/pjit__lambda__/Sub_4", "PartitionedCall/jax2tf_main_/vmap/vmap/pjit_norm_/Sum_4/reduction_indices"], "attr": {"T": {"type": "DT_FLOAT"}, "Tidx": {"type": "DT_INT32"}, "keep_dims": {"b": false}}}, {"name": "PartitionedCall/jax2tf_main_/vmap/vmap/pjit_norm_/Sqrt_4", "op": "Sqrt", "input": ["PartitionedCall/jax2tf_main_/vmap/vmap/pjit_norm_/Sum_4"], "attr": {"T": {"type": "DT_FLOAT"}}}, {"name": "PartitionedCall/jax2tf_main_/vmap/vmap/pjit__lambda__/Sub_5", "op": "Sub", "input": ["PartitionedCall/jax2tf_main_/vmap/vmap/pjit_norm_/Sqrt_4", "PartitionedCall/Const_24"], "attr": {"T": {"type": "DT_FLOAT"}}}, {"name": "PartitionedCall/jax2tf_main_/vmap/vmap/pjit_fn_/AddV2_7", "op": "AddV2", "input": ["PartitionedCall/jax2tf_main_/vmap/vmap/pjit__lambda__/Sub_3", "PartitionedCall/jax2tf_main_/vmap/vmap/pjit__lambda__/Sub_5"], "attr": {"T": {"type": "DT_FLOAT"}}}, {"name": "PartitionedCall/jax2tf_main_/vmap/vmap/pjit_fn_/Reshape_12", "op": "Reshape", "input": ["PartitionedCall/jax2tf_main_/vmap/vmap/pjit_fn_/AddV2_7", "PartitionedCall/jax2tf_main_/vmap/vmap/pjit_fn_/Reshape_12/shape"], "attr": {"T": {"type": "DT_FLOAT"}, "Tshape": {"type": "DT_INT32"}}}, {"name": "PartitionedCall/jax2tf_main_/vmap/vmap/pjit_fn_/Mul_5", "op": "Mul", "input": ["PartitionedCall/jax2tf_main_/vmap/vmap/pjit_true_divide_/truediv_5", "PartitionedCall/jax2tf_main_/vmap/vmap/pjit_fn_/Reshape_12"], "attr": {"T": {"type": "DT_FLOAT"}}}, {"name": "PartitionedCall/jax2tf_main_/vmap/vmap/pjit_fn_/AddV2_8", "op": "AddV2", "input": ["PartitionedCall/jax2tf_main_/vmap/vmap/pjit_fn_/Reshape_14", "PartitionedCall/jax2tf_main_/vmap/vmap/pjit_fn_/Mul_5"], "attr": {"T": {"type": "DT_FLOAT"}}}, {"name": "PartitionedCall/jax2tf_main_/vmap/vmap/pjit_remainder_/Sign_2", "op": "Sign", "input": ["PartitionedCall/jax2tf_main_/vmap/vmap/pjit_fn_/AddV2_8"], "attr": {"T": {"type": "DT_FLOAT"}}}, {"name": "PartitionedCall/jax2tf_main_/vmap/vmap/pjit_remainder_/Abs_4", "op": "Abs", "input": ["PartitionedCall/jax2tf_main_/vmap/vmap/pjit_fn_/AddV2_8"], "attr": {"T": {"type": "DT_FLOAT"}}}, {"name": "PartitionedCall/jax2tf_main_/vmap/vmap/pjit_remainder_/FloorMod_2", "op": "FloorMod", "input": ["PartitionedCall/jax2tf_main_/vmap/vmap/pjit_remainder_/Abs_4", "PartitionedCall/jax2tf_main_/vmap/vmap/pjit_remainder_/Abs_5"], "attr": {"T": {"type": "DT_FLOAT"}}}, {"name": "PartitionedCall/jax2tf_main_/vmap/vmap/pjit_remainder_/mul_2", "op": "Mul", "input": ["PartitionedCall/jax2tf_main_/vmap/vmap/pjit_remainder_/Sign_2", "PartitionedCall/jax2tf_main_/vmap/vmap/pjit_remainder_/FloorMod_2"], "attr": {"T": {"type": "DT_FLOAT"}}}, {"name": "PartitionedCall/jax2tf_main_/vmap/vmap/pjit_remainder_/Less_4", "op": "Less", "input": ["PartitionedCall/jax2tf_main_/vmap/vmap/pjit_remainder_/mul_2", "PartitionedCall/jax2tf_main_/vmap/vmap/Const_19"], "attr": {"T": {"type": "DT_FLOAT"}}}, {"name": "PartitionedCall/jax2tf_main_/vmap/vmap/pjit_remainder_/NotEqual_4", "op": "NotEqual", "input": ["PartitionedCall/jax2tf_main_/vmap/vmap/pjit_remainder_/mul_2", "PartitionedCall/jax2tf_main_/vmap/vmap/Const_18"], "attr": {"T": {"type": "DT_FLOAT"}, "incompatible_shape_error": {"b": true}}}, {"name": "PartitionedCall/jax2tf_main_/vmap/vmap/pjit_remainder_/AddV2_2", "op": "AddV2", "input": ["PartitionedCall/jax2tf_main_/vmap/vmap/pjit_remainder_/mul_2", "PartitionedCall/Const_25"], "attr": {"T": {"type": "DT_FLOAT"}}}, {"name": "PartitionedCall/jax2tf_main_/vmap/vmap/pjit_remainder_/NotEqual_5", "op": "NotEqual", "input": ["PartitionedCall/jax2tf_main_/vmap/vmap/pjit_remainder_/Less_4", "PartitionedCall/jax2tf_main_/vmap/vmap/pjit_remainder_/Less_5"], "attr": {"T": {"type": "DT_BOOL"}, "incompatible_shape_error": {"b": true}}}, {"name": "PartitionedCall/jax2tf_main_/vmap/vmap/pjit_remainder_/LogicalAnd_2", "op": "LogicalAnd", "input": ["PartitionedCall/jax2tf_main_/vmap/vmap/pjit_remainder_/NotEqual_5", "PartitionedCall/jax2tf_main_/vmap/vmap/pjit_remainder_/NotEqual_4"]}, {"name": "PartitionedCall/jax2tf_main_/vmap/vmap/pjit_remainder_/SelectV2_2", "op": "SelectV2", "input": ["PartitionedCall/jax2tf_main_/vmap/vmap/pjit_remainder_/LogicalAnd_2", "PartitionedCall/jax2tf_main_/vmap/vmap/pjit_remainder_/AddV2_2", "PartitionedCall/jax2tf_main_/vmap/vmap/pjit_remainder_/mul_2"], "attr": {"T": {"type": "DT_FLOAT"}}}, {"name": "PartitionedCall/jax2tf_main_/vmap/vmap/pjit__lambda__/Sub_6", "op": "SquaredDifference", "input": ["PartitionedCall/jax2tf_main_/vmap/vmap/pjit_remainder_/SelectV2_2", "PartitionedCall/Const_26"], "attr": {"T": {"type": "DT_FLOAT"}}}, {"name": "PartitionedCall/jax2tf_main_/vmap/vmap/pjit_norm_/Sum_5", "op": "Sum", "input": ["PartitionedCall/jax2tf_main_/vmap/vmap/pjit__lambda__/Sub_6", "PartitionedCall/jax2tf_main_/vmap/vmap/pjit_norm_/Sum_5/reduction_indices"], "attr": {"Tidx": {"type": "DT_INT32"}, "T": {"type": "DT_FLOAT"}, "keep_dims": {"b": false}}}, {"name": "PartitionedCall/jax2tf_main_/vmap/vmap/pjit_norm_/Sqrt_5", "op": "Sqrt", "input": ["PartitionedCall/jax2tf_main_/vmap/vmap/pjit_norm_/Sum_5"], "attr": {"T": {"type": "DT_FLOAT"}}}, {"name": "PartitionedCall/jax2tf_main_/vmap/vmap/pjit__lambda__/Sub_7", "op": "Sub", "input": ["PartitionedCall/jax2tf_main_/vmap/vmap/pjit_norm_/Sqrt_5", "PartitionedCall/Const_27"], "attr": {"T": {"type": "DT_FLOAT"}}}, {"name": "PartitionedCall/jax2tf_main_/vmap/vmap/pjit_fn_/AddV2_9", "op": "AddV2", "input": ["PartitionedCall/jax2tf_main_/vmap/vmap/pjit_fn_/AddV2_7", "PartitionedCall/jax2tf_main_/vmap/vmap/pjit__lambda__/Sub_7"], "attr": {"T": {"type": "DT_FLOAT"}}}, {"name": "PartitionedCall/jax2tf_main_/vmap/vmap/pjit_fn_/Reshape_15", "op": "Reshape", "input": ["PartitionedCall/jax2tf_main_/vmap/vmap/pjit_fn_/AddV2_9", "PartitionedCall/jax2tf_main_/vmap/vmap/pjit_fn_/Reshape_15/shape"], "attr": {"T": {"type": "DT_FLOAT"}, "Tshape": {"type": "DT_INT32"}}}, {"name": "PartitionedCall/jax2tf_main_/vmap/vmap/pjit_fn_/Mul_6", "op": "Mul", "input": ["PartitionedCall/jax2tf_main_/vmap/vmap/pjit_true_divide_/truediv_5", "PartitionedCall/jax2tf_main_/vmap/vmap/pjit_fn_/Reshape_15"], "attr": {"T": {"type": "DT_FLOAT"}}}, {"name": "PartitionedCall/jax2tf_main_/vmap/vmap/pjit_fn_/AddV2_10", "op": "AddV2", "input": ["PartitionedCall/jax2tf_main_/vmap/vmap/pjit_fn_/Reshape_17", "PartitionedCall/jax2tf_main_/vmap/vmap/pjit_fn_/Mul_6"], "attr": {"T": {"type": "DT_FLOAT"}}}, {"name": "PartitionedCall/jax2tf_main_/vmap/vmap/pjit_remainder_/Sign_3", "op": "Sign", "input": ["PartitionedCall/jax2tf_main_/vmap/vmap/pjit_fn_/AddV2_10"], "attr": {"T": {"type": "DT_FLOAT"}}}, {"name": "PartitionedCall/jax2tf_main_/vmap/vmap/pjit_remainder_/Abs_6", "op": "Abs", "input": ["PartitionedCall/jax2tf_main_/vmap/vmap/pjit_fn_/AddV2_10"], "attr": {"T": {"type": "DT_FLOAT"}}}, {"name": "PartitionedCall/jax2tf_main_/vmap/vmap/pjit_remainder_/FloorMod_3", "op": "FloorMod", "input": ["PartitionedCall/jax2tf_main_/vmap/vmap/pjit_remainder_/Abs_6", "PartitionedCall/jax2tf_main_/vmap/vmap/pjit_remainder_/Abs_7"], "attr": {"T": {"type": "DT_FLOAT"}}}, {"name": "PartitionedCall/jax2tf_main_/vmap/vmap/pjit_remainder_/mul_3", "op": "Mul", "input": ["PartitionedCall/jax2tf_main_/vmap/vmap/pjit_remainder_/Sign_3", "PartitionedCall/jax2tf_main_/vmap/vmap/pjit_remainder_/FloorMod_3"], "attr": {"T": {"type": "DT_FLOAT"}}}, {"name": "PartitionedCall/jax2tf_main_/vmap/vmap/pjit_remainder_/Less_6", "op": "Less", "input": ["PartitionedCall/jax2tf_main_/vmap/vmap/pjit_remainder_/mul_3", "PartitionedCall/jax2tf_main_/vmap/vmap/Const_22"], "attr": {"T": {"type": "DT_FLOAT"}}}, {"name": "PartitionedCall/jax2tf_main_/vmap/vmap/pjit_remainder_/NotEqual_6", "op": "NotEqual", "input": ["PartitionedCall/jax2tf_main_/vmap/vmap/pjit_remainder_/mul_3", "PartitionedCall/jax2tf_main_/vmap/vmap/Const_21"], "attr": {"T": {"type": "DT_FLOAT"}, "incompatible_shape_error": {"b": true}}}, {"name": "PartitionedCall/jax2tf_main_/vmap/vmap/pjit_remainder_/AddV2_3", "op": "AddV2", "input": ["PartitionedCall/jax2tf_main_/vmap/vmap/pjit_remainder_/mul_3", "PartitionedCall/Const_28"], "attr": {"T": {"type": "DT_FLOAT"}}}, {"name": "PartitionedCall/jax2tf_main_/vmap/vmap/pjit_remainder_/NotEqual_7", "op": "NotEqual", "input": ["PartitionedCall/jax2tf_main_/vmap/vmap/pjit_remainder_/Less_6", "PartitionedCall/jax2tf_main_/vmap/vmap/pjit_remainder_/Less_7"], "attr": {"T": {"type": "DT_BOOL"}, "incompatible_shape_error": {"b": true}}}, {"name": "PartitionedCall/jax2tf_main_/vmap/vmap/pjit_remainder_/LogicalAnd_3", "op": "LogicalAnd", "input": ["PartitionedCall/jax2tf_main_/vmap/vmap/pjit_remainder_/NotEqual_7", "PartitionedCall/jax2tf_main_/vmap/vmap/pjit_remainder_/NotEqual_6"]}, {"name": "PartitionedCall/jax2tf_main_/vmap/vmap/pjit_remainder_/SelectV2_3", "op": "SelectV2", "input": ["PartitionedCall/jax2tf_main_/vmap/vmap/pjit_remainder_/LogicalAnd_3", "PartitionedCall/jax2tf_main_/vmap/vmap/pjit_remainder_/AddV2_3", "PartitionedCall/jax2tf_main_/vmap/vmap/pjit_remainder_/mul_3"], "attr": {"T": {"type": "DT_FLOAT"}}}, {"name": "PartitionedCall/jax2tf_main_/vmap/vmap/pjit__lambda__/Sub_8", "op": "SquaredDifference", "input": ["PartitionedCall/jax2tf_main_/vmap/vmap/pjit_remainder_/SelectV2_3", "PartitionedCall/Const_29"], "attr": {"T": {"type": "DT_FLOAT"}}}, {"name": "PartitionedCall/jax2tf_main_/vmap/vmap/pjit_norm_/Sum_6", "op": "Sum", "input": ["PartitionedCall/jax2tf_main_/vmap/vmap/pjit__lambda__/Sub_8", "PartitionedCall/jax2tf_main_/vmap/vmap/pjit_norm_/Sum_6/reduction_indices"], "attr": {"T": {"type": "DT_FLOAT"}, "Tidx": {"type": "DT_INT32"}, "keep_dims": {"b": false}}}, {"name": "PartitionedCall/jax2tf_main_/vmap/vmap/pjit_norm_/Sqrt_6", "op": "Sqrt", "input": ["PartitionedCall/jax2tf_main_/vmap/vmap/pjit_norm_/Sum_6"], "attr": {"T": {"type": "DT_FLOAT"}}}, {"name": "PartitionedCall/jax2tf_main_/vmap/vmap/pjit__lambda__/Sub_9", "op": "Sub", "input": ["PartitionedCall/jax2tf_main_/vmap/vmap/pjit_norm_/Sqrt_6", "PartitionedCall/Const_30"], "attr": {"T": {"type": "DT_FLOAT"}}}, {"name": "PartitionedCall/jax2tf_main_/vmap/vmap/pjit_fn_/AddV2_11", "op": "AddV2", "input": ["PartitionedCall/jax2tf_main_/vmap/vmap/pjit_fn_/AddV2_9", "PartitionedCall/jax2tf_main_/vmap/vmap/pjit__lambda__/Sub_9"], "attr": {"T": {"type": "DT_FLOAT"}}}, {"name": "PartitionedCall/jax2tf_main_/vmap/vmap/pjit_fn_/Reshape_18", "op": "Reshape", "input": ["PartitionedCall/jax2tf_main_/vmap/vmap/pjit_fn_/AddV2_11", "PartitionedCall/jax2tf_main_/vmap/vmap/pjit_fn_/Reshape_18/shape"], "attr": {"T": {"type": "DT_FLOAT"}, "Tshape": {"type": "DT_INT32"}}}, {"name": "PartitionedCall/jax2tf_main_/vmap/vmap/pjit_fn_/Mul_7", "op": "Mul", "input": ["PartitionedCall/jax2tf_main_/vmap/vmap/pjit_true_divide_/truediv_5", "PartitionedCall/jax2tf_main_/vmap/vmap/pjit_fn_/Reshape_18"], "attr": {"T": {"type": "DT_FLOAT"}}}, {"name": "PartitionedCall/jax2tf_main_/vmap/vmap/pjit_fn_/AddV2_12", "op": "AddV2", "input": ["PartitionedCall/jax2tf_main_/vmap/vmap/pjit_fn_/Reshape_20", "PartitionedCall/jax2tf_main_/vmap/vmap/pjit_fn_/Mul_7"], "attr": {"T": {"type": "DT_FLOAT"}}}, {"name": "PartitionedCall/jax2tf_main_/vmap/vmap/pjit_remainder_/Sign_4", "op": "Sign", "input": ["PartitionedCall/jax2tf_main_/vmap/vmap/pjit_fn_/AddV2_12"], "attr": {"T": {"type": "DT_FLOAT"}}}, {"name": "PartitionedCall/jax2tf_main_/vmap/vmap/pjit_remainder_/Abs_8", "op": "Abs", "input": ["PartitionedCall/jax2tf_main_/vmap/vmap/pjit_fn_/AddV2_12"], "attr": {"T": {"type": "DT_FLOAT"}}}, {"name": "PartitionedCall/jax2tf_main_/vmap/vmap/pjit_remainder_/FloorMod_4", "op": "FloorMod", "input": ["PartitionedCall/jax2tf_main_/vmap/vmap/pjit_remainder_/Abs_8", "PartitionedCall/jax2tf_main_/vmap/vmap/pjit_remainder_/Abs_9"], "attr": {"T": {"type": "DT_FLOAT"}}}, {"name": "PartitionedCall/jax2tf_main_/vmap/vmap/pjit_remainder_/mul_4", "op": "Mul", "input": ["PartitionedCall/jax2tf_main_/vmap/vmap/pjit_remainder_/Sign_4", "PartitionedCall/jax2tf_main_/vmap/vmap/pjit_remainder_/FloorMod_4"], "attr": {"T": {"type": "DT_FLOAT"}}}, {"name": "PartitionedCall/jax2tf_main_/vmap/vmap/pjit_remainder_/Less_8", "op": "Less", "input": ["PartitionedCall/jax2tf_main_/vmap/vmap/pjit_remainder_/mul_4", "PartitionedCall/jax2tf_main_/vmap/vmap/Const_25"], "attr": {"T": {"type": "DT_FLOAT"}}}, {"name": "PartitionedCall/jax2tf_main_/vmap/vmap/pjit_remainder_/NotEqual_8", "op": "NotEqual", "input": ["PartitionedCall/jax2tf_main_/vmap/vmap/pjit_remainder_/mul_4", "PartitionedCall/jax2tf_main_/vmap/vmap/Const_24"], "attr": {"T": {"type": "DT_FLOAT"}, "incompatible_shape_error": {"b": true}}}, {"name": "PartitionedCall/jax2tf_main_/vmap/vmap/pjit_remainder_/AddV2_4", "op": "AddV2", "input": ["PartitionedCall/jax2tf_main_/vmap/vmap/pjit_remainder_/mul_4", "PartitionedCall/Const_31"], "attr": {"T": {"type": "DT_FLOAT"}}}, {"name": "PartitionedCall/jax2tf_main_/vmap/vmap/pjit_remainder_/NotEqual_9", "op": "NotEqual", "input": ["PartitionedCall/jax2tf_main_/vmap/vmap/pjit_remainder_/Less_8", "PartitionedCall/jax2tf_main_/vmap/vmap/pjit_remainder_/Less_9"], "attr": {"T": {"type": "DT_BOOL"}, "incompatible_shape_error": {"b": true}}}, {"name": "PartitionedCall/jax2tf_main_/vmap/vmap/pjit_remainder_/LogicalAnd_4", "op": "LogicalAnd", "input": ["PartitionedCall/jax2tf_main_/vmap/vmap/pjit_remainder_/NotEqual_9", "PartitionedCall/jax2tf_main_/vmap/vmap/pjit_remainder_/NotEqual_8"]}, {"name": "PartitionedCall/jax2tf_main_/vmap/vmap/pjit_remainder_/SelectV2_4", "op": "SelectV2", "input": ["PartitionedCall/jax2tf_main_/vmap/vmap/pjit_remainder_/LogicalAnd_4", "PartitionedCall/jax2tf_main_/vmap/vmap/pjit_remainder_/AddV2_4", "PartitionedCall/jax2tf_main_/vmap/vmap/pjit_remainder_/mul_4"], "attr": {"T": {"type": "DT_FLOAT"}}}, {"name": "PartitionedCall/jax2tf_main_/vmap/vmap/pjit__lambda__/Sub_10", "op": "SquaredDifference", "input": ["PartitionedCall/jax2tf_main_/vmap/vmap/pjit_remainder_/SelectV2_4", "PartitionedCall/Const_32"], "attr": {"T": {"type": "DT_FLOAT"}}}, {"name": "PartitionedCall/jax2tf_main_/vmap/vmap/pjit_norm_/Sum_7", "op": "Sum", "input": ["PartitionedCall/jax2tf_main_/vmap/vmap/pjit__lambda__/Sub_10", "PartitionedCall/jax2tf_main_/vmap/vmap/pjit_norm_/Sum_7/reduction_indices"], "attr": {"Tidx": {"type": "DT_INT32"}, "T": {"type": "DT_FLOAT"}, "keep_dims": {"b": false}}}, {"name": "PartitionedCall/jax2tf_main_/vmap/vmap/pjit_norm_/Sqrt_7", "op": "Sqrt", "input": ["PartitionedCall/jax2tf_main_/vmap/vmap/pjit_norm_/Sum_7"], "attr": {"T": {"type": "DT_FLOAT"}}}, {"name": "PartitionedCall/jax2tf_main_/vmap/vmap/pjit__lambda__/Sub_11", "op": "Sub", "input": ["PartitionedCall/jax2tf_main_/vmap/vmap/pjit_norm_/Sqrt_7", "PartitionedCall/Const_33"], "attr": {"T": {"type": "DT_FLOAT"}}}, {"name": "PartitionedCall/jax2tf_main_/vmap/vmap/pjit_fn_/AddV2_13", "op": "AddV2", "input": ["PartitionedCall/jax2tf_main_/vmap/vmap/pjit_fn_/AddV2_11", "PartitionedCall/jax2tf_main_/vmap/vmap/pjit__lambda__/Sub_11"], "attr": {"T": {"type": "DT_FLOAT"}}}, {"name": "PartitionedCall/jax2tf_main_/vmap/vmap/pjit_fn_/Reshape_21", "op": "Reshape", "input": ["PartitionedCall/jax2tf_main_/vmap/vmap/pjit_fn_/AddV2_13", "PartitionedCall/jax2tf_main_/vmap/vmap/pjit_fn_/Reshape_21/shape"], "attr": {"T": {"type": "DT_FLOAT"}, "Tshape": {"type": "DT_INT32"}}}, {"name": "PartitionedCall/jax2tf_main_/vmap/vmap/pjit_fn_/Mul_8", "op": "Mul", "input": ["PartitionedCall/jax2tf_main_/vmap/vmap/pjit_true_divide_/truediv_5", "PartitionedCall/jax2tf_main_/vmap/vmap/pjit_fn_/Reshape_21"], "attr": {"T": {"type": "DT_FLOAT"}}}, {"name": "PartitionedCall/jax2tf_main_/vmap/vmap/pjit_fn_/AddV2_14", "op": "AddV2", "input": ["PartitionedCall/jax2tf_main_/vmap/vmap/pjit_fn_/Reshape_23", "PartitionedCall/jax2tf_main_/vmap/vmap/pjit_fn_/Mul_8"], "attr": {"T": {"type": "DT_FLOAT"}}}, {"name": "PartitionedCall/jax2tf_main_/vmap/vmap/pjit_remainder_/Sign_5", "op": "Sign", "input": ["PartitionedCall/jax2tf_main_/vmap/vmap/pjit_fn_/AddV2_14"], "attr": {"T": {"type": "DT_FLOAT"}}}, {"name": "PartitionedCall/jax2tf_main_/vmap/vmap/pjit_remainder_/Abs_10", "op": "Abs", "input": ["PartitionedCall/jax2tf_main_/vmap/vmap/pjit_fn_/AddV2_14"], "attr": {"T": {"type": "DT_FLOAT"}}}, {"name": "PartitionedCall/jax2tf_main_/vmap/vmap/pjit_remainder_/FloorMod_5", "op": "FloorMod", "input": ["PartitionedCall/jax2tf_main_/vmap/vmap/pjit_remainder_/Abs_10", "PartitionedCall/jax2tf_main_/vmap/vmap/pjit_remainder_/Abs_11"], "attr": {"T": {"type": "DT_FLOAT"}}}, {"name": "PartitionedCall/jax2tf_main_/vmap/vmap/pjit_remainder_/mul_5", "op": "Mul", "input": ["PartitionedCall/jax2tf_main_/vmap/vmap/pjit_remainder_/Sign_5", "PartitionedCall/jax2tf_main_/vmap/vmap/pjit_remainder_/FloorMod_5"], "attr": {"T": {"type": "DT_FLOAT"}}}, {"name": "PartitionedCall/jax2tf_main_/vmap/vmap/pjit_remainder_/Less_10", "op": "Less", "input": ["PartitionedCall/jax2tf_main_/vmap/vmap/pjit_remainder_/mul_5", "PartitionedCall/jax2tf_main_/vmap/vmap/Const_28"], "attr": {"T": {"type": "DT_FLOAT"}}}, {"name": "PartitionedCall/jax2tf_main_/vmap/vmap/pjit_remainder_/NotEqual_10", "op": "NotEqual", "input": ["PartitionedCall/jax2tf_main_/vmap/vmap/pjit_remainder_/mul_5", "PartitionedCall/jax2tf_main_/vmap/vmap/Const_27"], "attr": {"T": {"type": "DT_FLOAT"}, "incompatible_shape_error": {"b": true}}}, {"name": "PartitionedCall/jax2tf_main_/vmap/vmap/pjit_remainder_/AddV2_5", "op": "AddV2", "input": ["PartitionedCall/jax2tf_main_/vmap/vmap/pjit_remainder_/mul_5", "PartitionedCall/Const_34"], "attr": {"T": {"type": "DT_FLOAT"}}}, {"name": "PartitionedCall/jax2tf_main_/vmap/vmap/pjit_remainder_/NotEqual_11", "op": "NotEqual", "input": ["PartitionedCall/jax2tf_main_/vmap/vmap/pjit_remainder_/Less_10", "PartitionedCall/jax2tf_main_/vmap/vmap/pjit_remainder_/Less_11"], "attr": {"T": {"type": "DT_BOOL"}, "incompatible_shape_error": {"b": true}}}, {"name": "PartitionedCall/jax2tf_main_/vmap/vmap/pjit_remainder_/LogicalAnd_5", "op": "LogicalAnd", "input": ["PartitionedCall/jax2tf_main_/vmap/vmap/pjit_remainder_/NotEqual_11", "PartitionedCall/jax2tf_main_/vmap/vmap/pjit_remainder_/NotEqual_10"]}, {"name": "PartitionedCall/jax2tf_main_/vmap/vmap/pjit_remainder_/SelectV2_5", "op": "SelectV2", "input": ["PartitionedCall/jax2tf_main_/vmap/vmap/pjit_remainder_/LogicalAnd_5", "PartitionedCall/jax2tf_main_/vmap/vmap/pjit_remainder_/AddV2_5", "PartitionedCall/jax2tf_main_/vmap/vmap/pjit_remainder_/mul_5"], "attr": {"T": {"type": "DT_FLOAT"}}}, {"name": "PartitionedCall/jax2tf_main_/vmap/vmap/pjit__lambda__/Sub_12", "op": "SquaredDifference", "input": ["PartitionedCall/jax2tf_main_/vmap/vmap/pjit_remainder_/SelectV2_5", "PartitionedCall/Const_35"], "attr": {"T": {"type": "DT_FLOAT"}}}, {"name": "PartitionedCall/jax2tf_main_/vmap/vmap/pjit_norm_/Sum_8", "op": "Sum", "input": ["PartitionedCall/jax2tf_main_/vmap/vmap/pjit__lambda__/Sub_12", "PartitionedCall/jax2tf_main_/vmap/vmap/pjit_norm_/Sum_8/reduction_indices"], "attr": {"T": {"type": "DT_FLOAT"}, "Tidx": {"type": "DT_INT32"}, "keep_dims": {"b": false}}}, {"name": "PartitionedCall/jax2tf_main_/vmap/vmap/pjit_norm_/Sqrt_8", "op": "Sqrt", "input": ["PartitionedCall/jax2tf_main_/vmap/vmap/pjit_norm_/Sum_8"], "attr": {"T": {"type": "DT_FLOAT"}}}, {"name": "PartitionedCall/jax2tf_main_/vmap/vmap/pjit__lambda__/Sub_13", "op": "Sub", "input": ["PartitionedCall/jax2tf_main_/vmap/vmap/pjit_norm_/Sqrt_8", "PartitionedCall/Const_36"], "attr": {"T": {"type": "DT_FLOAT"}}}, {"name": "PartitionedCall/jax2tf_main_/vmap/vmap/pjit_fn_/AddV2_15", "op": "AddV2", "input": ["PartitionedCall/jax2tf_main_/vmap/vmap/pjit_fn_/AddV2_13", "PartitionedCall/jax2tf_main_/vmap/vmap/pjit__lambda__/Sub_13"], "attr": {"T": {"type": "DT_FLOAT"}}}, {"name": "PartitionedCall/jax2tf_main_/vmap/vmap/pjit_fn_/Reshape_24", "op": "Reshape", "input": ["PartitionedCall/jax2tf_main_/vmap/vmap/pjit_fn_/AddV2_15", "PartitionedCall/jax2tf_main_/vmap/vmap/pjit_fn_/Reshape_24/shape"], "attr": {"T": {"type": "DT_FLOAT"}, "Tshape": {"type": "DT_INT32"}}}, {"name": "PartitionedCall/jax2tf_main_/vmap/vmap/pjit_fn_/Mul_9", "op": "Mul", "input": ["PartitionedCall/jax2tf_main_/vmap/vmap/pjit_true_divide_/truediv_5", "PartitionedCall/jax2tf_main_/vmap/vmap/pjit_fn_/Reshape_24"], "attr": {"T": {"type": "DT_FLOAT"}}}, {"name": "PartitionedCall/jax2tf_main_/vmap/vmap/pjit_fn_/AddV2_16", "op": "AddV2", "input": ["PartitionedCall/jax2tf_main_/vmap/vmap/pjit_fn_/Reshape_26", "PartitionedCall/jax2tf_main_/vmap/vmap/pjit_fn_/Mul_9"], "attr": {"T": {"type": "DT_FLOAT"}}}, {"name": "PartitionedCall/jax2tf_main_/vmap/vmap/pjit_remainder_/Sign_6", "op": "Sign", "input": ["PartitionedCall/jax2tf_main_/vmap/vmap/pjit_fn_/AddV2_16"], "attr": {"T": {"type": "DT_FLOAT"}}}, {"name": "PartitionedCall/jax2tf_main_/vmap/vmap/pjit_remainder_/Abs_12", "op": "Abs", "input": ["PartitionedCall/jax2tf_main_/vmap/vmap/pjit_fn_/AddV2_16"], "attr": {"T": {"type": "DT_FLOAT"}}}, {"name": "PartitionedCall/jax2tf_main_/vmap/vmap/pjit_remainder_/FloorMod_6", "op": "FloorMod", "input": ["PartitionedCall/jax2tf_main_/vmap/vmap/pjit_remainder_/Abs_12", "PartitionedCall/jax2tf_main_/vmap/vmap/pjit_remainder_/Abs_13"], "attr": {"T": {"type": "DT_FLOAT"}}}, {"name": "PartitionedCall/jax2tf_main_/vmap/vmap/pjit_remainder_/mul_6", "op": "Mul", "input": ["PartitionedCall/jax2tf_main_/vmap/vmap/pjit_remainder_/Sign_6", "PartitionedCall/jax2tf_main_/vmap/vmap/pjit_remainder_/FloorMod_6"], "attr": {"T": {"type": "DT_FLOAT"}}}, {"name": "PartitionedCall/jax2tf_main_/vmap/vmap/pjit_remainder_/Less_12", "op": "Less", "input": ["PartitionedCall/jax2tf_main_/vmap/vmap/pjit_remainder_/mul_6", "PartitionedCall/jax2tf_main_/vmap/vmap/Const_31"], "attr": {"T": {"type": "DT_FLOAT"}}}, {"name": "PartitionedCall/jax2tf_main_/vmap/vmap/pjit_remainder_/NotEqual_12", "op": "NotEqual", "input": ["PartitionedCall/jax2tf_main_/vmap/vmap/pjit_remainder_/mul_6", "PartitionedCall/jax2tf_main_/vmap/vmap/Const_30"], "attr": {"T": {"type": "DT_FLOAT"}, "incompatible_shape_error": {"b": true}}}, {"name": "PartitionedCall/jax2tf_main_/vmap/vmap/pjit_remainder_/AddV2_6", "op": "AddV2", "input": ["PartitionedCall/jax2tf_main_/vmap/vmap/pjit_remainder_/mul_6", "PartitionedCall/Const_37"], "attr": {"T": {"type": "DT_FLOAT"}}}, {"name": "PartitionedCall/jax2tf_main_/vmap/vmap/pjit_remainder_/NotEqual_13", "op": "NotEqual", "input": ["PartitionedCall/jax2tf_main_/vmap/vmap/pjit_remainder_/Less_12", "PartitionedCall/jax2tf_main_/vmap/vmap/pjit_remainder_/Less_13"], "attr": {"T": {"type": "DT_BOOL"}, "incompatible_shape_error": {"b": true}}}, {"name": "PartitionedCall/jax2tf_main_/vmap/vmap/pjit_remainder_/LogicalAnd_6", "op": "LogicalAnd", "input": ["PartitionedCall/jax2tf_main_/vmap/vmap/pjit_remainder_/NotEqual_13", "PartitionedCall/jax2tf_main_/vmap/vmap/pjit_remainder_/NotEqual_12"]}, {"name": "PartitionedCall/jax2tf_main_/vmap/vmap/pjit_remainder_/SelectV2_6", "op": "SelectV2", "input": ["PartitionedCall/jax2tf_main_/vmap/vmap/pjit_remainder_/LogicalAnd_6", "PartitionedCall/jax2tf_main_/vmap/vmap/pjit_remainder_/AddV2_6", "PartitionedCall/jax2tf_main_/vmap/vmap/pjit_remainder_/mul_6"], "attr": {"T": {"type": "DT_FLOAT"}}}, {"name": "PartitionedCall/jax2tf_main_/vmap/vmap/pjit__lambda__/Sub_14", "op": "SquaredDifference", "input": ["PartitionedCall/jax2tf_main_/vmap/vmap/pjit_remainder_/SelectV2_6", "PartitionedCall/Const_38"], "attr": {"T": {"type": "DT_FLOAT"}}}, {"name": "PartitionedCall/jax2tf_main_/vmap/vmap/pjit_norm_/Sum_9", "op": "Sum", "input": ["PartitionedCall/jax2tf_main_/vmap/vmap/pjit__lambda__/Sub_14", "PartitionedCall/jax2tf_main_/vmap/vmap/pjit_norm_/Sum_9/reduction_indices"], "attr": {"Tidx": {"type": "DT_INT32"}, "T": {"type": "DT_FLOAT"}, "keep_dims": {"b": false}}}, {"name": "PartitionedCall/jax2tf_main_/vmap/vmap/pjit_norm_/Sqrt_9", "op": "Sqrt", "input": ["PartitionedCall/jax2tf_main_/vmap/vmap/pjit_norm_/Sum_9"], "attr": {"T": {"type": "DT_FLOAT"}}}, {"name": "PartitionedCall/jax2tf_main_/vmap/vmap/pjit__lambda__/Sub_15", "op": "Sub", "input": ["PartitionedCall/jax2tf_main_/vmap/vmap/pjit_norm_/Sqrt_9", "PartitionedCall/Const_39"], "attr": {"T": {"type": "DT_FLOAT"}}}, {"name": "PartitionedCall/jax2tf_main_/vmap/vmap/pjit_fn_/AddV2_17", "op": "AddV2", "input": ["PartitionedCall/jax2tf_main_/vmap/vmap/pjit_fn_/AddV2_15", "PartitionedCall/jax2tf_main_/vmap/vmap/pjit__lambda__/Sub_15"], "attr": {"T": {"type": "DT_FLOAT"}}}, {"name": "PartitionedCall/jax2tf_main_/vmap/vmap/pjit_fn_/Reshape_27", "op": "Reshape", "input": ["PartitionedCall/jax2tf_main_/vmap/vmap/pjit_fn_/AddV2_17", "PartitionedCall/jax2tf_main_/vmap/vmap/pjit_fn_/Reshape_27/shape"], "attr": {"T": {"type": "DT_FLOAT"}, "Tshape": {"type": "DT_INT32"}}}, {"name": "PartitionedCall/jax2tf_main_/vmap/vmap/pjit_fn_/Mul_10", "op": "Mul", "input": ["PartitionedCall/jax2tf_main_/vmap/vmap/pjit_true_divide_/truediv_5", "PartitionedCall/jax2tf_main_/vmap/vmap/pjit_fn_/Reshape_27"], "attr": {"T": {"type": "DT_FLOAT"}}}, {"name": "PartitionedCall/jax2tf_main_/vmap/vmap/pjit_fn_/AddV2_18", "op": "AddV2", "input": ["PartitionedCall/jax2tf_main_/vmap/vmap/pjit_fn_/Reshape_29", "PartitionedCall/jax2tf_main_/vmap/vmap/pjit_fn_/Mul_10"], "attr": {"T": {"type": "DT_FLOAT"}}}, {"name": "PartitionedCall/jax2tf_main_/vmap/vmap/pjit_remainder_/Sign_7", "op": "Sign", "input": ["PartitionedCall/jax2tf_main_/vmap/vmap/pjit_fn_/AddV2_18"], "attr": {"T": {"type": "DT_FLOAT"}}}, {"name": "PartitionedCall/jax2tf_main_/vmap/vmap/pjit_remainder_/Abs_14", "op": "Abs", "input": ["PartitionedCall/jax2tf_main_/vmap/vmap/pjit_fn_/AddV2_18"], "attr": {"T": {"type": "DT_FLOAT"}}}, {"name": "PartitionedCall/jax2tf_main_/vmap/vmap/pjit_remainder_/FloorMod_7", "op": "FloorMod", "input": ["PartitionedCall/jax2tf_main_/vmap/vmap/pjit_remainder_/Abs_14", "PartitionedCall/jax2tf_main_/vmap/vmap/pjit_remainder_/Abs_15"], "attr": {"T": {"type": "DT_FLOAT"}}}, {"name": "PartitionedCall/jax2tf_main_/vmap/vmap/pjit_remainder_/mul_7", "op": "Mul", "input": ["PartitionedCall/jax2tf_main_/vmap/vmap/pjit_remainder_/Sign_7", "PartitionedCall/jax2tf_main_/vmap/vmap/pjit_remainder_/FloorMod_7"], "attr": {"T": {"type": "DT_FLOAT"}}}, {"name": "PartitionedCall/jax2tf_main_/vmap/vmap/pjit_remainder_/Less_14", "op": "Less", "input": ["PartitionedCall/jax2tf_main_/vmap/vmap/pjit_remainder_/mul_7", "PartitionedCall/jax2tf_main_/vmap/vmap/Const_34"], "attr": {"T": {"type": "DT_FLOAT"}}}, {"name": "PartitionedCall/jax2tf_main_/vmap/vmap/pjit_remainder_/NotEqual_14", "op": "NotEqual", "input": ["PartitionedCall/jax2tf_main_/vmap/vmap/pjit_remainder_/mul_7", "PartitionedCall/jax2tf_main_/vmap/vmap/Const_33"], "attr": {"T": {"type": "DT_FLOAT"}, "incompatible_shape_error": {"b": true}}}, {"name": "PartitionedCall/jax2tf_main_/vmap/vmap/pjit_remainder_/AddV2_7", "op": "AddV2", "input": ["PartitionedCall/jax2tf_main_/vmap/vmap/pjit_remainder_/mul_7", "PartitionedCall/Const_40"], "attr": {"T": {"type": "DT_FLOAT"}}}, {"name": "PartitionedCall/jax2tf_main_/vmap/vmap/pjit_remainder_/NotEqual_15", "op": "NotEqual", "input": ["PartitionedCall/jax2tf_main_/vmap/vmap/pjit_remainder_/Less_14", "PartitionedCall/jax2tf_main_/vmap/vmap/pjit_remainder_/Less_15"], "attr": {"T": {"type": "DT_BOOL"}, "incompatible_shape_error": {"b": true}}}, {"name": "PartitionedCall/jax2tf_main_/vmap/vmap/pjit_remainder_/LogicalAnd_7", "op": "LogicalAnd", "input": ["PartitionedCall/jax2tf_main_/vmap/vmap/pjit_remainder_/NotEqual_15", "PartitionedCall/jax2tf_main_/vmap/vmap/pjit_remainder_/NotEqual_14"]}, {"name": "PartitionedCall/jax2tf_main_/vmap/vmap/pjit_remainder_/SelectV2_7", "op": "SelectV2", "input": ["PartitionedCall/jax2tf_main_/vmap/vmap/pjit_remainder_/LogicalAnd_7", "PartitionedCall/jax2tf_main_/vmap/vmap/pjit_remainder_/AddV2_7", "PartitionedCall/jax2tf_main_/vmap/vmap/pjit_remainder_/mul_7"], "attr": {"T": {"type": "DT_FLOAT"}}}, {"name": "PartitionedCall/jax2tf_main_/vmap/vmap/pjit__lambda__/Sub_16", "op": "SquaredDifference", "input": ["PartitionedCall/jax2tf_main_/vmap/vmap/pjit_remainder_/SelectV2_7", "PartitionedCall/Const_41"], "attr": {"T": {"type": "DT_FLOAT"}}}, {"name": "PartitionedCall/jax2tf_main_/vmap/vmap/pjit_norm_/Sum_10", "op": "Sum", "input": ["PartitionedCall/jax2tf_main_/vmap/vmap/pjit__lambda__/Sub_16", "PartitionedCall/jax2tf_main_/vmap/vmap/pjit_norm_/Sum_10/reduction_indices"], "attr": {"T": {"type": "DT_FLOAT"}, "Tidx": {"type": "DT_INT32"}, "keep_dims": {"b": false}}}, {"name": "PartitionedCall/jax2tf_main_/vmap/vmap/pjit_norm_/Sqrt_10", "op": "Sqrt", "input": ["PartitionedCall/jax2tf_main_/vmap/vmap/pjit_norm_/Sum_10"], "attr": {"T": {"type": "DT_FLOAT"}}}, {"name": "PartitionedCall/jax2tf_main_/vmap/vmap/pjit__lambda__/Sub_17", "op": "Sub", "input": ["PartitionedCall/jax2tf_main_/vmap/vmap/pjit_norm_/Sqrt_10", "PartitionedCall/Const_42"], "attr": {"T": {"type": "DT_FLOAT"}}}, {"name": "PartitionedCall/jax2tf_main_/vmap/vmap/pjit_fn_/AddV2_19", "op": "AddV2", "input": ["PartitionedCall/jax2tf_main_/vmap/vmap/pjit_fn_/AddV2_17", "PartitionedCall/jax2tf_main_/vmap/vmap/pjit__lambda__/Sub_17"], "attr": {"T": {"type": "DT_FLOAT"}}}, {"name": "PartitionedCall/jax2tf_main_/vmap/vmap/pjit_fn_/Reshape_30", "op": "Reshape", "input": ["PartitionedCall/jax2tf_main_/vmap/vmap/pjit_fn_/AddV2_19", "PartitionedCall/jax2tf_main_/vmap/vmap/pjit_fn_/Reshape_30/shape"], "attr": {"T": {"type": "DT_FLOAT"}, "Tshape": {"type": "DT_INT32"}}}, {"name": "PartitionedCall/jax2tf_main_/vmap/vmap/pjit_fn_/Mul_11", "op": "Mul", "input": ["PartitionedCall/jax2tf_main_/vmap/vmap/pjit_true_divide_/truediv_5", "PartitionedCall/jax2tf_main_/vmap/vmap/pjit_fn_/Reshape_30"], "attr": {"T": {"type": "DT_FLOAT"}}}, {"name": "PartitionedCall/jax2tf_main_/vmap/vmap/pjit_fn_/AddV2_20", "op": "AddV2", "input": ["PartitionedCall/jax2tf_main_/vmap/vmap/pjit_fn_/Reshape_32", "PartitionedCall/jax2tf_main_/vmap/vmap/pjit_fn_/Mul_11"], "attr": {"T": {"type": "DT_FLOAT"}}}, {"name": "PartitionedCall/jax2tf_main_/vmap/vmap/pjit_remainder_/Sign_8", "op": "Sign", "input": ["PartitionedCall/jax2tf_main_/vmap/vmap/pjit_fn_/AddV2_20"], "attr": {"T": {"type": "DT_FLOAT"}}}, {"name": "PartitionedCall/jax2tf_main_/vmap/vmap/pjit_remainder_/Abs_16", "op": "Abs", "input": ["PartitionedCall/jax2tf_main_/vmap/vmap/pjit_fn_/AddV2_20"], "attr": {"T": {"type": "DT_FLOAT"}}}, {"name": "PartitionedCall/jax2tf_main_/vmap/vmap/pjit_remainder_/FloorMod_8", "op": "FloorMod", "input": ["PartitionedCall/jax2tf_main_/vmap/vmap/pjit_remainder_/Abs_16", "PartitionedCall/jax2tf_main_/vmap/vmap/pjit_remainder_/Abs_17"], "attr": {"T": {"type": "DT_FLOAT"}}}, {"name": "PartitionedCall/jax2tf_main_/vmap/vmap/pjit_remainder_/mul_8", "op": "Mul", "input": ["PartitionedCall/jax2tf_main_/vmap/vmap/pjit_remainder_/Sign_8", "PartitionedCall/jax2tf_main_/vmap/vmap/pjit_remainder_/FloorMod_8"], "attr": {"T": {"type": "DT_FLOAT"}}}, {"name": "PartitionedCall/jax2tf_main_/vmap/vmap/pjit_remainder_/Less_16", "op": "Less", "input": ["PartitionedCall/jax2tf_main_/vmap/vmap/pjit_remainder_/mul_8", "PartitionedCall/jax2tf_main_/vmap/vmap/Const_37"], "attr": {"T": {"type": "DT_FLOAT"}}}, {"name": "PartitionedCall/jax2tf_main_/vmap/vmap/pjit_remainder_/NotEqual_16", "op": "NotEqual", "input": ["PartitionedCall/jax2tf_main_/vmap/vmap/pjit_remainder_/mul_8", "PartitionedCall/jax2tf_main_/vmap/vmap/Const_36"], "attr": {"T": {"type": "DT_FLOAT"}, "incompatible_shape_error": {"b": true}}}, {"name": "PartitionedCall/jax2tf_main_/vmap/vmap/pjit_remainder_/AddV2_8", "op": "AddV2", "input": ["PartitionedCall/jax2tf_main_/vmap/vmap/pjit_remainder_/mul_8", "PartitionedCall/Const_43"], "attr": {"T": {"type": "DT_FLOAT"}}}, {"name": "PartitionedCall/jax2tf_main_/vmap/vmap/pjit_remainder_/NotEqual_17", "op": "NotEqual", "input": ["PartitionedCall/jax2tf_main_/vmap/vmap/pjit_remainder_/Less_16", "PartitionedCall/jax2tf_main_/vmap/vmap/pjit_remainder_/Less_17"], "attr": {"T": {"type": "DT_BOOL"}, "incompatible_shape_error": {"b": true}}}, {"name": "PartitionedCall/jax2tf_main_/vmap/vmap/pjit_remainder_/LogicalAnd_8", "op": "LogicalAnd", "input": ["PartitionedCall/jax2tf_main_/vmap/vmap/pjit_remainder_/NotEqual_17", "PartitionedCall/jax2tf_main_/vmap/vmap/pjit_remainder_/NotEqual_16"]}, {"name": "PartitionedCall/jax2tf_main_/vmap/vmap/pjit_remainder_/SelectV2_8", "op": "SelectV2", "input": ["PartitionedCall/jax2tf_main_/vmap/vmap/pjit_remainder_/LogicalAnd_8", "PartitionedCall/jax2tf_main_/vmap/vmap/pjit_remainder_/AddV2_8", "PartitionedCall/jax2tf_main_/vmap/vmap/pjit_remainder_/mul_8"], "attr": {"T": {"type": "DT_FLOAT"}}}, {"name": "PartitionedCall/jax2tf_main_/vmap/vmap/pjit__lambda__/Sub_18", "op": "SquaredDifference", "input": ["PartitionedCall/jax2tf_main_/vmap/vmap/pjit_remainder_/SelectV2_8", "PartitionedCall/Const_44"], "attr": {"T": {"type": "DT_FLOAT"}}}, {"name": "PartitionedCall/jax2tf_main_/vmap/vmap/pjit_norm_/Sum_11", "op": "Sum", "input": ["PartitionedCall/jax2tf_main_/vmap/vmap/pjit__lambda__/Sub_18", "PartitionedCall/jax2tf_main_/vmap/vmap/pjit_norm_/Sum_11/reduction_indices"], "attr": {"T": {"type": "DT_FLOAT"}, "Tidx": {"type": "DT_INT32"}, "keep_dims": {"b": false}}}, {"name": "PartitionedCall/jax2tf_main_/vmap/vmap/pjit_norm_/Sqrt_11", "op": "Sqrt", "input": ["PartitionedCall/jax2tf_main_/vmap/vmap/pjit_norm_/Sum_11"], "attr": {"T": {"type": "DT_FLOAT"}}}, {"name": "PartitionedCall/jax2tf_main_/vmap/vmap/pjit__lambda__/Sub_19", "op": "Sub", "input": ["PartitionedCall/jax2tf_main_/vmap/vmap/pjit_norm_/Sqrt_11", "PartitionedCall/Const_45"], "attr": {"T": {"type": "DT_FLOAT"}}}, {"name": "PartitionedCall/jax2tf_main_/vmap/vmap/pjit_fn_/AddV2_21", "op": "AddV2", "input": ["PartitionedCall/jax2tf_main_/vmap/vmap/pjit_fn_/AddV2_19", "PartitionedCall/jax2tf_main_/vmap/vmap/pjit__lambda__/Sub_19"], "attr": {"T": {"type": "DT_FLOAT"}}}, {"name": "PartitionedCall/jax2tf_main_/vmap/vmap/pjit_fn_/Reshape_33", "op": "Reshape", "input": ["PartitionedCall/jax2tf_main_/vmap/vmap/pjit_fn_/AddV2_21", "PartitionedCall/jax2tf_main_/vmap/vmap/pjit_fn_/Reshape_33/shape"], "attr": {"T": {"type": "DT_FLOAT"}, "Tshape": {"type": "DT_INT32"}}}, {"name": "PartitionedCall/jax2tf_main_/vmap/vmap/pjit_fn_/Mul_12", "op": "Mul", "input": ["PartitionedCall/jax2tf_main_/vmap/vmap/pjit_true_divide_/truediv_5", "PartitionedCall/jax2tf_main_/vmap/vmap/pjit_fn_/Reshape_33"], "attr": {"T": {"type": "DT_FLOAT"}}}, {"name": "PartitionedCall/jax2tf_main_/vmap/vmap/pjit_fn_/AddV2_22", "op": "AddV2", "input": ["PartitionedCall/jax2tf_main_/vmap/vmap/pjit_fn_/Reshape_35", "PartitionedCall/jax2tf_main_/vmap/vmap/pjit_fn_/Mul_12"], "attr": {"T": {"type": "DT_FLOAT"}}}, {"name": "PartitionedCall/jax2tf_main_/vmap/vmap/pjit_remainder_/Sign_9", "op": "Sign", "input": ["PartitionedCall/jax2tf_main_/vmap/vmap/pjit_fn_/AddV2_22"], "attr": {"T": {"type": "DT_FLOAT"}}}, {"name": "PartitionedCall/jax2tf_main_/vmap/vmap/pjit_remainder_/Abs_18", "op": "Abs", "input": ["PartitionedCall/jax2tf_main_/vmap/vmap/pjit_fn_/AddV2_22"], "attr": {"T": {"type": "DT_FLOAT"}}}, {"name": "PartitionedCall/jax2tf_main_/vmap/vmap/pjit_remainder_/FloorMod_9", "op": "FloorMod", "input": ["PartitionedCall/jax2tf_main_/vmap/vmap/pjit_remainder_/Abs_18", "PartitionedCall/jax2tf_main_/vmap/vmap/pjit_remainder_/Abs_19"], "attr": {"T": {"type": "DT_FLOAT"}}}, {"name": "PartitionedCall/jax2tf_main_/vmap/vmap/pjit_remainder_/mul_9", "op": "Mul", "input": ["PartitionedCall/jax2tf_main_/vmap/vmap/pjit_remainder_/Sign_9", "PartitionedCall/jax2tf_main_/vmap/vmap/pjit_remainder_/FloorMod_9"], "attr": {"T": {"type": "DT_FLOAT"}}}, {"name": "PartitionedCall/jax2tf_main_/vmap/vmap/pjit_remainder_/Less_18", "op": "Less", "input": ["PartitionedCall/jax2tf_main_/vmap/vmap/pjit_remainder_/mul_9", "PartitionedCall/jax2tf_main_/vmap/vmap/Const_40"], "attr": {"T": {"type": "DT_FLOAT"}}}, {"name": "PartitionedCall/jax2tf_main_/vmap/vmap/pjit_remainder_/NotEqual_18", "op": "NotEqual", "input": ["PartitionedCall/jax2tf_main_/vmap/vmap/pjit_remainder_/mul_9", "PartitionedCall/jax2tf_main_/vmap/vmap/Const_39"], "attr": {"T": {"type": "DT_FLOAT"}, "incompatible_shape_error": {"b": true}}}, {"name": "PartitionedCall/jax2tf_main_/vmap/vmap/pjit_remainder_/AddV2_9", "op": "AddV2", "input": ["PartitionedCall/jax2tf_main_/vmap/vmap/pjit_remainder_/mul_9", "PartitionedCall/Const_46"], "attr": {"T": {"type": "DT_FLOAT"}}}, {"name": "PartitionedCall/jax2tf_main_/vmap/vmap/pjit_remainder_/NotEqual_19", "op": "NotEqual", "input": ["PartitionedCall/jax2tf_main_/vmap/vmap/pjit_remainder_/Less_18", "PartitionedCall/jax2tf_main_/vmap/vmap/pjit_remainder_/Less_19"], "attr": {"T": {"type": "DT_BOOL"}, "incompatible_shape_error": {"b": true}}}, {"name": "PartitionedCall/jax2tf_main_/vmap/vmap/pjit_remainder_/LogicalAnd_9", "op": "LogicalAnd", "input": ["PartitionedCall/jax2tf_main_/vmap/vmap/pjit_remainder_/NotEqual_19", "PartitionedCall/jax2tf_main_/vmap/vmap/pjit_remainder_/NotEqual_18"]}, {"name": "PartitionedCall/jax2tf_main_/vmap/vmap/pjit_remainder_/SelectV2_9", "op": "SelectV2", "input": ["PartitionedCall/jax2tf_main_/vmap/vmap/pjit_remainder_/LogicalAnd_9", "PartitionedCall/jax2tf_main_/vmap/vmap/pjit_remainder_/AddV2_9", "PartitionedCall/jax2tf_main_/vmap/vmap/pjit_remainder_/mul_9"], "attr": {"T": {"type": "DT_FLOAT"}}}, {"name": "PartitionedCall/jax2tf_main_/vmap/vmap/pjit__lambda__/Sub_20", "op": "SquaredDifference", "input": ["PartitionedCall/jax2tf_main_/vmap/vmap/pjit_remainder_/SelectV2_9", "PartitionedCall/Const_47"], "attr": {"T": {"type": "DT_FLOAT"}}}, {"name": "PartitionedCall/jax2tf_main_/vmap/vmap/pjit_norm_/Sum_12", "op": "Sum", "input": ["PartitionedCall/jax2tf_main_/vmap/vmap/pjit__lambda__/Sub_20", "PartitionedCall/jax2tf_main_/vmap/vmap/pjit_norm_/Sum_12/reduction_indices"], "attr": {"T": {"type": "DT_FLOAT"}, "Tidx": {"type": "DT_INT32"}, "keep_dims": {"b": false}}}, {"name": "PartitionedCall/jax2tf_main_/vmap/vmap/pjit_norm_/Sqrt_12", "op": "Sqrt", "input": ["PartitionedCall/jax2tf_main_/vmap/vmap/pjit_norm_/Sum_12"], "attr": {"T": {"type": "DT_FLOAT"}}}, {"name": "PartitionedCall/jax2tf_main_/vmap/vmap/pjit__lambda__/Sub_21", "op": "Sub", "input": ["PartitionedCall/jax2tf_main_/vmap/vmap/pjit_norm_/Sqrt_12", "PartitionedCall/Const_48"], "attr": {"T": {"type": "DT_FLOAT"}}}, {"name": "PartitionedCall/jax2tf_main_/vmap/vmap/pjit_fn_/AddV2_23", "op": "AddV2", "input": ["PartitionedCall/jax2tf_main_/vmap/vmap/pjit_fn_/AddV2_21", "PartitionedCall/jax2tf_main_/vmap/vmap/pjit__lambda__/Sub_21"], "attr": {"T": {"type": "DT_FLOAT"}}}, {"name": "PartitionedCall/jax2tf_main_/vmap/vmap/pjit_fn_/Reshape_36", "op": "Reshape", "input": ["PartitionedCall/jax2tf_main_/vmap/vmap/pjit_fn_/AddV2_23", "PartitionedCall/jax2tf_main_/vmap/vmap/pjit_fn_/Reshape_36/shape"], "attr": {"T": {"type": "DT_FLOAT"}, "Tshape": {"type": "DT_INT32"}}}, {"name": "PartitionedCall/jax2tf_main_/vmap/vmap/pjit_fn_/Mul_13", "op": "Mul", "input": ["PartitionedCall/jax2tf_main_/vmap/vmap/pjit_true_divide_/truediv_5", "PartitionedCall/jax2tf_main_/vmap/vmap/pjit_fn_/Reshape_36"], "attr": {"T": {"type": "DT_FLOAT"}}}, {"name": "PartitionedCall/jax2tf_main_/vmap/vmap/pjit_fn_/AddV2_24", "op": "AddV2", "input": ["PartitionedCall/jax2tf_main_/vmap/vmap/pjit_fn_/Reshape_38", "PartitionedCall/jax2tf_main_/vmap/vmap/pjit_fn_/Mul_13"], "attr": {"T": {"type": "DT_FLOAT"}}}, {"name": "PartitionedCall/jax2tf_main_/vmap/vmap/pjit_remainder_/Sign_10", "op": "Sign", "input": ["PartitionedCall/jax2tf_main_/vmap/vmap/pjit_fn_/AddV2_24"], "attr": {"T": {"type": "DT_FLOAT"}}}, {"name": "PartitionedCall/jax2tf_main_/vmap/vmap/pjit_remainder_/Abs_20", "op": "Abs", "input": ["PartitionedCall/jax2tf_main_/vmap/vmap/pjit_fn_/AddV2_24"], "attr": {"T": {"type": "DT_FLOAT"}}}, {"name": "PartitionedCall/jax2tf_main_/vmap/vmap/pjit_remainder_/FloorMod_10", "op": "FloorMod", "input": ["PartitionedCall/jax2tf_main_/vmap/vmap/pjit_remainder_/Abs_20", "PartitionedCall/jax2tf_main_/vmap/vmap/pjit_remainder_/Abs_21"], "attr": {"T": {"type": "DT_FLOAT"}}}, {"name": "PartitionedCall/jax2tf_main_/vmap/vmap/pjit_remainder_/mul_10", "op": "Mul", "input": ["PartitionedCall/jax2tf_main_/vmap/vmap/pjit_remainder_/Sign_10", "PartitionedCall/jax2tf_main_/vmap/vmap/pjit_remainder_/FloorMod_10"], "attr": {"T": {"type": "DT_FLOAT"}}}, {"name": "PartitionedCall/jax2tf_main_/vmap/vmap/pjit_remainder_/Less_20", "op": "Less", "input": ["PartitionedCall/jax2tf_main_/vmap/vmap/pjit_remainder_/mul_10", "PartitionedCall/jax2tf_main_/vmap/vmap/Const_43"], "attr": {"T": {"type": "DT_FLOAT"}}}, {"name": "PartitionedCall/jax2tf_main_/vmap/vmap/pjit_remainder_/NotEqual_20", "op": "NotEqual", "input": ["PartitionedCall/jax2tf_main_/vmap/vmap/pjit_remainder_/mul_10", "PartitionedCall/jax2tf_main_/vmap/vmap/Const_42"], "attr": {"T": {"type": "DT_FLOAT"}, "incompatible_shape_error": {"b": true}}}, {"name": "PartitionedCall/jax2tf_main_/vmap/vmap/pjit_remainder_/AddV2_10", "op": "AddV2", "input": ["PartitionedCall/jax2tf_main_/vmap/vmap/pjit_remainder_/mul_10", "PartitionedCall/Const_49"], "attr": {"T": {"type": "DT_FLOAT"}}}, {"name": "PartitionedCall/jax2tf_main_/vmap/vmap/pjit_remainder_/NotEqual_21", "op": "NotEqual", "input": ["PartitionedCall/jax2tf_main_/vmap/vmap/pjit_remainder_/Less_20", "PartitionedCall/jax2tf_main_/vmap/vmap/pjit_remainder_/Less_21"], "attr": {"T": {"type": "DT_BOOL"}, "incompatible_shape_error": {"b": true}}}, {"name": "PartitionedCall/jax2tf_main_/vmap/vmap/pjit_remainder_/LogicalAnd_10", "op": "LogicalAnd", "input": ["PartitionedCall/jax2tf_main_/vmap/vmap/pjit_remainder_/NotEqual_21", "PartitionedCall/jax2tf_main_/vmap/vmap/pjit_remainder_/NotEqual_20"]}, {"name": "PartitionedCall/jax2tf_main_/vmap/vmap/pjit_remainder_/SelectV2_10", "op": "SelectV2", "input": ["PartitionedCall/jax2tf_main_/vmap/vmap/pjit_remainder_/LogicalAnd_10", "PartitionedCall/jax2tf_main_/vmap/vmap/pjit_remainder_/AddV2_10", "PartitionedCall/jax2tf_main_/vmap/vmap/pjit_remainder_/mul_10"], "attr": {"T": {"type": "DT_FLOAT"}}}, {"name": "PartitionedCall/jax2tf_main_/vmap/vmap/pjit__lambda__/Sub_22", "op": "SquaredDifference", "input": ["PartitionedCall/jax2tf_main_/vmap/vmap/pjit_remainder_/SelectV2_10", "PartitionedCall/Const_50"], "attr": {"T": {"type": "DT_FLOAT"}}}, {"name": "PartitionedCall/jax2tf_main_/vmap/vmap/pjit_norm_/Sum_13", "op": "Sum", "input": ["PartitionedCall/jax2tf_main_/vmap/vmap/pjit__lambda__/Sub_22", "PartitionedCall/jax2tf_main_/vmap/vmap/pjit_norm_/Sum_13/reduction_indices"], "attr": {"T": {"type": "DT_FLOAT"}, "Tidx": {"type": "DT_INT32"}, "keep_dims": {"b": false}}}, {"name": "PartitionedCall/jax2tf_main_/vmap/vmap/pjit_norm_/Sqrt_13", "op": "Sqrt", "input": ["PartitionedCall/jax2tf_main_/vmap/vmap/pjit_norm_/Sum_13"], "attr": {"T": {"type": "DT_FLOAT"}}}, {"name": "PartitionedCall/jax2tf_main_/vmap/vmap/pjit__lambda__/Sub_23", "op": "Sub", "input": ["PartitionedCall/jax2tf_main_/vmap/vmap/pjit_norm_/Sqrt_13", "PartitionedCall/Const_51"], "attr": {"T": {"type": "DT_FLOAT"}}}, {"name": "PartitionedCall/jax2tf_main_/vmap/vmap/pjit_fn_/AddV2_25", "op": "AddV2", "input": ["PartitionedCall/jax2tf_main_/vmap/vmap/pjit_fn_/AddV2_23", "PartitionedCall/jax2tf_main_/vmap/vmap/pjit__lambda__/Sub_23"], "attr": {"T": {"type": "DT_FLOAT"}}}, {"name": "PartitionedCall/jax2tf_main_/vmap/vmap/pjit_fn_/Reshape_39", "op": "Reshape", "input": ["PartitionedCall/jax2tf_main_/vmap/vmap/pjit_fn_/AddV2_25", "PartitionedCall/jax2tf_main_/vmap/vmap/pjit_fn_/Reshape_39/shape"], "attr": {"T": {"type": "DT_FLOAT"}, "Tshape": {"type": "DT_INT32"}}}, {"name": "PartitionedCall/jax2tf_main_/vmap/vmap/pjit_fn_/Mul_14", "op": "Mul", "input": ["PartitionedCall/jax2tf_main_/vmap/vmap/pjit_true_divide_/truediv_5", "PartitionedCall/jax2tf_main_/vmap/vmap/pjit_fn_/Reshape_39"], "attr": {"T": {"type": "DT_FLOAT"}}}, {"name": "PartitionedCall/jax2tf_main_/vmap/vmap/pjit_fn_/AddV2_26", "op": "AddV2", "input": ["PartitionedCall/jax2tf_main_/vmap/vmap/pjit_fn_/Reshape_41", "PartitionedCall/jax2tf_main_/vmap/vmap/pjit_fn_/Mul_14"], "attr": {"T": {"type": "DT_FLOAT"}}}, {"name": "PartitionedCall/jax2tf_main_/vmap/vmap/pjit_remainder_/Sign_11", "op": "Sign", "input": ["PartitionedCall/jax2tf_main_/vmap/vmap/pjit_fn_/AddV2_26"], "attr": {"T": {"type": "DT_FLOAT"}}}, {"name": "PartitionedCall/jax2tf_main_/vmap/vmap/pjit_remainder_/Abs_22", "op": "Abs", "input": ["PartitionedCall/jax2tf_main_/vmap/vmap/pjit_fn_/AddV2_26"], "attr": {"T": {"type": "DT_FLOAT"}}}, {"name": "PartitionedCall/jax2tf_main_/vmap/vmap/pjit_remainder_/FloorMod_11", "op": "FloorMod", "input": ["PartitionedCall/jax2tf_main_/vmap/vmap/pjit_remainder_/Abs_22", "PartitionedCall/jax2tf_main_/vmap/vmap/pjit_remainder_/Abs_23"], "attr": {"T": {"type": "DT_FLOAT"}}}, {"name": "PartitionedCall/jax2tf_main_/vmap/vmap/pjit_remainder_/mul_11", "op": "Mul", "input": ["PartitionedCall/jax2tf_main_/vmap/vmap/pjit_remainder_/Sign_11", "PartitionedCall/jax2tf_main_/vmap/vmap/pjit_remainder_/FloorMod_11"], "attr": {"T": {"type": "DT_FLOAT"}}}, {"name": "PartitionedCall/jax2tf_main_/vmap/vmap/pjit_remainder_/Less_22", "op": "Less", "input": ["PartitionedCall/jax2tf_main_/vmap/vmap/pjit_remainder_/mul_11", "PartitionedCall/jax2tf_main_/vmap/vmap/Const_46"], "attr": {"T": {"type": "DT_FLOAT"}}}, {"name": "PartitionedCall/jax2tf_main_/vmap/vmap/pjit_remainder_/NotEqual_22", "op": "NotEqual", "input": ["PartitionedCall/jax2tf_main_/vmap/vmap/pjit_remainder_/mul_11", "PartitionedCall/jax2tf_main_/vmap/vmap/Const_45"], "attr": {"T": {"type": "DT_FLOAT"}, "incompatible_shape_error": {"b": true}}}, {"name": "PartitionedCall/jax2tf_main_/vmap/vmap/pjit_remainder_/AddV2_11", "op": "AddV2", "input": ["PartitionedCall/jax2tf_main_/vmap/vmap/pjit_remainder_/mul_11", "PartitionedCall/Const_52"], "attr": {"T": {"type": "DT_FLOAT"}}}, {"name": "PartitionedCall/jax2tf_main_/vmap/vmap/pjit_remainder_/NotEqual_23", "op": "NotEqual", "input": ["PartitionedCall/jax2tf_main_/vmap/vmap/pjit_remainder_/Less_22", "PartitionedCall/jax2tf_main_/vmap/vmap/pjit_remainder_/Less_23"], "attr": {"T": {"type": "DT_BOOL"}, "incompatible_shape_error": {"b": true}}}, {"name": "PartitionedCall/jax2tf_main_/vmap/vmap/pjit_remainder_/LogicalAnd_11", "op": "LogicalAnd", "input": ["PartitionedCall/jax2tf_main_/vmap/vmap/pjit_remainder_/NotEqual_23", "PartitionedCall/jax2tf_main_/vmap/vmap/pjit_remainder_/NotEqual_22"]}, {"name": "PartitionedCall/jax2tf_main_/vmap/vmap/pjit_remainder_/SelectV2_11", "op": "SelectV2", "input": ["PartitionedCall/jax2tf_main_/vmap/vmap/pjit_remainder_/LogicalAnd_11", "PartitionedCall/jax2tf_main_/vmap/vmap/pjit_remainder_/AddV2_11", "PartitionedCall/jax2tf_main_/vmap/vmap/pjit_remainder_/mul_11"], "attr": {"T": {"type": "DT_FLOAT"}}}, {"name": "PartitionedCall/jax2tf_main_/vmap/vmap/pjit__lambda__/Sub_24", "op": "SquaredDifference", "input": ["PartitionedCall/jax2tf_main_/vmap/vmap/pjit_remainder_/SelectV2_11", "PartitionedCall/Const_53"], "attr": {"T": {"type": "DT_FLOAT"}}}, {"name": "PartitionedCall/jax2tf_main_/vmap/vmap/pjit_norm_/Sum_14", "op": "Sum", "input": ["PartitionedCall/jax2tf_main_/vmap/vmap/pjit__lambda__/Sub_24", "PartitionedCall/jax2tf_main_/vmap/vmap/pjit_norm_/Sum_14/reduction_indices"], "attr": {"T": {"type": "DT_FLOAT"}, "Tidx": {"type": "DT_INT32"}, "keep_dims": {"b": false}}}, {"name": "PartitionedCall/jax2tf_main_/vmap/vmap/pjit_norm_/Sqrt_14", "op": "Sqrt", "input": ["PartitionedCall/jax2tf_main_/vmap/vmap/pjit_norm_/Sum_14"], "attr": {"T": {"type": "DT_FLOAT"}}}, {"name": "PartitionedCall/jax2tf_main_/vmap/vmap/pjit__lambda__/Sub_25", "op": "Sub", "input": ["PartitionedCall/jax2tf_main_/vmap/vmap/pjit_norm_/Sqrt_14", "PartitionedCall/Const_54"], "attr": {"T": {"type": "DT_FLOAT"}}}, {"name": "PartitionedCall/jax2tf_main_/vmap/vmap/pjit_fn_/AddV2_27", "op": "AddV2", "input": ["PartitionedCall/jax2tf_main_/vmap/vmap/pjit_fn_/AddV2_25", "PartitionedCall/jax2tf_main_/vmap/vmap/pjit__lambda__/Sub_25"], "attr": {"T": {"type": "DT_FLOAT"}}}, {"name": "PartitionedCall/jax2tf_main_/vmap/vmap/pjit_fn_/Reshape_42", "op": "Reshape", "input": ["PartitionedCall/jax2tf_main_/vmap/vmap/pjit_fn_/AddV2_27", "PartitionedCall/jax2tf_main_/vmap/vmap/pjit_fn_/Reshape_42/shape"], "attr": {"T": {"type": "DT_FLOAT"}, "Tshape": {"type": "DT_INT32"}}}, {"name": "PartitionedCall/jax2tf_main_/vmap/vmap/pjit_fn_/Mul_15", "op": "Mul", "input": ["PartitionedCall/jax2tf_main_/vmap/vmap/pjit_true_divide_/truediv_5", "PartitionedCall/jax2tf_main_/vmap/vmap/pjit_fn_/Reshape_42"], "attr": {"T": {"type": "DT_FLOAT"}}}, {"name": "PartitionedCall/jax2tf_main_/vmap/vmap/pjit_fn_/AddV2_28", "op": "AddV2", "input": ["PartitionedCall/jax2tf_main_/vmap/vmap/pjit_fn_/Reshape_44", "PartitionedCall/jax2tf_main_/vmap/vmap/pjit_fn_/Mul_15"], "attr": {"T": {"type": "DT_FLOAT"}}}, {"name": "PartitionedCall/jax2tf_main_/vmap/vmap/pjit_remainder_/Sign_12", "op": "Sign", "input": ["PartitionedCall/jax2tf_main_/vmap/vmap/pjit_fn_/AddV2_28"], "attr": {"T": {"type": "DT_FLOAT"}}}, {"name": "PartitionedCall/jax2tf_main_/vmap/vmap/pjit_remainder_/Abs_24", "op": "Abs", "input": ["PartitionedCall/jax2tf_main_/vmap/vmap/pjit_fn_/AddV2_28"], "attr": {"T": {"type": "DT_FLOAT"}}}, {"name": "PartitionedCall/jax2tf_main_/vmap/vmap/pjit_remainder_/FloorMod_12", "op": "FloorMod", "input": ["PartitionedCall/jax2tf_main_/vmap/vmap/pjit_remainder_/Abs_24", "PartitionedCall/jax2tf_main_/vmap/vmap/pjit_remainder_/Abs_25"], "attr": {"T": {"type": "DT_FLOAT"}}}, {"name": "PartitionedCall/jax2tf_main_/vmap/vmap/pjit_remainder_/mul_12", "op": "Mul", "input": ["PartitionedCall/jax2tf_main_/vmap/vmap/pjit_remainder_/Sign_12", "PartitionedCall/jax2tf_main_/vmap/vmap/pjit_remainder_/FloorMod_12"], "attr": {"T": {"type": "DT_FLOAT"}}}, {"name": "PartitionedCall/jax2tf_main_/vmap/vmap/pjit_remainder_/Less_24", "op": "Less", "input": ["PartitionedCall/jax2tf_main_/vmap/vmap/pjit_remainder_/mul_12", "PartitionedCall/jax2tf_main_/vmap/vmap/Const_49"], "attr": {"T": {"type": "DT_FLOAT"}}}, {"name": "PartitionedCall/jax2tf_main_/vmap/vmap/pjit_remainder_/NotEqual_24", "op": "NotEqual", "input": ["PartitionedCall/jax2tf_main_/vmap/vmap/pjit_remainder_/mul_12", "PartitionedCall/jax2tf_main_/vmap/vmap/Const_48"], "attr": {"T": {"type": "DT_FLOAT"}, "incompatible_shape_error": {"b": true}}}, {"name": "PartitionedCall/jax2tf_main_/vmap/vmap/pjit_remainder_/AddV2_12", "op": "Ad…
ax2tf_main_/vmap/vmap/pjit_remainder_/FloorMod_18"], "attr": {"T": {"type": "DT_FLOAT"}}}, {"name": "PartitionedCall/jax2tf_main_/vmap/vmap/pjit_remainder_/Less_36", "op": "Less", "input": ["PartitionedCall/jax2tf_main_/vmap/vmap/pjit_remainder_/mul_18", "PartitionedCall/jax2tf_main_/vmap/vmap/Const_67"], "attr": {"T": {"type": "DT_FLOAT"}}}, {"name": "PartitionedCall/jax2tf_main_/vmap/vmap/pjit_remainder_/NotEqual_36", "op": "NotEqual", "input": ["PartitionedCall/jax2tf_main_/vmap/vmap/pjit_remainder_/mul_18", "PartitionedCall/jax2tf_main_/vmap/vmap/Const_66"], "attr": {"T": {"type": "DT_FLOAT"}, "incompatible_shape_error": {"b": true}}}, {"name": "PartitionedCall/jax2tf_main_/vmap/vmap/pjit_remainder_/AddV2_18", "op": "AddV2", "input": ["PartitionedCall/jax2tf_main_/vmap/vmap/pjit_remainder_/mul_18", "PartitionedCall/Const_73"], "attr": {"T": {"type": "DT_FLOAT"}}}, {"name": "PartitionedCall/jax2tf_main_/vmap/vmap/pjit_remainder_/NotEqual_37", "op": "NotEqual", "input": ["PartitionedCall/jax2tf_main_/vmap/vmap/pjit_remainder_/Less_36", "PartitionedCall/jax2tf_main_/vmap/vmap/pjit_remainder_/Less_37"], "attr": {"T": {"type": "DT_BOOL"}, "incompatible_shape_error": {"b": true}}}, {"name": "PartitionedCall/jax2tf_main_/vmap/vmap/pjit_remainder_/LogicalAnd_18", "op": "LogicalAnd", "input": ["PartitionedCall/jax2tf_main_/vmap/vmap/pjit_remainder_/NotEqual_37", "PartitionedCall/jax2tf_main_/vmap/vmap/pjit_remainder_/NotEqual_36"]}, {"name": "PartitionedCall/jax2tf_main_/vmap/vmap/pjit_remainder_/SelectV2_18", "op": "SelectV2", "input": ["PartitionedCall/jax2tf_main_/vmap/vmap/pjit_remainder_/LogicalAnd_18", "PartitionedCall/jax2tf_main_/vmap/vmap/pjit_remainder_/AddV2_18", "PartitionedCall/jax2tf_main_/vmap/vmap/pjit_remainder_/mul_18"], "attr": {"T": {"type": "DT_FLOAT"}}}, {"name": "PartitionedCall/jax2tf_main_/vmap/vmap/pjit__lambda__/Sub_38", "op": "SquaredDifference", "input": ["PartitionedCall/jax2tf_main_/vmap/vmap/pjit_remainder_/SelectV2_18", "PartitionedCall/Const_74"], "attr": {"T": {"type": "DT_FLOAT"}}}, {"name": "PartitionedCall/jax2tf_main_/vmap/vmap/pjit_norm_/Sum_21", "op": "Sum", "input": ["PartitionedCall/jax2tf_main_/vmap/vmap/pjit__lambda__/Sub_38", "PartitionedCall/jax2tf_main_/vmap/vmap/pjit_norm_/Sum_21/reduction_indices"], "attr": {"Tidx": {"type": "DT_INT32"}, "T": {"type": "DT_FLOAT"}, "keep_dims": {"b": false}}}, {"name": "PartitionedCall/jax2tf_main_/vmap/vmap/pjit_norm_/Sqrt_21", "op": "Sqrt", "input": ["PartitionedCall/jax2tf_main_/vmap/vmap/pjit_norm_/Sum_21"], "attr": {"T": {"type": "DT_FLOAT"}}}, {"name": "PartitionedCall/jax2tf_main_/vmap/vmap/pjit__lambda__/Sub_39", "op": "Sub", "input": ["PartitionedCall/jax2tf_main_/vmap/vmap/pjit_norm_/Sqrt_21", "PartitionedCall/Const_75"], "attr": {"T": {"type": "DT_FLOAT"}}}, {"name": "PartitionedCall/jax2tf_main_/vmap/vmap/pjit_fn_/AddV2_41", "op": "AddV2", "input": ["PartitionedCall/jax2tf_main_/vmap/vmap/pjit_fn_/AddV2_39", "PartitionedCall/jax2tf_main_/vmap/vmap/pjit__lambda__/Sub_39"], "attr": {"T": {"type": "DT_FLOAT"}}}, {"name": "PartitionedCall/jax2tf_main_/vmap/vmap/pjit_fn_/Reshape_63", "op": "Reshape", "input": ["PartitionedCall/jax2tf_main_/vmap/vmap/pjit_fn_/AddV2_41", "PartitionedCall/jax2tf_main_/vmap/vmap/pjit_fn_/Reshape_63/shape"], "attr": {"T": {"type": "DT_FLOAT"}, "Tshape": {"type": "DT_INT32"}}}, {"name": "PartitionedCall/jax2tf_main_/vmap/vmap/pjit_fn_/Mul_22", "op": "Mul", "input": ["PartitionedCall/jax2tf_main_/vmap/vmap/pjit_true_divide_/truediv_5", "PartitionedCall/jax2tf_main_/vmap/vmap/pjit_fn_/Reshape_63"], "attr": {"T": {"type": "DT_FLOAT"}}}, {"name": "PartitionedCall/jax2tf_main_/vmap/vmap/pjit_fn_/AddV2_42", "op": "AddV2", "input": ["PartitionedCall/jax2tf_main_/vmap/vmap/pjit_fn_/Reshape_65", "PartitionedCall/jax2tf_main_/vmap/vmap/pjit_fn_/Mul_22"], "attr": {"T": {"type": "DT_FLOAT"}}}, {"name": "PartitionedCall/jax2tf_main_/vmap/vmap/pjit_remainder_/Sign_19", "op": "Sign", "input": ["PartitionedCall/jax2tf_main_/vmap/vmap/pjit_fn_/AddV2_42"], "attr": {"T": {"type": "DT_FLOAT"}}}, {"name": "PartitionedCall/jax2tf_main_/vmap/vmap/pjit_remainder_/Abs_38", "op": "Abs", "input": ["PartitionedCall/jax2tf_main_/vmap/vmap/pjit_fn_/AddV2_42"], "attr": {"T": {"type": "DT_FLOAT"}}}, {"name": "PartitionedCall/jax2tf_main_/vmap/vmap/pjit_remainder_/FloorMod_19", "op": "FloorMod", "input": ["PartitionedCall/jax2tf_main_/vmap/vmap/pjit_remainder_/Abs_38", "PartitionedCall/jax2tf_main_/vmap/vmap/pjit_remainder_/Abs_39"], "attr": {"T": {"type": "DT_FLOAT"}}}, {"name": "PartitionedCall/jax2tf_main_/vmap/vmap/pjit_remainder_/mul_19", "op": "Mul", "input": ["PartitionedCall/jax2tf_main_/vmap/vmap/pjit_remainder_/Sign_19", "PartitionedCall/jax2tf_main_/vmap/vmap/pjit_remainder_/FloorMod_19"], "attr": {"T": {"type": "DT_FLOAT"}}}, {"name": "PartitionedCall/jax2tf_main_/vmap/vmap/pjit_remainder_/Less_38", "op": "Less", "input": ["PartitionedCall/jax2tf_main_/vmap/vmap/pjit_remainder_/mul_19", "PartitionedCall/jax2tf_main_/vmap/vmap/Const_70"], "attr": {"T": {"type": "DT_FLOAT"}}}, {"name": "PartitionedCall/jax2tf_main_/vmap/vmap/pjit_remainder_/NotEqual_38", "op": "NotEqual", "input": ["PartitionedCall/jax2tf_main_/vmap/vmap/pjit_remainder_/mul_19", "PartitionedCall/jax2tf_main_/vmap/vmap/Const_69"], "attr": {"T": {"type": "DT_FLOAT"}, "incompatible_shape_error": {"b": true}}}, {"name": "PartitionedCall/jax2tf_main_/vmap/vmap/pjit_remainder_/AddV2_19", "op": "AddV2", "input": ["PartitionedCall/jax2tf_main_/vmap/vmap/pjit_remainder_/mul_19", "PartitionedCall/Const_76"], "attr": {"T": {"type": "DT_FLOAT"}}}, {"name": "PartitionedCall/jax2tf_main_/vmap/vmap/pjit_remainder_/NotEqual_39", "op": "NotEqual", "input": ["PartitionedCall/jax2tf_main_/vmap/vmap/pjit_remainder_/Less_38", "PartitionedCall/jax2tf_main_/vmap/vmap/pjit_remainder_/Less_39"], "attr": {"T": {"type": "DT_BOOL"}, "incompatible_shape_error": {"b": true}}}, {"name": "PartitionedCall/jax2tf_main_/vmap/vmap/pjit_remainder_/LogicalAnd_19", "op": "LogicalAnd", "input": ["PartitionedCall/jax2tf_main_/vmap/vmap/pjit_remainder_/NotEqual_39", "PartitionedCall/jax2tf_main_/vmap/vmap/pjit_remainder_/NotEqual_38"]}, {"name": "PartitionedCall/jax2tf_main_/vmap/vmap/pjit_remainder_/SelectV2_19", "op": "SelectV2", "input": ["PartitionedCall/jax2tf_main_/vmap/vmap/pjit_remainder_/LogicalAnd_19", "PartitionedCall/jax2tf_main_/vmap/vmap/pjit_remainder_/AddV2_19", "PartitionedCall/jax2tf_main_/vmap/vmap/pjit_remainder_/mul_19"], "attr": {"T": {"type": "DT_FLOAT"}}}, {"name": "PartitionedCall/jax2tf_main_/vmap/vmap/pjit__lambda__/Sub_40", "op": "SquaredDifference", "input": ["PartitionedCall/jax2tf_main_/vmap/vmap/pjit_remainder_/SelectV2_19", "PartitionedCall/Const_77"], "attr": {"T": {"type": "DT_FLOAT"}}}, {"name": "PartitionedCall/jax2tf_main_/vmap/vmap/pjit_norm_/Sum_22", "op": "Sum", "input": ["PartitionedCall/jax2tf_main_/vmap/vmap/pjit__lambda__/Sub_40", "PartitionedCall/jax2tf_main_/vmap/vmap/pjit_norm_/Sum_22/reduction_indices"], "attr": {"T": {"type": "DT_FLOAT"}, "Tidx": {"type": "DT_INT32"}, "keep_dims": {"b": false}}}, {"name": "PartitionedCall/jax2tf_main_/vmap/vmap/pjit_norm_/Sqrt_22", "op": "Sqrt", "input": ["PartitionedCall/jax2tf_main_/vmap/vmap/pjit_norm_/Sum_22"], "attr": {"T": {"type": "DT_FLOAT"}}}, {"name": "PartitionedCall/jax2tf_main_/vmap/vmap/pjit__lambda__/Sub_41", "op": "Sub", "input": ["PartitionedCall/jax2tf_main_/vmap/vmap/pjit_norm_/Sqrt_22", "PartitionedCall/Const_78"], "attr": {"T": {"type": "DT_FLOAT"}}}, {"name": "PartitionedCall/jax2tf_main_/vmap/vmap/pjit_fn_/AddV2_43", "op": "AddV2", "input": ["PartitionedCall/jax2tf_main_/vmap/vmap/pjit_fn_/AddV2_41", "PartitionedCall/jax2tf_main_/vmap/vmap/pjit__lambda__/Sub_41"], "attr": {"T": {"type": "DT_FLOAT"}}}, {"name": "PartitionedCall/jax2tf_main_/vmap/vmap/pjit_fn_/Reshape_66", "op": "Reshape", "input": ["PartitionedCall/jax2tf_main_/vmap/vmap/pjit_fn_/AddV2_43", "PartitionedCall/jax2tf_main_/vmap/vmap/pjit_fn_/Reshape_66/shape"], "attr": {"T": {"type": "DT_FLOAT"}, "Tshape": {"type": "DT_INT32"}}}, {"name": "PartitionedCall/jax2tf_main_/vmap/vmap/pjit_negative_/Neg_2", "op": "Neg", "input": ["PartitionedCall/jax2tf_main_/vmap/vmap/pjit_fn_/AddV2_43"], "attr": {"T": {"type": "DT_FLOAT"}}}, {"name": "PartitionedCall/jax2tf_main_/vmap/vmap/pjit_fn_/Mul_23", "op": "Mul", "input": ["PartitionedCall/jax2tf_main_/vmap/vmap/pjit_true_divide_/truediv_5", "PartitionedCall/jax2tf_main_/vmap/vmap/pjit_fn_/Reshape_66"], "attr": {"T": {"type": "DT_FLOAT"}}}, {"name": "PartitionedCall/jax2tf_main_/vmap/vmap/pjit_fn_/Mul_24", "op": "Mul", "input": ["PartitionedCall/Const_84", "PartitionedCall/jax2tf_main_/vmap/vmap/pjit_negative_/Neg_2"], "attr": {"_grappler_ArithmeticOptimizer_MinimizeBroadcasts": {"b": true}, "T": {"type": "DT_FLOAT"}}}, {"name": "PartitionedCall/jax2tf_main_/vmap/vmap/pjit_fn_/AddV2_44", "op": "AddV2", "input": ["PartitionedCall/jax2tf_main_/vmap/vmap/pjit_fn_/Reshape_68", "PartitionedCall/jax2tf_main_/vmap/vmap/pjit_fn_/Mul_23"], "attr": {"T": {"type": "DT_FLOAT"}}}, {"name": "PartitionedCall/jax2tf_main_/vmap/vmap/pjit_fn_/Mul_25", "op": "Mul", "input": ["PartitionedCall/jax2tf_main_/vmap/vmap/pjit_fn_/Mul_24", "PartitionedCall/jax2tf_main_/vmap/vmap/pjit_fn_/AddV2_43"], "attr": {"_grappler_ArithmeticOptimizer_MinimizeBroadcasts": {"b": true}, "T": {"type": "DT_FLOAT"}}}, {"name": "PartitionedCall/jax2tf_main_/vmap/vmap/jvp/pjit_remainder_/Sign", "op": "Sign", "input": ["PartitionedCall/jax2tf_main_/vmap/vmap/pjit_fn_/AddV2_44"], "attr": {"T": {"type": "DT_FLOAT"}}}, {"name": "PartitionedCall/jax2tf_main_/vmap/vmap/jvp/pjit_remainder_/Abs", "op": "Abs", "input": ["PartitionedCall/jax2tf_main_/vmap/vmap/pjit_fn_/AddV2_44"], "attr": {"T": {"type": "DT_FLOAT"}}}, {"name": "PartitionedCall/jax2tf_main_/vmap/vmap/pjit_exp_/Exp", "op": "Exp", "input": ["PartitionedCall/jax2tf_main_/vmap/vmap/pjit_fn_/Mul_25"], "attr": {"T": {"type": "DT_FLOAT"}}}, {"name": "PartitionedCall/jax2tf_main_/vmap/vmap/jvp/pjit_remainder_/FloorMod", "op": "FloorMod", "input": ["PartitionedCall/jax2tf_main_/vmap/vmap/jvp/pjit_remainder_/Abs", "PartitionedCall/jax2tf_main_/vmap/vmap/jvp/pjit_remainder_/Abs_1"], "attr": {"T": {"type": "DT_FLOAT"}}}, {"name": "PartitionedCall/jax2tf_main_/vmap/vmap/pjit_clip_/Maximum", "op": "Maximum", "input": ["PartitionedCall/Const_85", "PartitionedCall/jax2tf_main_/vmap/vmap/pjit_exp_/Exp"], "attr": {"T": {"type": "DT_FLOAT"}}}, {"name": "PartitionedCall/jax2tf_main_/vmap/vmap/jvp/pjit_remainder_/mul", "op": "Mul", "input": ["PartitionedCall/jax2tf_main_/vmap/vmap/jvp/pjit_remainder_/Sign", "PartitionedCall/jax2tf_main_/vmap/vmap/jvp/pjit_remainder_/FloorMod"], "attr": {"T": {"type": "DT_FLOAT"}}}, {"name": "PartitionedCall/jax2tf_main_/vmap/vmap/pjit_clip_/Minimum", "op": "Minimum", "input": ["PartitionedCall/Const_86", "PartitionedCall/jax2tf_main_/vmap/vmap/pjit_clip_/Maximum"], "attr": {"T": {"type": "DT_FLOAT"}}}, {"name": "PartitionedCall/jax2tf_main_/vmap/vmap/jvp/pjit_remainder_/Less", "op": "Less", "input": ["PartitionedCall/jax2tf_main_/vmap/vmap/jvp/pjit_remainder_/mul", "PartitionedCall/jax2tf_main_/vmap/vmap/jvp/Const_1"], "attr": {"T": {"type": "DT_FLOAT"}}}, {"name": "PartitionedCall/jax2tf_main_/vmap/vmap/jvp/pjit_remainder_/NotEqual", "op": "NotEqual", "input": ["PartitionedCall/jax2tf_main_/vmap/vmap/jvp/pjit_remainder_/mul", "PartitionedCall/jax2tf_main_/vmap/vmap/jvp/Const"], "attr": {"T": {"type": "DT_FLOAT"}, "incompatible_shape_error": {"b": true}}}, {"name": "PartitionedCall/jax2tf_main_/vmap/vmap/jvp/pjit_remainder_/AddV2", "op": "AddV2", "input": ["PartitionedCall/jax2tf_main_/vmap/vmap/jvp/pjit_remainder_/mul", "PartitionedCall/Const_79"], "attr": {"T": {"type": "DT_FLOAT"}}}, {"name": "PartitionedCall/jax2tf_main_/vmap/vmap/jvp/pjit_remainder_/NotEqual_1", "op": "NotEqual", "input": ["PartitionedCall/jax2tf_main_/vmap/vmap/jvp/pjit_remainder_/Less", "PartitionedCall/jax2tf_main_/vmap/vmap/jvp/pjit_remainder_/Less_1"], "attr": {"T": {"type": "DT_BOOL"}, "incompatible_shape_error": {"b": true}}}, {"name": "PartitionedCall/jax2tf_main_/vmap/vmap/jvp/pjit_remainder_/LogicalAnd", "op": "LogicalAnd", "input": ["PartitionedCall/jax2tf_main_/vmap/vmap/jvp/pjit_remainder_/NotEqual_1", "PartitionedCall/jax2tf_main_/vmap/vmap/jvp/pjit_remainder_/NotEqual"]}, {"name": "PartitionedCall/jax2tf_main_/vmap/vmap/transpose/jax2tf_main_/vmap/vmap/jvp/pjit_remainder_/Equal", "op": "Equal", "input": ["PartitionedCall/jax2tf_main_/vmap/vmap/jvp/pjit_remainder_/LogicalAnd", "PartitionedCall/jax2tf_main_/vmap/vmap/transpose/jax2tf_main_/vmap/vmap/jvp/Const_1"], "attr": {"T": {"type": "DT_BOOL"}, "incompatible_shape_error": {"b": true}}}, {"name": "PartitionedCall/jax2tf_main_/vmap/vmap/transpose/jax2tf_main_/vmap/vmap/jvp/pjit_remainder_/Equal_1", "op": "Equal", "input": ["PartitionedCall/jax2tf_main_/vmap/vmap/jvp/pjit_remainder_/LogicalAnd", "PartitionedCall/jax2tf_main_/vmap/vmap/transpose/jax2tf_main_/vmap/vmap/jvp/Const_2"], "attr": {"T": {"type": "DT_BOOL"}, "incompatible_shape_error": {"b": true}}}, {"name": "PartitionedCall/jax2tf_main_/vmap/vmap/jvp/pjit_remainder_/SelectV2", "op": "SelectV2", "input": ["PartitionedCall/jax2tf_main_/vmap/vmap/jvp/pjit_remainder_/LogicalAnd", "PartitionedCall/jax2tf_main_/vmap/vmap/jvp/pjit_remainder_/AddV2", "PartitionedCall/jax2tf_main_/vmap/vmap/jvp/pjit_remainder_/mul"], "attr": {"T": {"type": "DT_FLOAT"}}}, {"name": "PartitionedCall/jax2tf_main_/vmap/vmap/jvp/pjit__lambda__/Sub", "op": "Sub", "input": ["PartitionedCall/jax2tf_main_/vmap/vmap/jvp/pjit_remainder_/SelectV2", "PartitionedCall/Const_80"], "attr": {"T": {"type": "DT_FLOAT"}}}, {"name": "PartitionedCall/jax2tf_main_/vmap/vmap/jvp/pjit_norm_/ArithmeticOptimizer/ReplaceMulWithSquare_Mul", "op": "Square", "input": ["PartitionedCall/jax2tf_main_/vmap/vmap/jvp/pjit__lambda__/Sub"], "attr": {"T": {"type": "DT_FLOAT"}}}, {"name": "PartitionedCall/jax2tf_main_/vmap/vmap/jvp/pjit_norm_/Sum", "op": "Sum", "input": ["PartitionedCall/jax2tf_main_/vmap/vmap/jvp/pjit_norm_/ArithmeticOptimizer/ReplaceMulWithSquare_Mul", "PartitionedCall/jax2tf_main_/vmap/vmap/jvp/pjit_norm_/Sum/reduction_indices"], "attr": {"Tidx": {"type": "DT_INT32"}, "T": {"type": "DT_FLOAT"}, "keep_dims": {"b": false}}}, {"name": "PartitionedCall/jax2tf_main_/vmap/vmap/jvp/pjit_norm_/Sqrt", "op": "Rsqrt", "input": ["PartitionedCall/jax2tf_main_/vmap/vmap/jvp/pjit_norm_/Sum"], "attr": {"T": {"type": "DT_FLOAT"}}}, {"name": "PartitionedCall/jax2tf_main_/vmap/vmap/jvp/pjit_norm_/truediv", "op": "Mul", "input": ["PartitionedCall/jax2tf_main_/vmap/vmap/jvp/Const_4", "PartitionedCall/jax2tf_main_/vmap/vmap/jvp/pjit_norm_/Sqrt"], "attr": {"T": {"type": "DT_FLOAT"}}}, {"name": "PartitionedCall/jax2tf_main_/vmap/vmap/transpose/jax2tf_main_/vmap/vmap/jvp/pjit_norm_/Reshape", "op": "Reshape", "input": ["PartitionedCall/jax2tf_main_/vmap/vmap/jvp/pjit_norm_/truediv", "PartitionedCall/jax2tf_main_/vmap/vmap/transpose/jax2tf_main_/vmap/vmap/jvp/pjit_norm_/Reshape/shape"], "attr": {"T": {"type": "DT_FLOAT"}, "Tshape": {"type": "DT_INT32"}}}, {"name": "PartitionedCall/jax2tf_main_/vmap/vmap/transpose/jax2tf_main_/vmap/vmap/jvp/pjit_norm_/BroadcastTo", "op": "BroadcastTo", "input": ["PartitionedCall/jax2tf_main_/vmap/vmap/transpose/jax2tf_main_/vmap/vmap/jvp/pjit_norm_/Reshape", "PartitionedCall/jax2tf_main_/vmap/vmap/transpose/jax2tf_main_/vmap/vmap/jvp/pjit_norm_/BroadcastTo/shape"], "attr": {"T": {"type": "DT_FLOAT"}, "Tidx": {"type": "DT_INT32"}}}, {"name": "PartitionedCall/jax2tf_main_/vmap/vmap/transpose/jax2tf_main_/vmap/vmap/jvp/pjit_norm_/Mul_1", "op": "Mul", "input": ["PartitionedCall/jax2tf_main_/vmap/vmap/jvp/pjit__lambda__/Sub", "PartitionedCall/jax2tf_main_/vmap/vmap/transpose/jax2tf_main_/vmap/vmap/jvp/pjit_norm_/BroadcastTo"], "attr": {"T": {"type": "DT_FLOAT"}}}, {"name": "PartitionedCall/jax2tf_main_/vmap/vmap/transpose/jax2tf_main_/vmap/vmap/jvp/pjit_norm_/Mul_2", "op": "Mul", "input": ["PartitionedCall/jax2tf_main_/vmap/vmap/transpose/jax2tf_main_/vmap/vmap/jvp/pjit_norm_/BroadcastTo", "PartitionedCall/jax2tf_main_/vmap/vmap/jvp/pjit__lambda__/Sub"], "attr": {"T": {"type": "DT_FLOAT"}}}, {"name": "PartitionedCall/jax2tf_main_/vmap/vmap/transpose/jax2tf_main_/vmap/vmap/jvp/pjit_norm_/AddV2", "op": "AddV2", "input": ["PartitionedCall/jax2tf_main_/vmap/vmap/transpose/jax2tf_main_/vmap/vmap/jvp/pjit_norm_/Mul_1", "PartitionedCall/jax2tf_main_/vmap/vmap/transpose/jax2tf_main_/vmap/vmap/jvp/pjit_norm_/Mul_2"], "attr": {"T": {"type": "DT_FLOAT"}}}, {"name": "PartitionedCall/jax2tf_main_/vmap/vmap/transpose/jax2tf_main_/vmap/vmap/jvp/pjit_remainder_/SelectV2", "op": "SelectV2", "input": ["PartitionedCall/jax2tf_main_/vmap/vmap/transpose/jax2tf_main_/vmap/vmap/jvp/pjit_remainder_/Equal", "PartitionedCall/jax2tf_main_/vmap/vmap/transpose/jax2tf_main_/vmap/vmap/jvp/pjit_norm_/AddV2", "PartitionedCall/jax2tf_main_/vmap/vmap/transpose/jax2tf_main_/vmap/vmap/jvp/pjit_remainder_/BroadcastTo_2"], "attr": {"T": {"type": "DT_FLOAT"}}}, {"name": "PartitionedCall/jax2tf_main_/vmap/vmap/transpose/jax2tf_main_/vmap/vmap/jvp/pjit_remainder_/SelectV2_1", "op": "SelectV2", "input": ["PartitionedCall/jax2tf_main_/vmap/vmap/transpose/jax2tf_main_/vmap/vmap/jvp/pjit_remainder_/Equal_1", "PartitionedCall/jax2tf_main_/vmap/vmap/transpose/jax2tf_main_/vmap/vmap/jvp/pjit_norm_/AddV2", "PartitionedCall/jax2tf_main_/vmap/vmap/transpose/jax2tf_main_/vmap/vmap/jvp/pjit_remainder_/BroadcastTo_4"], "attr": {"T": {"type": "DT_FLOAT"}}}, {"name": "PartitionedCall/jax2tf_main_/vmap/vmap/transpose/jax2tf_main_/vmap/vmap/jvp/pjit_remainder_/AddV2", "op": "AddV2", "input": ["PartitionedCall/jax2tf_main_/vmap/vmap/transpose/jax2tf_main_/vmap/vmap/jvp/pjit_remainder_/SelectV2", "PartitionedCall/jax2tf_main_/vmap/vmap/transpose/jax2tf_main_/vmap/vmap/jvp/pjit_remainder_/SelectV2_1"], "attr": {"T": {"type": "DT_FLOAT"}}}, {"name": "PartitionedCall/jax2tf_main_/vmap/vmap/pjit_dot_/einsum/Einsum", "op": "Einsum", "input": ["PartitionedCall/jax2tf_main_/vmap/vmap/transpose/jax2tf_main_/vmap/vmap/jvp/pjit_remainder_/AddV2", "PartitionedCall/jax2tf_main_/vmap/vmap/pjit_true_divide_/truediv_6"], "attr": {"equation": {"s": "YWJlLGUtPmFi"}, "N": {"i": "2"}, "T": {"type": "DT_FLOAT"}}}, {"name": "PartitionedCall/jax2tf_main_/vmap/vmap/pjit_fn_/AddV2_45", "op": "AddV2", "input": ["PartitionedCall/jax2tf_main_/vmap/vmap/pjit_dot_/einsum/Einsum", "PartitionedCall/jax2tf_main_/vmap/vmap/pjit_fn_/Cast_1"], "attr": {"T": {"type": "DT_FLOAT"}}}, {"name": "PartitionedCall/jax2tf_main_/vmap/vmap/pjit_true_divide_/truediv_7", "op": "Mul", "input": ["ConstantFolding/PartitionedCall/jax2tf_main_/vmap/vmap/pjit_true_divide_/truediv_7_recip", "PartitionedCall/jax2tf_main_/vmap/vmap/pjit_fn_/AddV2_45"], "attr": {"_grappler_ArithmeticOptimizer_MinimizeBroadcasts": {"b": true}, "T": {"type": "DT_FLOAT"}}}, {"name": "PartitionedCall/jax2tf_main_/vmap/vmap/pjit_fn_/Mul_26", "op": "Mul", "input": ["PartitionedCall/jax2tf_main_/vmap/vmap/pjit_true_divide_/truediv_7", "PartitionedCall/jax2tf_main_/vmap/vmap/pjit_clip_/Minimum"], "attr": {"_grappler_ArithmeticOptimizer_MinimizeBroadcasts": {"b": true}, "T": {"type": "DT_FLOAT"}}}, {"name": "PartitionedCall/jax2tf_main_/vmap/transpose", "op": "Transpose", "input": ["PartitionedCall/jax2tf_main_/vmap/vmap/pjit_fn_/Mul_26", "PartitionedCall/jax2tf_main_/vmap/transpose/perm"], "attr": {"Tperm": {"type": "DT_INT32"}, "_input_shapes": {"list": {"shape": [{"dim": [{"size": "512"}, {"size": "512"}]}, {"dim": [{"size": "2"}]}]}}, "T": {"type": "DT_FLOAT"}}}, {"name": "Identity", "op": "Identity", "input": ["PartitionedCall/jax2tf_main_/vmap/transpose"], "attr": {"T": {"type": "DT_FLOAT"}}}], "library": {}, "versions": {"producer": 1645}}, "weightsManifest": [{"paths": ["group1-shard1of1.bin"], "weights": [{"name": "ConstantFolding/PartitionedCall/jax2tf_main_/vmap/vmap/pjit_true_divide_/truediv_7_recip", "shape": [], "dtype": "float32"}, {"name": "PartitionedCall/jax2tf_main_/vmap/vmap/transpose/jax2tf_main_/vmap/vmap/jvp/Const_1", "shape": [], "dtype": "bool"}, {"name": "PartitionedCall/jax2tf_main_/vmap/vmap/transpose/jax2tf_main_/vmap/vmap/jvp/pjit_remainder_/Reshape_2", "shape": [1, 512, 3], "dtype": "float32"}, {"name": "PartitionedCall/jax2tf_main_/vmap/vmap/transpose/jax2tf_main_/vmap/vmap/jvp/pjit_remainder_/BroadcastTo_2/shape", "shape": [3], "dtype": "int32"}, {"name": "PartitionedCall/jax2tf_main_/vmap/vmap/transpose/jax2tf_main_/vmap/vmap/jvp/Const_2", "shape": [], "dtype": "bool"}, {"name": "PartitionedCall/jax2tf_main_/vmap/vmap/jvp/Const_4", "shape": [], "dtype": "float32"}, {"name": "PartitionedCall/jax2tf_main_/vmap/vmap/jvp/pjit_norm_/Sum/reduction_indices", "shape": [1], "dtype": "int32"}, {"name": "PartitionedCall/jax2tf_main_/vmap/vmap/transpose/jax2tf_main_/vmap/vmap/jvp/pjit_norm_/Reshape/shape", "shape": [3], "dtype": "int32"}, {"name": "PartitionedCall/jax2tf_main_/vmap/vmap/transpose/jax2tf_main_/vmap/vmap/jvp/pjit_norm_/BroadcastTo/shape", "shape": [3], "dtype": "int32"}, {"name": "PartitionedCall/jax2tf_main_/vmap/vmap/jvp/Const_1", "shape": [], "dtype": "float32"}, {"name": "PartitionedCall/jax2tf_main_/vmap/vmap/jvp/pjit_remainder_/Less_1", "shape": [], "dtype": "bool"}, {"name": "PartitionedCall/jax2tf_main_/vmap/vmap/jvp/Const", "shape": [], "dtype": "float32"}, {"name": "PartitionedCall/Const_79", "shape": [], "dtype": "float32"}, {"name": "PartitionedCall/jax2tf_main_/vmap/vmap/pjit_fn_/Reshape_68/shape", "shape": [3], "dtype": "int32"}, {"name": "PartitionedCall/jax2tf_main_/vmap/vmap/pjit_fn_/Reshape_66/shape", "shape": [3], "dtype": "int32"}, {"name": "PartitionedCall/jax2tf_main_/vmap/vmap/jvp/pjit_remainder_/Abs_1", "shape": [], "dtype": "float32"}, {"name": "PartitionedCall/Const_80", "shape": [], "dtype": "float32"}, {"name": "PartitionedCall/jax2tf_main_/vmap/vmap/transpose/jax2tf_main_/vmap/vmap/jvp/pjit_remainder_/Reshape_4", "shape": [1, 512, 3], "dtype": "float32"}, {"name": "PartitionedCall/jax2tf_main_/vmap/vmap/transpose/jax2tf_main_/vmap/vmap/jvp/pjit_remainder_/BroadcastTo_4/shape", "shape": [3], "dtype": "int32"}, {"name": "PartitionedCall/jax2tf_main_/vmap/vmap/pjit_true_divide_/truediv_6", "shape": [3], "dtype": "float32"}, {"name": "PartitionedCall/jax2tf_main_/vmap/vmap/pjit_fn_/Cast_1", "shape": [], "dtype": "float32"}, {"name": "PartitionedCall/Const_86", "shape": [], "dtype": "float32"}, {"name": "PartitionedCall/Const_85", "shape": [], "dtype": "float32"}, {"name": "PartitionedCall/Const_84", "shape": [], "dtype": "float32"}, {"name": "PartitionedCall/jax2tf_main_/vmap/vmap/Const_70", "shape": [], "dtype": "float32"}, {"name": "PartitionedCall/jax2tf_main_/vmap/vmap/pjit_remainder_/Less_39", "shape": [], "dtype": "bool"}, {"name": "PartitionedCall/jax2tf_main_/vmap/vmap/Const_69", "shape": [], "dtype": "float32"}, {"name": "PartitionedCall/Const_76", "shape": [], "dtype": "float32"}, {"name": "PartitionedCall/jax2tf_main_/vmap/vmap/pjit_fn_/Reshape_65/shape", "shape": [3], "dtype": "int32"}, {"name": "PartitionedCall/jax2tf_main_/vmap/vmap/Const_67", "shape": [], "dtype": "float32"}, {"name": "PartitionedCall/jax2tf_main_/vmap/vmap/pjit_remainder_/Less_37", "shape": [], "dtype": "bool"}, {"name": "PartitionedCall/jax2tf_main_/vmap/vmap/Const_66", "shape": [], "dtype": "float32"}, {"name": "PartitionedCall/Const_73", "shape": [], "dtype": "float32"}, {"name": "PartitionedCall/jax2tf_main_/vmap/vmap/pjit_fn_/Reshape_62/shape", "shape": [3], "dtype": "int32"}, {"name": "PartitionedCall/jax2tf_main_/vmap/vmap/Const_64", "shape": [], "dtype": "float32"}, {"name": "PartitionedCall/jax2tf_main_/vmap/vmap/pjit_remainder_/Less_35", "shape": [], "dtype": "bool"}, {"name": "PartitionedCall/jax2tf_main_/vmap/vmap/Const_63", "shape": [], "dtype": "float32"}, {"name": "PartitionedCall/Const_70", "shape": [], "dtype": "float32"}, {"name": "PartitionedCall/jax2tf_main_/vmap/vmap/pjit_fn_/Reshape_59/shape", "shape": [3], "dtype": "int32"}, {"name": "PartitionedCall/jax2tf_main_/vmap/vmap/Const_61", "shape": [], "dtype": "float32"}, {"name": "PartitionedCall/jax2tf_main_/vmap/vmap/pjit_remainder_/Less_33", "shape": [], "dtype": "bool"}, {"name": "PartitionedCall/jax2tf_main_/vmap/vmap/Const_60", "shape": [], "dtype": "float32"}, {"name": "PartitionedCall/Const_67", "shape": [], "dtype": "float32"}, {"name": "PartitionedCall/jax2tf_main_/vmap/vmap/pjit_fn_/Reshape_56/shape", "shape": [3], "dtype": "int32"}, {"name": "PartitionedCall/jax2tf_main_/vmap/vmap/Const_58", "shape": [], "dtype": "float32"}, {"name": "PartitionedCall/jax2tf_main_/vmap/vmap/pjit_remainder_/Less_31", "shape": [], "dtype": "bool"}, {"name": "PartitionedCall/jax2tf_main_/vmap/vmap/Const_57", "shape": [], "dtype": "float32"}, {"name": "PartitionedCall/Const_64", "shape": [], "dtype": "float32"}, {"name": "PartitionedCall/jax2tf_main_/vmap/vmap/pjit_fn_/Reshape_53/shape", "shape": [3], "dtype": "int32"}, {"name": "PartitionedCall/jax2tf_main_/vmap/vmap/Const_55", "shape": [], "dtype": "float32"}, {"name": "PartitionedCall/jax2tf_main_/vmap/vmap/pjit_remainder_/Less_29", "shape": [], "dtype": "bool"}, {"name": "PartitionedCall/jax2tf_main_/vmap/vmap/Const_54", "shape": [], "dtype": "float32"}, {"name": "PartitionedCall/Const_61", "shape": [], "dtype": "float32"}, {"name": "PartitionedCall/jax2tf_main_/vmap/vmap/pjit_fn_/Reshape_50/shape", "shape": [3], "dtype": "int32"}, {"name": "PartitionedCall/jax2tf_main_/vmap/vmap/Const_52", "shape": [], "dtype": "float32"}, {"name": "PartitionedCall/jax2tf_main_/vmap/vmap/pjit_remainder_/Less_27", "shape": [], "dtype": "bool"}, {"name": "PartitionedCall/jax2tf_main_/vmap/vmap/Const_51", "shape": [], "dtype": "float32"}, {"name": "PartitionedCall/Const_58", "shape": [], "dtype": "float32"}, {"name": "PartitionedCall/jax2tf_main_/vmap/vmap/pjit_fn_/Reshape_47/shape", "shape": [3], "dtype": "int32"}, {"name": "PartitionedCall/jax2tf_main_/vmap/vmap/Const_49", "shape": [], "dtype": "float32"}, {"name": "PartitionedCall/jax2tf_main_/vmap/vmap/pjit_remainder_/Less_25", "shape": [], "dtype": "bool"}, {"name": "PartitionedCall/jax2tf_main_/vmap/vmap/Const_48", "shape": [], "dtype": "float32"}, {"name": "PartitionedCall/Const_55", "shape": [], "dtype": "float32"}, {"name": "PartitionedCall/jax2tf_main_/vmap/vmap/pjit_fn_/Reshape_44/shape", "shape": [3], "dtype": "int32"}, {"name": "PartitionedCall/jax2tf_main_/vmap/vmap/Const_46", "shape": [], "dtype": "float32"}, {"name": "PartitionedCall/jax2tf_main_/vmap/vmap/pjit_remainder_/Less_23", "shape": [], "dtype": "bool"}, {"name": "PartitionedCall/jax2tf_main_/vmap/vmap/Const_45", "shape": [], "dtype": "float32"}, {"name": "PartitionedCall/Const_52", "shape": [], "dtype": "float32"}, {"name": "PartitionedCall/jax2tf_main_/vmap/vmap/pjit_fn_/Reshape_41/shape", "shape": [3], "dtype": "int32"}, {"name": "PartitionedCall/jax2tf_main_/vmap/vmap/Const_43", "shape": [], "dtype": "float32"}, {"name": "PartitionedCall/jax2tf_main_/vmap/vmap/pjit_remainder_/Less_21", "shape": [], "dtype": "bool"}, {"name": "PartitionedCall/jax2tf_main_/vmap/vmap/Const_42", "shape": [], "dtype": "float32"}, {"name": "PartitionedCall/Const_49", "shape": [], "dtype": "float32"}, {"name": "PartitionedCall/jax2tf_main_/vmap/vmap/pjit_fn_/Reshape_38/shape", "shape": [3], "dtype": "int32"}, {"name": "PartitionedCall/jax2tf_main_/vmap/vmap/Const_40", "shape": [], "dtype": "float32"}, {"name": "PartitionedCall/jax2tf_main_/vmap/vmap/pjit_remainder_/Less_19", "shape": [], "dtype": "bool"}, {"name": "PartitionedCall/jax2tf_main_/vmap/vmap/Const_39", "shape": [], "dtype": "float32"}, {"name": "PartitionedCall/Const_46", "shape": [], "dtype": "float32"}, {"name": "PartitionedCall/jax2tf_main_/vmap/vmap/pjit_fn_/Reshape_35/shape", "shape": [3], "dtype": "int32"}, {"name": "PartitionedCall/jax2tf_main_/vmap/vmap/Const_37", "shape": [], "dtype": "float32"}, {"name": "PartitionedCall/jax2tf_main_/vmap/vmap/pjit_remainder_/Less_17", "shape": [], "dtype": "bool"}, {"name": "PartitionedCall/jax2tf_main_/vmap/vmap/Const_36", "shape": [], "dtype": "float32"}, {"name": "PartitionedCall/Const_43", "shape": [], "dtype": "float32"}, {"name": "PartitionedCall/jax2tf_main_/vmap/vmap/pjit_fn_/Reshape_32/shape", "shape": [3], "dtype": "int32"}, {"name": "PartitionedCall/jax2tf_main_/vmap/vmap/Const_34", "shape": [], "dtype": "float32"}, {"name": "PartitionedCall/jax2tf_main_/vmap/vmap/pjit_remainder_/Less_15", "shape": [], "dtype": "bool"}, {"name": "PartitionedCall/jax2tf_main_/vmap/vmap/Const_33", "shape": [], "dtype": "float32"}, {"name": "PartitionedCall/Const_40", "shape": [], "dtype": "float32"}, {"name": "PartitionedCall/jax2tf_main_/vmap/vmap/pjit_fn_/Reshape_29/shape", "shape": [3], "dtype": "int32"}, {"name": "PartitionedCall/jax2tf_main_/vmap/vmap/Const_31", "shape": [], "dtype": "float32"}, {"name": "PartitionedCall/jax2tf_main_/vmap/vmap/pjit_remainder_/Less_13", "shape": [], "dtype": "bool"}, {"name": "PartitionedCall/jax2tf_main_/vmap/vmap/Const_30", "shape": [], "dtype": "float32"}, {"name": "PartitionedCall/Const_37", "shape": [], "dtype": "float32"}, {"name": "PartitionedCall/jax2tf_main_/vmap/vmap/pjit_fn_/Reshape_26/shape", "shape": [3], "dtype": "int32"}, {"name": "PartitionedCall/jax2tf_main_/vmap/vmap/Const_28", "shape": [], "dtype": "float32"}, {"name": "PartitionedCall/jax2tf_main_/vmap/vmap/pjit_remainder_/Less_11", "shape": [], "dtype": "bool"}, {"name": "PartitionedCall/jax2tf_main_/vmap/vmap/Const_27", "shape": [], "dtype": "float32"}, {"name": "PartitionedCall/Const_34", "shape": [], "dtype": "float32"}, {"name": "PartitionedCall/jax2tf_main_/vmap/vmap/pjit_fn_/Reshape_23/shape", "shape": [3], "dtype": "int32"}, {"name": "PartitionedCall/jax2tf_main_/vmap/vmap/Const_25", "shape": [], "dtype": "float32"}, {"name": "PartitionedCall/jax2tf_main_/vmap/vmap/pjit_remainder_/Less_9", "shape": [], "dtype": "bool"}, {"name": "PartitionedCall/jax2tf_main_/vmap/vmap/Const_24", "shape": [], "dtype": "float32"}, {"name": "PartitionedCall/Const_31", "shape": [], "dtype": "float32"}, {"name": "PartitionedCall/jax2tf_main_/vmap/vmap/pjit_fn_/Reshape_20/shape", "shape": [3], "dtype": "int32"}, {"name": "PartitionedCall/jax2tf_main_/vmap/vmap/Const_22", "shape": [], "dtype": "float32"}, {"name": "PartitionedCall/jax2tf_main_/vmap/vmap/pjit_remainder_/Less_7", "shape": [], "dtype": "bool"}, {"name": "PartitionedCall/jax2tf_main_/vmap/vmap/Const_21", "shape": [], "dtype": "float32"}, {"name": "PartitionedCall/Const_28", "shape": [], "dtype": "float32"}, {"name": "PartitionedCall/jax2tf_main_/vmap/vmap/pjit_fn_/Reshape_17/shape", "shape": [3], "dtype": "int32"}, {"name": "PartitionedCall/jax2tf_main_/vmap/vmap/Const_19", "shape": [], "dtype": "float32"}, {"name": "PartitionedCall/jax2tf_main_/vmap/vmap/pjit_remainder_/Less_5", "shape": [], "dtype": "bool"}, {"name": "PartitionedCall/jax2tf_main_/vmap/vmap/Const_18", "shape": [], "dtype": "float32"}, {"name": "PartitionedCall/Const_25", "shape": [], "dtype": "float32"}, {"name": "PartitionedCall/jax2tf_main_/vmap/vmap/pjit_fn_/Reshape_14/shape", "shape": [3], "dtype": "int32"}, {"name": "PartitionedCall/jax2tf_main_/vmap/vmap/Const_16", "shape": [], "dtype": "float32"}, {"name": "PartitionedCall/jax2tf_main_/vmap/vmap/pjit_remainder_/Less_3", "shape": [], "dtype": "bool"}, {"name": "PartitionedCall/jax2tf_main_/vmap/vmap/Const_15", "shape": [], "dtype": "float32"}, {"name": "PartitionedCall/Const_22", "shape": [], "dtype": "float32"}, {"name": "PartitionedCall/jax2tf_main_/vmap/vmap/pjit_fn_/Reshape_11/shape", "shape": [3], "dtype": "int32"}, {"name": "PartitionedCall/jax2tf_main_/vmap/vmap/Const_13", "shape": [], "dtype": "float32"}, {"name": "PartitionedCall/jax2tf_main_/vmap/vmap/pjit_remainder_/Less_1", "shape": [], "dtype": "bool"}, {"name": "PartitionedCall/jax2tf_main_/vmap/vmap/Const_12", "shape": [], "dtype": "float32"}, {"name": "PartitionedCall/Const_18", "shape": [], "dtype": "float32"}, {"name": "PartitionedCall/jax2tf_main_/vmap/vmap/pjit_fn_/Reshape_8/shape", "shape": [3], "dtype": "int32"}, {"name": "PartitionedCall/jax2tf_main_/vmap/vmap/pjit_fn_/Reshape_2/shape", "shape": [2], "dtype": "int32"}, {"name": "PartitionedCall/jax2tf_main_/vmap/vmap/pjit_fn_/BroadcastTo_1", "shape": [512, 1], "dtype": "float32"}, {"name": "PartitionedCall/jax2tf_main_/vmap/vmap/pjit_cross_/Reshape_15/shape", "shape": [1], "dtype": "int32"}, {"name": "PartitionedCall/jax2tf_main_/vmap/vmap/pjit_cross_/clip_by_value_8", "shape": [1], "dtype": "int32"}, {"name": "PartitionedCall/jax2tf_main_/vmap/vmap/pjit_cross_/add_8", "shape": [1], "dtype": "int32"}, {"name": "PartitionedCall/jax2tf_main_/vmap/vmap/pjit_cross_/ones_like_8", "shape": [1], "dtype": "int32"}, {"name": "PartitionedCall/jax2tf_main_/vmap/vmap/pjit_cross_/clip_by_value_11", "shape": [1], "dtype": "int32"}, {"name": "PartitionedCall/jax2tf_main_/vmap/vmap/pjit_cross_/add_11", "shape": [1], "dtype": "int32"}, {"name": "PartitionedCall/jax2tf_main_/vmap/vmap/pjit_cross_/ones_like_11", "shape": [1], "dtype": "int32"}, {"name": "PartitionedCall/jax2tf_main_/vmap/vmap/pjit_cross_/Reshape_16/shape", "shape": [1], "dtype": "int32"}, {"name": "PartitionedCall/jax2tf_main_/vmap/vmap/pjit_cross_/clip_by_value_6", "shape": [1], "dtype": "int32"}, {"name": "PartitionedCall/jax2tf_main_/vmap/vmap/pjit_cross_/add_6", "shape": [1], "dtype": "int32"}, {"name": "PartitionedCall/jax2tf_main_/vmap/vmap/pjit_cross_/ones_like_6", "shape": [1], "dtype": "int32"}, {"name": "PartitionedCall/jax2tf_main_/vmap/vmap/pjit_cross_/clip_by_value_10", "shape": [1], "dtype": "int32"}, {"name": "PartitionedCall/jax2tf_main_/vmap/vmap/pjit_cross_/add_10", "shape": [1], "dtype": "int32"}, {"name": "PartitionedCall/jax2tf_main_/vmap/vmap/pjit_cross_/ones_like_10", "shape": [1], "dtype": "int32"}, {"name": "PartitionedCall/jax2tf_main_/vmap/vmap/pjit_cross_/clip_by_value_7", "shape": [1], "dtype": "int32"}, {"name": "PartitionedCall/jax2tf_main_/vmap/vmap/pjit_cross_/add_7", "shape": [1], "dtype": "int32"}, {"name": "PartitionedCall/jax2tf_main_/vmap/vmap/pjit_cross_/ones_like_7", "shape": [1], "dtype": "int32"}, {"name": "PartitionedCall/jax2tf_main_/vmap/vmap/pjit_cross_/clip_by_value_9", "shape": [1], "dtype": "int32"}, {"name": "PartitionedCall/jax2tf_main_/vmap/vmap/pjit_cross_/add_9", "shape": [1], "dtype": "int32"}, {"name": "PartitionedCall/jax2tf_main_/vmap/vmap/pjit_cross_/ones_like_9", "shape": [1], "dtype": "int32"}, {"name": "PartitionedCall/jax2tf_main_/vmap/vmap/pjit_cross_/Reshape_17/shape", "shape": [1], "dtype": "int32"}, {"name": "PartitionedCall/jax2tf_main_/vmap/vmap/pjit_cross_/Cast_1/x", "shape": [], "dtype": "int32"}, {"name": "PartitionedCall/jax2tf_main_/vmap/vmap/pjit_fn_/Reshape/shape", "shape": [2], "dtype": "int32"}, {"name": "PartitionedCall/jax2tf_main_/vmap/vmap/pjit_fn_/Reshape_6/shape", "shape": [3], "dtype": "int32"}, {"name": "PartitionedCall/jax2tf_main_/vmap/vmap/pjit_fn_/BroadcastTo_4", "shape": [512, 1], "dtype": "float32"}, {"name": "PartitionedCall/jax2tf_main_/vmap/vmap/pjit_cross_/Reshape_6/shape", "shape": [1], "dtype": "int32"}, {"name": "PartitionedCall/jax2tf_main_/vmap/vmap/pjit_cross_/Reshape_7/shape", "shape": [1], "dtype": "int32"}, {"name": "PartitionedCall/jax2tf_main_/vmap/vmap/pjit_cross_/clip_by_value_4", "shape": [1], "dtype": "int32"}, {"name": "PartitionedCall/jax2tf_main_/vmap/vmap/pjit_cross_/add_4", "shape": [1], "dtype": "int32"}, {"name": "PartitionedCall/jax2tf_main_/vmap/vmap/pjit_cross_/ones_like_4", "shape": [1], "dtype": "int32"}, {"name": "PartitionedCall/jax2tf_main_/vmap/vmap/Reshape_2/shape", "shape": [1], "dtype": "int32"}, {"name": "PartitionedCall/jax2tf_main_/vmap/vmap/Reshape_3/shape", "shape": [1], "dtype": "int32"}, {"name": "PartitionedCall/jax2tf_main_/vmap/vmap/BroadcastTo_2", "shape": [1], "dtype": "float32"}, {"name": "PartitionedCall/jax2tf_main_/vmap/vmap/Cast/x", "shape": [], "dtype": "int32"}, {"name": "PartitionedCall/jax2tf_main_/vmap/vmap/Reshape_8/shape", "shape": [2], "dtype": "int32"}, {"name": "PartitionedCall/jax2tf_main_/vmap/vmap/Reshape_5/shape", "shape": [1], "dtype": "int32"}, {"name": "PartitionedCall/jax2tf_main_/vmap/vmap/strided_slice/stack", "shape": [1], "dtype": "int32"}, {"name": "PartitionedCall/jax2tf_main_/vmap/vmap/strided_slice/stack_1", "shape": [1], "dtype": "int32"}, {"name": "PartitionedCall/jax2tf_main_/vmap/vmap/strided_slice/stack_2", "shape": [1], "dtype": "int32"}, {"name": "PartitionedCall/jax2tf_main_/vmap/vmap/Reshape/shape_1", "shape": [0], "dtype": "int32"}, {"name": "ConstantFolding/PartitionedCall/jax2tf_main_/vmap/vmap/pjit_true_divide_/truediv_recip", "shape": [], "dtype": "float32"}, {"name": "PartitionedCall/jax2tf_main_/vmap/vmap/strided_slice_1/stack", "shape": [1], "dtype": "int32"}, {"name": "PartitionedCall/jax2tf_main_/vmap/vmap/strided_slice_1/stack_1", "shape": [1], "dtype": "int32"}, {"name": "PartitionedCall/jax2tf_main_/vmap/vmap/strided_slice_1/stack_2", "shape": [1], "dtype": "int32"}, {"name": "PartitionedCall/jax2tf_main_/vmap/vmap/Reshape_1/shape_1", "shape": [0], "dtype": "int32"}, {"name": "ConstantFolding/PartitionedCall/jax2tf_main_/vmap/vmap/pjit_true_divide_/truediv_1_recip", "shape": [], "dtype": "float32"}, {"name": "PartitionedCall/Const_7", "shape": [], "dtype": "float32"}, {"name": "PartitionedCall/jax2tf_main_/vmap/vmap/Reshape_6/shape", "shape": [1], "dtype": "int32"}, {"name": "PartitionedCall/jax2tf_main_/vmap/vmap/BroadcastTo_5", "shape": [1], "dtype": "float32"}, {"name": "PartitionedCall/jax2tf_main_/vmap/vmap/Cast_1/x", "shape": [], "dtype": "int32"}, {"name": "PartitionedCall/jax2tf_main_/vmap/vmap/Reshape_9/shape", "shape": [2], "dtype": "int32"}, {"name": "PartitionedCall/jax2tf_main_/vmap/vmap/BroadcastTo_8", "shape": [1, 3], "dtype": "float32"}, {"name": "PartitionedCall/jax2tf_main_/vmap/vmap/Cast_2/x", "shape": [], "dtype": "int32"}, {"name": "PartitionedCall/jax2tf_main_/vmap/vmap/pjit_matmul_/ExpandDims", "shape": [3, 1], "dtype": "float32"}, {"name": "ConstantFolding/PartitionedCall/jax2tf_main_/vmap/vmap/concat_3_partial_split_0", "shape": [2], "dtype": "float32"}, {"name": "PartitionedCall/jax2tf_main_/vmap/vmap/pjit_fn_/Cast", "shape": [], "dtype": "float32"}, {"name": "PartitionedCall/jax2tf_main_/vmap/vmap/strided_slice_2/stack", "shape": [1], "dtype": "int32"}, {"name": "PartitionedCall/jax2tf_main_/vmap/vmap/strided_slice_2/stack_1", "shape": [1], "dtype": "int32"}, {"name": "PartitionedCall/jax2tf_main_/vmap/vmap/strided_slice_2/stack_2", "shape": [1], "dtype": "int32"}, {"name": "PartitionedCall/jax2tf_main_/vmap/vmap/Reshape_11/shape_1", "shape": [0], "dtype": "int32"}, {"name": "ConstantFolding/PartitionedCall/jax2tf_main_/vmap/vmap/pjit_true_divide_/truediv_2_recip", "shape": [], "dtype": "float32"}, {"name": "PartitionedCall/Const_12", "shape": [], "dtype": "float32"}, {"name": "PartitionedCall/jax2tf_main_/vmap/vmap/Reshape_14/shape", "shape": [1], "dtype": "int32"}, {"name": "PartitionedCall/jax2tf_main_/vmap/vmap/Cast_3/x", "shape": [], "dtype": "int32"}, {"name": "PartitionedCall/jax2tf_main_/vmap/vmap/pjit_norm_/Sum/reduction_indices", "shape": [1], "dtype": "int32"}, {"name": "PartitionedCall/jax2tf_main_/vmap/vmap/pjit_cross_/clip_by_value_3", "shape": [1], "dtype": "int32"}, {"name": "PartitionedCall/jax2tf_main_/vmap/vmap/pjit_cross_/add_3", "shape": [1], "dtype": "int32"}, {"name": "PartitionedCall/jax2tf_main_/vmap/vmap/pjit_cross_/ones_like_3", "shape": [1], "dtype": "int32"}, {"name": "PartitionedCall/jax2tf_main_/vmap/vmap/pjit_cross_/Cast/x", "shape": [], "dtype": "int32"}, {"name": "PartitionedCall/jax2tf_main_/vmap/vmap/pjit_norm_/Sum_1/reduction_indices", "shape": [1], "dtype": "int32"}, {"name": "PartitionedCall/jax2tf_main_/vmap/vmap/pjit_fn_/Reshape_3/shape", "shape": [2], "dtype": "int32"}, {"name": "PartitionedCall/jax2tf_main_/vmap/vmap/pjit_fn_/Reshape_5/shape", "shape": [3], "dtype": "int32"}, {"name": "PartitionedCall/jax2tf_main_/vmap/vmap/pjit_norm_/Sum_2/reduction_indices", "shape": [1], "dtype": "int32"}, {"name": "PartitionedCall/jax2tf_main_/vmap/vmap/pjit_true_divide_/Reshape/shape", "shape": [3], "dtype": "int32"}, {"name": "PartitionedCall/jax2tf_main_/vmap/vmap/pjit_remainder_/Abs_1", "shape": [], "dtype": "float32"}, {"name": "PartitionedCall/Const_19", "shape": [], "dtype": "float32"}, {"name": "PartitionedCall/jax2tf_main_/vmap/vmap/pjit_norm_/Sum_3/reduction_indices", "shape": [1], "dtype": "int32"}, {"name": "PartitionedCall/Const_20", "shape": [], "dtype": "float32"}, {"name": "PartitionedCall/jax2tf_main_/vmap/vmap/pjit_fn_/Reshape_9/shape", "shape": [3], "dtype": "int32"}, {"name": "PartitionedCall/jax2tf_main_/vmap/vmap/pjit_remainder_/Abs_3", "shape": [], "dtype": "float32"}, {"name": "PartitionedCall/Const_23", "shape": [], "dtype": "float32"}, {"name": "PartitionedCall/jax2tf_main_/vmap/vmap/pjit_norm_/Sum_4/reduction_indices", "shape": [1], "dtype": "int32"}, {"name": "PartitionedCall/Const_24", "shape": [], "dtype": "float32"}, {"name": "PartitionedCall/jax2tf_main_/vmap/vmap/pjit_fn_/Reshape_12/shape", "shape": [3], "dtype": "int32"}, {"name": "PartitionedCall/jax2tf_main_/vmap/vmap/pjit_remainder_/Abs_5", "shape": [], "dtype": "float32"}, {"name": "PartitionedCall/Const_26", "shape": [], "dtype": "float32"}, {"name": "PartitionedCall/jax2tf_main_/vmap/vmap/pjit_norm_/Sum_5/reduction_indices", "shape": [1], "dtype": "int32"}, {"name": "PartitionedCall/Const_27", "shape": [], "dtype": "float32"}, {"name": "PartitionedCall/jax2tf_main_/vmap/vmap/pjit_fn_/Reshape_15/shape", "shape": [3], "dtype": "int32"}, {"name": "PartitionedCall/jax2tf_main_/vmap/vmap/pjit_remainder_/Abs_7", "shape": [], "dtype": "float32"}, {"name": "PartitionedCall/Const_29", "shape": [], "dtype": "float32"}, {"name": "PartitionedCall/jax2tf_main_/vmap/vmap/pjit_norm_/Sum_6/reduction_indices", "shape": [1], "dtype": "int32"}, {"name": "PartitionedCall/Const_30", "shape": [], "dtype": "float32"}, {"name": "PartitionedCall/jax2tf_main_/vmap/vmap/pjit_fn_/Reshape_18/shape", "shape": [3], "dtype": "int32"}, {"name": "PartitionedCall/jax2tf_main_/vmap/vmap/pjit_remainder_/Abs_9", "shape": [], "dtype": "float32"}, {"name": "PartitionedCall/Const_32", "shape": [], "dtype": "float32"}, {"name": "PartitionedCall/jax2tf_main_/vmap/vmap/pjit_norm_/Sum_7/reduction_indices", "shape": [1], "dtype": "int32"}, {"name": "PartitionedCall/Const_33", "shape": [], "dtype": "float32"}, {"name": "PartitionedCall/jax2tf_main_/vmap/vmap/pjit_fn_/Reshape_21/shape", "shape": [3], "dtype": "int32"}, {"name": "PartitionedCall/jax2tf_main_/vmap/vmap/pjit_remainder_/Abs_11", "shape": [], "dtype": "float32"}, {"name": "PartitionedCall/Const_35", "shape": [], "dtype": "float32"}, {"name": "PartitionedCall/jax2tf_main_/vmap/vmap/pjit_norm_/Sum_8/reduction_indices", "shape": [1], "dtype": "int32"}, {"name": "PartitionedCall/Const_36", "shape": [], "dtype": "float32"}, {"name": "PartitionedCall/jax2tf_main_/vmap/vmap/pjit_fn_/Reshape_24/shape", "shape": [3], "dtype": "int32"}, {"name": "PartitionedCall/jax2tf_main_/vmap/vmap/pjit_remainder_/Abs_13", "shape": [], "dtype": "float32"}, {"name": "PartitionedCall/Const_38", "shape": [], "dtype": "float32"}, {"name": "PartitionedCall/jax2tf_main_/vmap/vmap/pjit_norm_/Sum_9/reduction_indices", "shape": [1], "dtype": "int32"}, {"name": "PartitionedCall/Const_39", "shape": [], "dtype": "float32"}, {"name": "PartitionedCall/jax2tf_main_/vmap/vmap/pjit_fn_/Reshape_27/shape", "shape": [3], "dtype": "int32"}, {"name": "PartitionedCall/jax2tf_main_/vmap/vmap/pjit_remainder_/Abs_15", "shape": [], "dtype": "float32"}, {"name": "PartitionedCall/Const_41", "shape": [], "dtype": "float32"}, {"name": "PartitionedCall/jax2tf_main_/vmap/vmap/pjit_norm_/Sum_10/reduction_indices", "shape": [1], "dtype": "int32"}, {"name": "PartitionedCall/Const_42", "shape": [], "dtype": "float32"}, {"name": "PartitionedCall/jax2tf_main_/vmap/vmap/pjit_fn_/Reshape_30/shape", "shape": [3], "dtype": "int32"}, {"name": "PartitionedCall/jax2tf_main_/vmap/vmap/pjit_remainder_/Abs_17", "shape": [], "dtype": "float32"}, {"name": "PartitionedCall/Const_44", "shape": [], "dtype": "float32"}, {"name": "PartitionedCall/jax2tf_main_/vmap/vmap/pjit_norm_/Sum_11/reduction_indices", "shape": [1], "dtype": "int32"}, {"name": "PartitionedCall/Const_45", "shape": [], "dtype": "float32"}, {"name": "PartitionedCall/jax2tf_main_/vmap/vmap/pjit_fn_/Reshape_33/shape", "shape": [3], "dtype": "int32"}, {"name": "PartitionedCall/jax2tf_main_/vmap/vmap/pjit_remainder_/Abs_19", "shape": [], "dtype": "float32"}, {"name": "PartitionedCall/Const_47", "shape": [], "dtype": "float32"}, {"name": "PartitionedCall/jax2tf_main_/vmap/vmap/pjit_norm_/Sum_12/reduction_indices", "shape": [1], "dtype": "int32"}, {"name": "PartitionedCall/Const_48", "shape": [], "dtype": "float32"}, {"name": "PartitionedCall/jax2tf_main_/vmap/vmap/pjit_fn_/Reshape_36/shape", "shape": [3], "dtype": "int32"}, {"name": "PartitionedCall/jax2tf_main_/vmap/vmap/pjit_remainder_/Abs_21", "shape": [], "dtype": "float32"}, {"name": "PartitionedCall/Const_50", "shape": [], "dtype": "float32"}, {"name": "PartitionedCall/jax2tf_main_/vmap/vmap/pjit_norm_/Sum_13/reduction_indices", "shape": [1], "dtype": "int32"}, {"name": "PartitionedCall/Const_51", "shape": [], "dtype": "float32"}, {"name": "PartitionedCall/jax2tf_main_/vmap/vmap/pjit_fn_/Reshape_39/shape", "shape": [3], "dtype": "int32"}, {"name": "PartitionedCall/jax2tf_main_/vmap/vmap/pjit_remainder_/Abs_23", "shape": [], "dtype": "float32"}, {"name": "PartitionedCall/Const_53", "shape": [], "dtype": "float32"}, {"name": "PartitionedCall/jax2tf_main_/vmap/vmap/pjit_norm_/Sum_14/reduction_indices", "shape": [1], "dtype": "int32"}, {"name": "PartitionedCall/Const_54", "shape": [], "dtype": "float32"}, {"name": "PartitionedCall/jax2tf_main_/vmap/vmap/pjit_fn_/Reshape_42/shape", "shape": [3], "dtype": "int32"}, {"name": "PartitionedCall/jax2tf_main_/vmap/vmap/pjit_remainder_/Abs_25", "shape": [], "dtype": "float32"}, {"name": "PartitionedCall/Const_56", "shape": [], "dtype": "float32"}, {"name": "PartitionedCall/jax2tf_main_/vmap/vmap/pjit_norm_/Sum_15/reduction_indices", "shape": [1], "dtype": "int32"}, {"name": "PartitionedCall/Const_57", "shape": [], "dtype": "float32"}, {"name": "PartitionedCall/jax2tf_main_/vmap/vmap/pjit_fn_/Reshape_45/shape", "shape": [3], "dtype": "int32"}, {"name": "PartitionedCall/jax2tf_main_/vmap/vmap/pjit_remainder_/Abs_27", "shape": [], "dtype": "float32"}, {"name": "PartitionedCall/Const_59", "shape": [], "dtype": "float32"}, {"name": "PartitionedCall/jax2tf_main_/vmap/vmap/pjit_norm_/Sum_16/reduction_indices", "shape": [1], "dtype": "int32"}, {"name": "PartitionedCall/Const_60", "shape": [], "dtype": "float32"}, {"name": "PartitionedCall/jax2tf_main_/vmap/vmap/pjit_fn_/Reshape_48/shape", "shape": [3], "dtype": "int32"}, {"name": "PartitionedCall/jax2tf_main_/vmap/vmap/pjit_remainder_/Abs_29", "shape": [], "dtype": "float32"}, {"name": "PartitionedCall/Const_62", "shape": [], "dtype": "float32"}, {"name": "PartitionedCall/jax2tf_main_/vmap/vmap/pjit_norm_/Sum_17/reduction_indices", "shape": [1], "dtype": "int32"}, {"name": "PartitionedCall/Const_63", "shape": [], "dtype": "float32"}, {"name": "PartitionedCall/jax2tf_main_/vmap/vmap/pjit_fn_/Reshape_51/shape", "shape": [3], "dtype": "int32"}, {"name": "PartitionedCall/jax2tf_main_/vmap/vmap/pjit_remainder_/Abs_31", "shape": [], "dtype": "float32"}, {"name": "PartitionedCall/Const_65", "shape": [], "dtype": "float32"}, {"name": "PartitionedCall/jax2tf_main_/vmap/vmap/pjit_norm_/Sum_18/reduction_indices", "shape": [1], "dtype": "int32"}, {"name": "PartitionedCall/Const_66", "shape": [], "dtype": "float32"}, {"name": "PartitionedCall/jax2tf_main_/vmap/vmap/pjit_fn_/Reshape_54/shape", "shape": [3], "dtype": "int32"}, {"name": "PartitionedCall/jax2tf_main_/vmap/vmap/pjit_remainder_/Abs_33", "shape": [], "dtype": "float32"}, {"name": "PartitionedCall/Const_68", "shape": [], "dtype": "float32"}, {"name": "PartitionedCall/jax2tf_main_/vmap/vmap/pjit_norm_/Sum_19/reduction_indices", "shape": [1], "dtype": "int32"}, {"name": "PartitionedCall/Const_69", "shape": [], "dtype": "float32"}, {"name": "PartitionedCall/jax2tf_main_/vmap/vmap/pjit_fn_/Reshape_57/shape", "shape": [3], "dtype": "int32"}, {"name": "PartitionedCall/jax2tf_main_/vmap/vmap/pjit_remainder_/Abs_35", "shape": [], "dtype": "float32"}, {"name": "PartitionedCall/Const_71", "shape": [], "dtype": "float32"}, {"name": "PartitionedCall/jax2tf_main_/vmap/vmap/pjit_norm_/Sum_20/reduction_indices", "shape": [1], "dtype": "int32"}, {"name": "PartitionedCall/Const_72", "shape": [], "dtype": "float32"}, {"name": "PartitionedCall/jax2tf_main_/vmap/vmap/pjit_fn_/Reshape_60/shape", "shape": [3], "dtype": "int32"}, {"name": "PartitionedCall/jax2tf_main_/vmap/vmap/pjit_remainder_/Abs_37", "shape": [], "dtype": "float32"}, {"name": "PartitionedCall/Const_74", "shape": [], "dtype": "float32"}, {"name": "PartitionedCall/jax2tf_main_/vmap/vmap/pjit_norm_/Sum_21/reduction_indices", "shape": [1], "dtype": "int32"}, {"name": "PartitionedCall/Const_75", "shape": [], "dtype": "float32"}, {"name": "PartitionedCall/jax2tf_main_/vmap/vmap/pjit_fn_/Reshape_63/shape", "shape": [3], "dtype": "int32"}, {"name": "PartitionedCall/jax2tf_main_/vmap/vmap/pjit_remainder_/Abs_39", "shape": [], "dtype": "float32"}, {"name": "PartitionedCall/Const_77", "shape": [], "dtype": "float32"}, {"name": "PartitionedCall/jax2tf_main_/vmap/vmap/pjit_norm_/Sum_22/reduction_indices", "shape": [1], "dtype": "int32"}, {"name": "PartitionedCall/Const_78", "shape": [], "dtype": "float32"}, {"name": "PartitionedCall/jax2tf_main_/vmap/transpose/perm", "shape": [2], "dtype": "int32"}, {"name": "PartitionedCall/jax2tf_main_/vmap/vmap/pjit_cross_/Reshape_8", "shape": [1], "dtype": "float32"}, {"name": "ConstantFolding/PartitionedCall/jax2tf_main_/vmap/vmap/pjit_fn_/AddV2_4-broadcastto_shape-0", "shape": [3], "dtype": "int32"}]}]}