{"format": "graph-model", "generatedBy": "2.11.0", "convertedBy": "TensorFlow.js Converter v4.2.0", "signature": {"inputs": {"xs_0": {"name": "xs_0:0", "dtype": "DT_FLOAT", "tensorShape": {"dim": [{"size": "1"}]}}}, "outputs": {"output_0": {"name": "Identity:0", "dtype": "DT_FLOAT", "tensorShape": {"dim": [{"size": "92"}, {"size": "92"}, {"size": "3"}]}}}}, "modelTopology": {"node": [{"name": "StatefulPartitionedCall/jax2tf_main_/pjit_atleast_3d_/Reshape/shape", "op": "Const", "attr": {"dtype": {"type": "DT_INT32"}, "value": {"tensor": {"dtype": "DT_INT32", "tensorShape": {"dim": [{"size": "3"}]}}}}}, {"name": "StatefulPartitionedCall/jax2tf_main_/pjit_atleast_3d_/Reshape_1/shape", "op": "Const", "attr": {"value": {"tensor": {"dtype": "DT_INT32", "tensorShape": {"dim": [{"size": "3"}]}}}, "dtype": {"type": "DT_INT32"}}}, {"name": "StatefulPartitionedCall/Const_54", "op": "Const", "attr": {"dtype": {"type": "DT_FLOAT"}, "value": {"tensor": {"dtype": "DT_FLOAT", "tensorShape": {}}}}}, {"name": "StatefulPartitionedCall/Const_52", "op": "Const", "attr": {"dtype": {"type": "DT_FLOAT"}, "value": {"tensor": {"dtype": "DT_FLOAT", "tensorShape": {}}}}}, {"name": "StatefulPartitionedCall/jax2tf_main_/vmap/vmap/pjit__lambda__/Sub_20", "op": "Const", "attr": {"value": {"tensor": {"dtype": "DT_FLOAT", "tensorShape": {}}}, "dtype": {"type": "DT_FLOAT"}}}, {"name": "StatefulPartitionedCall/jax2tf_main_/vmap/vmap/pjit_fn_/BroadcastTo_35", "op": "Const", "attr": {"dtype": {"type": "DT_FLOAT"}, "value": {"tensor": {"dtype": "DT_FLOAT", "tensorShape": {"dim": [{"size": "1"}, {"size": "1"}, {"size": "3"}]}}}}}, {"name": "StatefulPartitionedCall/jax2tf_main_/vmap/vmap/pjit_fn_/BroadcastTo_32", "op": "Const", "attr": {"dtype": {"type": "DT_FLOAT"}, "value": {"tensor": {"dtype": "DT_FLOAT", "tensorShape": {"dim": [{"size": "1"}, {"size": "1"}, {"size": "3"}]}}}}}, {"name": "StatefulPartitionedCall/jax2tf_main_/vmap/vmap/pjit_fn_/BroadcastTo_29", "op": "Const", "attr": {"dtype": {"type": "DT_FLOAT"}, "value": {"tensor": {"dtype": "DT_FLOAT", "tensorShape": {"dim": [{"size": "1"}, {"size": "1"}, {"size": "3"}]}}}}}, {"name": "StatefulPartitionedCall/jax2tf_main_/vmap/vmap/pjit_fn_/BroadcastTo_26", "op": "Const", "attr": {"value": {"tensor": {"dtype": "DT_FLOAT", "tensorShape": {"dim": [{"size": "1"}, {"size": "1"}, {"size": "3"}]}}}, "dtype": {"type": "DT_FLOAT"}}}, {"name": "StatefulPartitionedCall/jax2tf_main_/vmap/vmap/pjit_fn_/BroadcastTo_23", "op": "Const", "attr": {"dtype": {"type": "DT_FLOAT"}, "value": {"tensor": {"dtype": "DT_FLOAT", "tensorShape": {"dim": [{"size": "1"}, {"size": "1"}, {"size": "3"}]}}}}}, {"name": "StatefulPartitionedCall/jax2tf_main_/vmap/vmap/pjit_fn_/BroadcastTo_20", "op": "Const", "attr": {"dtype": {"type": "DT_FLOAT"}, "value": {"tensor": {"dtype": "DT_FLOAT", "tensorShape": {"dim": [{"size": "1"}, {"size": "1"}, {"size": "3"}]}}}}}, {"name": "StatefulPartitionedCall/jax2tf_main_/vmap/vmap/pjit_fn_/BroadcastTo_17", "op": "Const", "attr": {"dtype": {"type": "DT_FLOAT"}, "value": {"tensor": {"dtype": "DT_FLOAT", "tensorShape": {"dim": [{"size": "1"}, {"size": "1"}, {"size": "3"}]}}}}}, {"name": "StatefulPartitionedCall/jax2tf_main_/vmap/vmap/pjit_fn_/BroadcastTo_14", "op": "Const", "attr": {"value": {"tensor": {"dtype": "DT_FLOAT", "tensorShape": {"dim": [{"size": "1"}, {"size": "1"}, {"size": "3"}]}}}, "dtype": {"type": "DT_FLOAT"}}}, {"name": "StatefulPartitionedCall/jax2tf_main_/vmap/vmap/pjit_fn_/BroadcastTo_11", "op": "Const", "attr": {"dtype": {"type": "DT_FLOAT"}, "value": {"tensor": {"dtype": "DT_FLOAT", "tensorShape": {"dim": [{"size": "1"}, {"size": "1"}, {"size": "3"}]}}}}}, {"name": "StatefulPartitionedCall/jax2tf_main_/vmap/vmap/pjit__lambda__/BroadcastTo_3", "op": "Const", "attr": {"dtype": {"type": "DT_FLOAT"}, "value": {"tensor": {"dtype": "DT_FLOAT", "tensorShape": {"dim": [{"size": "1"}, {"size": "1"}, {"size": "3"}]}}}}}, {"name": "StatefulPartitionedCall/jax2tf_main_/vmap/vmap/pjit_norm_/Sum_4/reduction_indices", "op": "Const", "attr": {"value": {"tensor": {"dtype": "DT_INT32", "tensorShape": {"dim": [{"size": "1"}]}}}, "dtype": {"type": "DT_INT32"}}}, {"name": "StatefulPartitionedCall/jax2tf_main_/vmap/vmap/pjit_true_divide_/truediv", "op": "Const", "attr": {"value": {"tensor": {"dtype": "DT_FLOAT", "tensorShape": {"dim": [{"size": "3"}]}}}, "dtype": {"type": "DT_FLOAT"}}}, {"name": "StatefulPartitionedCall/jax2tf_main_/vmap/vmap/clip_by_value", "op": "Const", "attr": {"value": {"tensor": {"dtype": "DT_INT32", "tensorShape": {"dim": [{"size": "1"}]}}}, "dtype": {"type": "DT_INT32"}}}, {"name": "StatefulPartitionedCall/jax2tf_main_/vmap/vmap/Slice/size", "op": "Const", "attr": {"value": {"tensor": {"dtype": "DT_INT32", "tensorShape": {"dim": [{"size": "1"}]}}}, "dtype": {"type": "DT_INT32"}}}, {"name": "StatefulPartitionedCall/jax2tf_main_/vmap/vmap/Reshape/shape_1", "op": "Const", "attr": {"value": {"tensor": {"dtype": "DT_INT32", "tensorShape": {"dim": [{}]}}}, "dtype": {"type": "DT_INT32"}}}, {"name": "StatefulPartitionedCall/jax2tf_main_/vmap/vmap/pjit_fn_/Reshape_2/shape", "op": "Const", "attr": {"dtype": {"type": "DT_INT32"}, "value": {"tensor": {"dtype": "DT_INT32", "tensorShape": {"dim": [{"size": "2"}]}}}}}, {"name": "StatefulPartitionedCall/jax2tf_main_/vmap/vmap/pjit_fn_/Mul_1", "op": "Const", "attr": {"dtype": {"type": "DT_FLOAT"}, "value": {"tensor": {"dtype": "DT_FLOAT", "tensorShape": {"dim": [{"size": "92"}, {"size": "3"}]}}}}}, {"name": "StatefulPartitionedCall/jax2tf_main_/vmap/vmap/pjit_fn_/Reshape_6/shape", "op": "Const", "attr": {"value": {"tensor": {"dtype": "DT_INT32", "tensorShape": {"dim": [{"size": "3"}]}}}, "dtype": {"type": "DT_INT32"}}}, {"name": "StatefulPartitionedCall/jax2tf_main_/vmap/vmap/pjit_fn_/BroadcastTo_5", "op": "Const", "attr": {"dtype": {"type": "DT_FLOAT"}, "value": {"tensor": {"dtype": "DT_FLOAT", "tensorShape": {"dim": [{"size": "92"}, {"size": "1"}, {"size": "3"}]}}}}}, {"name": "StatefulPartitionedCall/jax2tf_main_/vmap/vmap/pjit_norm_/Sum_2/reduction_indices", "op": "Const", "attr": {"value": {"tensor": {"dtype": "DT_INT32", "tensorShape": {"dim": [{"size": "1"}]}}}, "dtype": {"type": "DT_INT32"}}}, {"name": "StatefulPartitionedCall/jax2tf_main_/vmap/vmap/pjit_true_divide_/Reshape/shape", "op": "Const", "attr": {"value": {"tensor": {"dtype": "DT_INT32", "tensorShape": {"dim": [{"size": "3"}]}}}, "dtype": {"type": "DT_INT32"}}}, {"name": "StatefulPartitionedCall/jax2tf_main_/vmap/vmap/pjit_fn_/Reshape_12/shape", "op": "Const", "attr": {"value": {"tensor": {"dtype": "DT_INT32", "tensorShape": {"dim": [{"size": "3"}]}}}, "dtype": {"type": "DT_INT32"}}}, {"name": "StatefulPartitionedCall/jax2tf_main_/vmap/vmap/pjit__lambda__/BroadcastTo_5", "op": "Const", "attr": {"dtype": {"type": "DT_FLOAT"}, "value": {"tensor": {"dtype": "DT_FLOAT", "tensorShape": {"dim": [{"size": "1"}, {"size": "1"}, {"size": "3"}]}}}}}, {"name": "StatefulPartitionedCall/jax2tf_main_/vmap/vmap/pjit_norm_/Sum_5/reduction_indices", "op": "Const", "attr": {"dtype": {"type": "DT_INT32"}, "value": {"tensor": {"dtype": "DT_INT32", "tensorShape": {"dim": [{"size": "1"}]}}}}}, {"name": "StatefulPartitionedCall/Const_25", "op": "Const", "attr": {"dtype": {"type": "DT_FLOAT"}, "value": {"tensor": {"dtype": "DT_FLOAT", "tensorShape": {}}}}}, {"name": "StatefulPartitionedCall/jax2tf_main_/vmap/vmap/pjit_fn_/Reshape_15/shape", "op": "Const", "attr": {"dtype": {"type": "DT_INT32"}, "value": {"tensor": {"dtype": "DT_INT32", "tensorShape": {"dim": [{"size": "3"}]}}}}}, {"name": "StatefulPartitionedCall/jax2tf_main_/vmap/vmap/pjit__lambda__/BroadcastTo_7", "op": "Const", "attr": {"dtype": {"type": "DT_FLOAT"}, "value": {"tensor": {"dtype": "DT_FLOAT", "tensorShape": {"dim": [{"size": "1"}, {"size": "1"}, {"size": "3"}]}}}}}, {"name": "StatefulPartitionedCall/jax2tf_main_/vmap/vmap/pjit_norm_/Sum_6/reduction_indices", "op": "Const", "attr": {"value": {"tensor": {"dtype": "DT_INT32", "tensorShape": {"dim": [{"size": "1"}]}}}, "dtype": {"type": "DT_INT32"}}}, {"name": "StatefulPartitionedCall/Const_28", "op": "Const", "attr": {"dtype": {"type": "DT_FLOAT"}, "value": {"tensor": {"dtype": "DT_FLOAT", "tensorShape": {}}}}}, {"name": "StatefulPartitionedCall/jax2tf_main_/vmap/vmap/pjit_fn_/Reshape_18/shape", "op": "Const", "attr": {"value": {"tensor": {"dtype": "DT_INT32", "tensorShape": {"dim": [{"size": "3"}]}}}, "dtype": {"type": "DT_INT32"}}}, {"name": "StatefulPartitionedCall/jax2tf_main_/vmap/vmap/pjit__lambda__/BroadcastTo_9", "op": "Const", "attr": {"value": {"tensor": {"dtype": "DT_FLOAT", "tensorShape": {"dim": [{"size": "1"}, {"size": "1"}, {"size": "3"}]}}}, "dtype": {"type": "DT_FLOAT"}}}, {"name": "StatefulPartitionedCall/jax2tf_main_/vmap/vmap/pjit_norm_/Sum_7/reduction_indices", "op": "Const", "attr": {"dtype": {"type": "DT_INT32"}, "value": {"tensor": {"dtype": "DT_INT32", "tensorShape": {"dim": [{"size": "1"}]}}}}}, {"name": "StatefulPartitionedCall/Const_31", "op": "Const", "attr": {"value": {"tensor": {"dtype": "DT_FLOAT", "tensorShape": {}}}, "dtype": {"type": "DT_FLOAT"}}}, {"name": "StatefulPartitionedCall/jax2tf_main_/vmap/vmap/pjit_fn_/Reshape_21/shape", "op": "Const", "attr": {"dtype": {"type": "DT_INT32"}, "value": {"tensor": {"dtype": "DT_INT32", "tensorShape": {"dim": [{"size": "3"}]}}}}}, {"name": "StatefulPartitionedCall/jax2tf_main_/vmap/vmap/pjit__lambda__/BroadcastTo_11", "op": "Const", "attr": {"dtype": {"type": "DT_FLOAT"}, "value": {"tensor": {"dtype": "DT_FLOAT", "tensorShape": {"dim": [{"size": "1"}, {"size": "1"}, {"size": "3"}]}}}}}, {"name": "StatefulPartitionedCall/jax2tf_main_/vmap/vmap/pjit_norm_/Sum_8/reduction_indices", "op": "Const", "attr": {"value": {"tensor": {"dtype": "DT_INT32", "tensorShape": {"dim": [{"size": "1"}]}}}, "dtype": {"type": "DT_INT32"}}}, {"name": "StatefulPartitionedCall/Const_34", "op": "Const", "attr": {"dtype": {"type": "DT_FLOAT"}, "value": {"tensor": {"dtype": "DT_FLOAT", "tensorShape": {}}}}}, {"name": "StatefulPartitionedCall/jax2tf_main_/vmap/vmap/pjit_fn_/Reshape_24/shape", "op": "Const", "attr": {"value": {"tensor": {"dtype": "DT_INT32", "tensorShape": {"dim": [{"size": "3"}]}}}, "dtype": {"type": "DT_INT32"}}}, {"name": "StatefulPartitionedCall/jax2tf_main_/vmap/vmap/pjit__lambda__/BroadcastTo_13", "op": "Const", "attr": {"value": {"tensor": {"dtype": "DT_FLOAT", "tensorShape": {"dim": [{"size": "1"}, {"size": "1"}, {"size": "3"}]}}}, "dtype": {"type": "DT_FLOAT"}}}, {"name": "StatefulPartitionedCall/jax2tf_main_/vmap/vmap/pjit_norm_/Sum_9/reduction_indices", "op": "Const", "attr": {"value": {"tensor": {"dtype": "DT_INT32", "tensorShape": {"dim": [{"size": "1"}]}}}, "dtype": {"type": "DT_INT32"}}}, {"name": "StatefulPartitionedCall/Const_37", "op": "Const", "attr": {"value": {"tensor": {"dtype": "DT_FLOAT", "tensorShape": {}}}, "dtype": {"type": "DT_FLOAT"}}}, {"name": "StatefulPartitionedCall/jax2tf_main_/vmap/vmap/pjit_fn_/Reshape_27/shape", "op": "Const", "attr": {"dtype": {"type": "DT_INT32"}, "value": {"tensor": {"dtype": "DT_INT32", "tensorShape": {"dim": [{"size": "3"}]}}}}}, {"name": "StatefulPartitionedCall/jax2tf_main_/vmap/vmap/pjit__lambda__/BroadcastTo_15", "op": "Const", "attr": {"value": {"tensor": {"dtype": "DT_FLOAT", "tensorShape": {"dim": [{"size": "1"}, {"size": "1"}, {"size": "3"}]}}}, "dtype": {"type": "DT_FLOAT"}}}, {"name": "StatefulPartitionedCall/jax2tf_main_/vmap/vmap/pjit_norm_/Sum_10/reduction_indices", "op": "Const", "attr": {"value": {"tensor": {"dtype": "DT_INT32", "tensorShape": {"dim": [{"size": "1"}]}}}, "dtype": {"type": "DT_INT32"}}}, {"name": "StatefulPartitionedCall/Const_40", "op": "Const", "attr": {"dtype": {"type": "DT_FLOAT"}, "value": {"tensor": {"dtype": "DT_FLOAT", "tensorShape": {}}}}}, {"name": "StatefulPartitionedCall/jax2tf_main_/vmap/vmap/pjit_fn_/Reshape_30/shape", "op": "Const", "attr": {"dtype": {"type": "DT_INT32"}, "value": {"tensor": {"dtype": "DT_INT32", "tensorShape": {"dim": [{"size": "3"}]}}}}}, {"name": "StatefulPartitionedCall/jax2tf_main_/vmap/vmap/pjit__lambda__/BroadcastTo_17", "op": "Const", "attr": {"value": {"tensor": {"dtype": "DT_FLOAT", "tensorShape": {"dim": [{"size": "1"}, {"size": "1"}, {"size": "3"}]}}}, "dtype": {"type": "DT_FLOAT"}}}, {"name": "StatefulPartitionedCall/jax2tf_main_/vmap/vmap/pjit_norm_/Sum_11/reduction_indices", "op": "Const", "attr": {"value": {"tensor": {"dtype": "DT_INT32", "tensorShape": {"dim": [{"size": "1"}]}}}, "dtype": {"type": "DT_INT32"}}}, {"name": "StatefulPartitionedCall/Const_43", "op": "Const", "attr": {"value": {"tensor": {"dtype": "DT_FLOAT", "tensorShape": {}}}, "dtype": {"type": "DT_FLOAT"}}}, {"name": "StatefulPartitionedCall/jax2tf_main_/vmap/vmap/pjit_fn_/Reshape_33/shape", "op": "Const", "attr": {"value": {"tensor": {"dtype": "DT_INT32", "tensorShape": {"dim": [{"size": "3"}]}}}, "dtype": {"type": "DT_INT32"}}}, {"name": "StatefulPartitionedCall/jax2tf_main_/vmap/vmap/pjit__lambda__/BroadcastTo_19", "op": "Const", "attr": {"dtype": {"type": "DT_FLOAT"}, "value": {"tensor": {"dtype": "DT_FLOAT", "tensorShape": {"dim": [{"size": "1"}, {"size": "1"}, {"size": "3"}]}}}}}, {"name": "StatefulPartitionedCall/jax2tf_main_/vmap/vmap/pjit_norm_/Sum_12/reduction_indices", "op": "Const", "attr": {"dtype": {"type": "DT_INT32"}, "value": {"tensor": {"dtype": "DT_INT32", "tensorShape": {"dim": [{"size": "1"}]}}}}}, {"name": "StatefulPartitionedCall/jax2tf_main_/vmap/transpose/perm", "op": "Const", "attr": {"dtype": {"type": "DT_INT32"}, "value": {"tensor": {"dtype": "DT_INT32", "tensorShape": {"dim": [{"size": "2"}]}}}}}, {"name": "StatefulPartitionedCall/jax2tf_main_/pjit_atleast_3d_/Reshape_2/shape", "op": "Const", "attr": {"dtype": {"type": "DT_INT32"}, "value": {"tensor": {"dtype": "DT_INT32", "tensorShape": {"dim": [{"size": "3"}]}}}}}, {"name": "StatefulPartitionedCall/jax2tf_main_/concat/axis", "op": "Const", "attr": {"value": {"tensor": {"dtype": "DT_INT32", "tensorShape": {}}}, "dtype": {"type": "DT_INT32"}}}, {"name": "xs_0", "op": "Placeholder", "attr": {"dtype": {"type": "DT_FLOAT"}, "shape": {"shape": {"dim": [{"size": "1"}]}}}}, {"name": "StatefulPartitionedCall/jax2tf_main_/vmap/vmap/Slice", "op": "Slice", "input": ["xs_0", "StatefulPartitionedCall/jax2tf_main_/vmap/vmap/clip_by_value", "StatefulPartitionedCall/jax2tf_main_/vmap/vmap/Slice/size"], "attr": {"Index": {"type": "DT_INT32"}, "T": {"type": "DT_FLOAT"}}}, {"name": "StatefulPartitionedCall/jax2tf_main_/vmap/vmap/Reshape", "op": "Reshape", "input": ["StatefulPartitionedCall/jax2tf_main_/vmap/vmap/Slice", "StatefulPartitionedCall/jax2tf_main_/vmap/vmap/Reshape/shape_1"], "attr": {"T": {"type": "DT_FLOAT"}, "Tshape": {"type": "DT_INT32"}}}, {"name": "StatefulPartitionedCall/jax2tf_main_/vmap/vmap/pjit_fn_/Mul", "op": "Mul", "input": ["StatefulPartitionedCall/jax2tf_main_/vmap/vmap/pjit_true_divide_/truediv", "StatefulPartitionedCall/jax2tf_main_/vmap/vmap/Reshape"], "attr": {"T": {"type": "DT_FLOAT"}}}, {"name": "StatefulPartitionedCall/jax2tf_main_/vmap/vmap/pjit_fn_/Reshape_2", "op": "Reshape", "input": ["StatefulPartitionedCall/jax2tf_main_/vmap/vmap/pjit_fn_/Mul", "StatefulPartitionedCall/jax2tf_main_/vmap/vmap/pjit_fn_/Reshape_2/shape"], "attr": {"T": {"type": "DT_FLOAT"}, "Tshape": {"type": "DT_INT32"}}}, {"name": "StatefulPartitionedCall/jax2tf_main_/vmap/vmap/pjit_fn_/AddV2", "op": "AddV2", "input": ["StatefulPartitionedCall/jax2tf_main_/vmap/vmap/pjit_fn_/Reshape_2", "StatefulPartitionedCall/jax2tf_main_/vmap/vmap/pjit_fn_/Mul_1"], "attr": {"T": {"type": "DT_FLOAT"}}}, {"name": "StatefulPartitionedCall/jax2tf_main_/vmap/vmap/pjit_fn_/Reshape_6", "op": "Reshape", "input": ["StatefulPartitionedCall/jax2tf_main_/vmap/vmap/pjit_fn_/AddV2", "StatefulPartitionedCall/jax2tf_main_/vmap/vmap/pjit_fn_/Reshape_6/shape"], "attr": {"Tshape": {"type": "DT_INT32"}, "T": {"type": "DT_FLOAT"}}}, {"name": "StatefulPartitionedCall/jax2tf_main_/vmap/vmap/pjit_fn_/AddV2_1", "op": "AddV2", "input": ["StatefulPartitionedCall/jax2tf_main_/vmap/vmap/pjit_fn_/Reshape_6", "StatefulPartitionedCall/jax2tf_main_/vmap/vmap/pjit_fn_/BroadcastTo_5"], "attr": {"T": {"type": "DT_FLOAT"}}}, {"name": "StatefulPartitionedCall/jax2tf_main_/vmap/vmap/pjit_norm_/ArithmeticOptimizer/ReplaceMulWithSquare_Mul_2", "op": "Square", "input": ["StatefulPartitionedCall/jax2tf_main_/vmap/vmap/pjit_fn_/AddV2_1"], "attr": {"T": {"type": "DT_FLOAT"}}}, {"name": "StatefulPartitionedCall/jax2tf_main_/vmap/vmap/pjit_norm_/Sum_2", "op": "Sum", "input": ["StatefulPartitionedCall/jax2tf_main_/vmap/vmap/pjit_norm_/ArithmeticOptimizer/ReplaceMulWithSquare_Mul_2", "StatefulPartitionedCall/jax2tf_main_/vmap/vmap/pjit_norm_/Sum_2/reduction_indices"], "attr": {"keep_dims": {"b": false}, "T": {"type": "DT_FLOAT"}, "Tidx": {"type": "DT_INT32"}}}, {"name": "StatefulPartitionedCall/jax2tf_main_/vmap/vmap/pjit_norm_/Sqrt_2", "op": "Sqrt", "input": ["StatefulPartitionedCall/jax2tf_main_/vmap/vmap/pjit_norm_/Sum_2"], "attr": {"T": {"type": "DT_FLOAT"}}}, {"name": "StatefulPartitionedCall/jax2tf_main_/vmap/vmap/pjit_true_divide_/Reshape", "op": "Reshape", "input": ["StatefulPartitionedCall/jax2tf_main_/vmap/vmap/pjit_norm_/Sqrt_2", "StatefulPartitionedCall/jax2tf_main_/vmap/vmap/pjit_true_divide_/Reshape/shape"], "attr": {"Tshape": {"type": "DT_INT32"}, "T": {"type": "DT_FLOAT"}}}, {"name": "StatefulPartitionedCall/jax2tf_main_/vmap/vmap/pjit_true_divide_/truediv_2", "op": "RealDiv", "input": ["StatefulPartitionedCall/jax2tf_main_/vmap/vmap/pjit_fn_/AddV2_1", "StatefulPartitionedCall/jax2tf_main_/vmap/vmap/pjit_true_divide_/Reshape"], "attr": {"T": {"type": "DT_FLOAT"}}}, {"name": "StatefulPartitionedCall/jax2tf_main_/vmap/vmap/pjit_fn_/BroadcastTo_9", "op": "Const", "input": ["^StatefulPartitionedCall/jax2tf_main_/vmap/vmap/pjit_true_divide_/truediv_2"], "attr": {"value": {"tensor": {"dtype": "DT_FLOAT", "tensorShape": {"dim": [{"size": "92"}, {"size": "92"}, {"size": "1"}]}}}, "dtype": {"type": "DT_FLOAT"}}}, {"name": "StatefulPartitionedCall/jax2tf_main_/vmap/vmap/pjit__lambda__/Sub_4", "op": "Const", "input": ["^StatefulPartitionedCall/jax2tf_main_/vmap/vmap/pjit_true_divide_/truediv_2"], "attr": {"value": {"tensor": {"dtype": "DT_FLOAT", "tensorShape": {"dim": [{"size": "92"}, {"size": "92"}]}}}, "dtype": {"type": "DT_FLOAT"}}}, {"name": "StatefulPartitionedCall/jax2tf_main_/vmap/vmap/pjit_fn_/Mul_4", "op": "Mul", "input": ["StatefulPartitionedCall/jax2tf_main_/vmap/vmap/pjit_true_divide_/truediv_2", "StatefulPartitionedCall/jax2tf_main_/vmap/vmap/pjit_fn_/BroadcastTo_9"], "attr": {"T": {"type": "DT_FLOAT"}}}, {"name": "StatefulPartitionedCall/jax2tf_main_/vmap/vmap/pjit_fn_/AddV2_4", "op": "AddV2", "input": ["StatefulPartitionedCall/jax2tf_main_/vmap/vmap/pjit_fn_/BroadcastTo_11", "StatefulPartitionedCall/jax2tf_main_/vmap/vmap/pjit_fn_/Mul_4"], "attr": {"T": {"type": "DT_FLOAT"}}}, {"name": "StatefulPartitionedCall/jax2tf_main_/vmap/vmap/pjit_absolute_/Abs_1", "op": "Abs", "input": ["StatefulPartitionedCall/jax2tf_main_/vmap/vmap/pjit_fn_/AddV2_4"], "attr": {"T": {"type": "DT_FLOAT"}}}, {"name": "StatefulPartitionedCall/jax2tf_main_/vmap/vmap/pjit__lambda__/Sub_3", "op": "SquaredDifference", "input": ["StatefulPartitionedCall/jax2tf_main_/vmap/vmap/pjit_absolute_/Abs_1", "StatefulPartitionedCall/jax2tf_main_/vmap/vmap/pjit__lambda__/BroadcastTo_3"], "attr": {"T": {"type": "DT_FLOAT"}}}, {"name": "StatefulPartitionedCall/jax2tf_main_/vmap/vmap/pjit_norm_/Sum_4", "op": "Sum", "input": ["StatefulPartitionedCall/jax2tf_main_/vmap/vmap/pjit__lambda__/Sub_3", "StatefulPartitionedCall/jax2tf_main_/vmap/vmap/pjit_norm_/Sum_4/reduction_indices"], "attr": {"keep_dims": {"b": false}, "Tidx": {"type": "DT_INT32"}, "T": {"type": "DT_FLOAT"}}}, {"name": "StatefulPartitionedCall/jax2tf_main_/vmap/vmap/pjit_norm_/Sqrt_4", "op": "Sqrt", "input": ["StatefulPartitionedCall/jax2tf_main_/vmap/vmap/pjit_norm_/Sum_4"], "attr": {"T": {"type": "DT_FLOAT"}}}, {"name": "StatefulPartitionedCall/jax2tf_main_/vmap/vmap/pjit_fn_/AddV2_5", "op": "Add", "input": ["StatefulPartitionedCall/jax2tf_main_/vmap/vmap/pjit_norm_/Sqrt_4", "StatefulPartitionedCall/jax2tf_main_/vmap/vmap/pjit__lambda__/Sub_4"], "attr": {"T": {"type": "DT_FLOAT"}}}, {"name": "StatefulPartitionedCall/jax2tf_main_/vmap/vmap/pjit_fn_/Reshape_12", "op": "Reshape", "input": ["StatefulPartitionedCall/jax2tf_main_/vmap/vmap/pjit_fn_/AddV2_5", "StatefulPartitionedCall/jax2tf_main_/vmap/vmap/pjit_fn_/Reshape_12/shape"], "attr": {"Tshape": {"type": "DT_INT32"}, "T": {"type": "DT_FLOAT"}}}, {"name": "StatefulPartitionedCall/jax2tf_main_/vmap/vmap/pjit_fn_/Mul_5", "op": "Mul", "input": ["StatefulPartitionedCall/jax2tf_main_/vmap/vmap/pjit_true_divide_/truediv_2", "StatefulPartitionedCall/jax2tf_main_/vmap/vmap/pjit_fn_/Reshape_12"], "attr": {"T": {"type": "DT_FLOAT"}}}, {"name": "StatefulPartitionedCall/jax2tf_main_/vmap/vmap/pjit_fn_/AddV2_6", "op": "AddV2", "input": ["StatefulPartitionedCall/jax2tf_main_/vmap/vmap/pjit_fn_/BroadcastTo_14", "StatefulPartitionedCall/jax2tf_main_/vmap/vmap/pjit_fn_/Mul_5"], "attr": {"T": {"type": "DT_FLOAT"}}}, {"name": "StatefulPartitionedCall/jax2tf_main_/vmap/vmap/pjit_absolute_/Abs_2", "op": "Abs", "input": ["StatefulPartitionedCall/jax2tf_main_/vmap/vmap/pjit_fn_/AddV2_6"], "attr": {"T": {"type": "DT_FLOAT"}}}, {"name": "StatefulPartitionedCall/jax2tf_main_/vmap/vmap/pjit__lambda__/Sub_5", "op": "SquaredDifference", "input": ["StatefulPartitionedCall/jax2tf_main_/vmap/vmap/pjit_absolute_/Abs_2", "StatefulPartitionedCall/jax2tf_main_/vmap/vmap/pjit__lambda__/BroadcastTo_5"], "attr": {"T": {"type": "DT_FLOAT"}}}, {"name": "StatefulPartitionedCall/jax2tf_main_/vmap/vmap/pjit_norm_/Sum_5", "op": "Sum", "input": ["StatefulPartitionedCall/jax2tf_main_/vmap/vmap/pjit__lambda__/Sub_5", "StatefulPartitionedCall/jax2tf_main_/vmap/vmap/pjit_norm_/Sum_5/reduction_indices"], "attr": {"Tidx": {"type": "DT_INT32"}, "T": {"type": "DT_FLOAT"}, "keep_dims": {"b": false}}}, {"name": "StatefulPartitionedCall/jax2tf_main_/vmap/vmap/pjit_norm_/Sqrt_5", "op": "Sqrt", "input": ["StatefulPartitionedCall/jax2tf_main_/vmap/vmap/pjit_norm_/Sum_5"], "attr": {"T": {"type": "DT_FLOAT"}}}, {"name": "StatefulPartitionedCall/jax2tf_main_/vmap/vmap/pjit__lambda__/Sub_6", "op": "Sub", "input": ["StatefulPartitionedCall/jax2tf_main_/vmap/vmap/pjit_norm_/Sqrt_5", "StatefulPartitionedCall/Const_25"], "attr": {"T": {"type": "DT_FLOAT"}}}, {"name": "StatefulPartitionedCall/jax2tf_main_/vmap/vmap/pjit_fn_/AddV2_7", "op": "AddV2", "input": ["StatefulPartitionedCall/jax2tf_main_/vmap/vmap/pjit_fn_/AddV2_5", "StatefulPartitionedCall/jax2tf_main_/vmap/vmap/pjit__lambda__/Sub_6"], "attr": {"T": {"type": "DT_FLOAT"}}}, {"name": "StatefulPartitionedCall/jax2tf_main_/vmap/vmap/pjit_fn_/Reshape_15", "op": "Reshape", "input": ["StatefulPartitionedCall/jax2tf_main_/vmap/vmap/pjit_fn_/AddV2_7", "StatefulPartitionedCall/jax2tf_main_/vmap/vmap/pjit_fn_/Reshape_15/shape"], "attr": {"T": {"type": "DT_FLOAT"}, "Tshape": {"type": "DT_INT32"}}}, {"name": "StatefulPartitionedCall/jax2tf_main_/vmap/vmap/pjit_fn_/Mul_6", "op": "Mul", "input": ["StatefulPartitionedCall/jax2tf_main_/vmap/vmap/pjit_true_divide_/truediv_2", "StatefulPartitionedCall/jax2tf_main_/vmap/vmap/pjit_fn_/Reshape_15"], "attr": {"T": {"type": "DT_FLOAT"}}}, {"name": "StatefulPartitionedCall/jax2tf_main_/vmap/vmap/pjit_fn_/AddV2_8", "op": "AddV2", "input": ["StatefulPartitionedCall/jax2tf_main_/vmap/vmap/pjit_fn_/BroadcastTo_17", "StatefulPartitionedCall/jax2tf_main_/vmap/vmap/pjit_fn_/Mul_6"], "attr": {"T": {"type": "DT_FLOAT"}}}, {"name": "StatefulPartitionedCall/jax2tf_main_/vmap/vmap/pjit_absolute_/Abs_3", "op": "Abs", "input": ["StatefulPartitionedCall/jax2tf_main_/vmap/vmap/pjit_fn_/AddV2_8"], "attr": {"T": {"type": "DT_FLOAT"}}}, {"name": "StatefulPartitionedCall/jax2tf_main_/vmap/vmap/pjit__lambda__/Sub_7", "op": "SquaredDifference", "input": ["StatefulPartitionedCall/jax2tf_main_/vmap/vmap/pjit_absolute_/Abs_3", "StatefulPartitionedCall/jax2tf_main_/vmap/vmap/pjit__lambda__/BroadcastTo_7"], "attr": {"T": {"type": "DT_FLOAT"}}}, {"name": "StatefulPartitionedCall/jax2tf_main_/vmap/vmap/pjit_norm_/Sum_6", "op": "Sum", "input": ["StatefulPartitionedCall/jax2tf_main_/vmap/vmap/pjit__lambda__/Sub_7", "StatefulPartitionedCall/jax2tf_main_/vmap/vmap/pjit_norm_/Sum_6/reduction_indices"], "attr": {"Tidx": {"type": "DT_INT32"}, "T": {"type": "DT_FLOAT"}, "keep_dims": {"b": false}}}, {"name": "StatefulPartitionedCall/jax2tf_main_/vmap/vmap/pjit_norm_/Sqrt_6", "op": "Sqrt", "input": ["StatefulPartitionedCall/jax2tf_main_/vmap/vmap/pjit_norm_/Sum_6"], "attr": {"T": {"type": "DT_FLOAT"}}}, {"name": "StatefulPartitionedCall/jax2tf_main_/vmap/vmap/pjit__lambda__/Sub_8", "op": "Sub", "input": ["StatefulPartitionedCall/jax2tf_main_/vmap/vmap/pjit_norm_/Sqrt_6", "StatefulPartitionedCall/Const_28"], "attr": {"T": {"type": "DT_FLOAT"}}}, {"name": "StatefulPartitionedCall/jax2tf_main_/vmap/vmap/pjit_fn_/AddV2_9", "op": "AddV2", "input": ["StatefulPartitionedCall/jax2tf_main_/vmap/vmap/pjit_fn_/AddV2_7", "StatefulPartitionedCall/jax2tf_main_/vmap/vmap/pjit__lambda__/Sub_8"], "attr": {"T": {"type": "DT_FLOAT"}}}, {"name": "StatefulPartitionedCall/jax2tf_main_/vmap/vmap/pjit_fn_/Reshape_18", "op": "Reshape", "input": ["StatefulPartitionedCall/jax2tf_main_/vmap/vmap/pjit_fn_/AddV2_9", "StatefulPartitionedCall/jax2tf_main_/vmap/vmap/pjit_fn_/Reshape_18/shape"], "attr": {"Tshape": {"type": "DT_INT32"}, "T": {"type": "DT_FLOAT"}}}, {"name": "StatefulPartitionedCall/jax2tf_main_/vmap/vmap/pjit_fn_/Mul_7", "op": "Mul", "input": ["StatefulPartitionedCall/jax2tf_main_/vmap/vmap/pjit_true_divide_/truediv_2", "StatefulPartitionedCall/jax2tf_main_/vmap/vmap/pjit_fn_/Reshape_18"], "attr": {"T": {"type": "DT_FLOAT"}}}, {"name": "StatefulPartitionedCall/jax2tf_main_/vmap/vmap/pjit_fn_/AddV2_10", "op": "AddV2", "input": ["StatefulPartitionedCall/jax2tf_main_/vmap/vmap/pjit_fn_/BroadcastTo_20", "StatefulPartitionedCall/jax2tf_main_/vmap/vmap/pjit_fn_/Mul_7"], "attr": {"T": {"type": "DT_FLOAT"}}}, {"name": "StatefulPartitionedCall/jax2tf_main_/vmap/vmap/pjit_absolute_/Abs_4", "op": "Abs", "input": ["StatefulPartitionedCall/jax2tf_main_/vmap/vmap/pjit_fn_/AddV2_10"], "attr": {"T": {"type": "DT_FLOAT"}}}, {"name": "StatefulPartitionedCall/jax2tf_main_/vmap/vmap/pjit__lambda__/Sub_9", "op": "SquaredDifference", "input": ["StatefulPartitionedCall/jax2tf_main_/vmap/vmap/pjit_absolute_/Abs_4", "StatefulPartitionedCall/jax2tf_main_/vmap/vmap/pjit__lambda__/BroadcastTo_9"], "attr": {"T": {"type": "DT_FLOAT"}}}, {"name": "StatefulPartitionedCall/jax2tf_main_/vmap/vmap/pjit_norm_/Sum_7", "op": "Sum", "input": ["StatefulPartitionedCall/jax2tf_main_/vmap/vmap/pjit__lambda__/Sub_9", "StatefulPartitionedCall/jax2tf_main_/vmap/vmap/pjit_norm_/Sum_7/reduction_indices"], "attr": {"Tidx": {"type": "DT_INT32"}, "T": {"type": "DT_FLOAT"}, "keep_dims": {"b": false}}}, {"name": "StatefulPartitionedCall/jax2tf_main_/vmap/vmap/pjit_norm_/Sqrt_7", "op": "Sqrt", "input": ["StatefulPartitionedCall/jax2tf_main_/vmap/vmap/pjit_norm_/Sum_7"], "attr": {"T": {"type": "DT_FLOAT"}}}, {"name": "StatefulPartitionedCall/jax2tf_main_/vmap/vmap/pjit__lambda__/Sub_10", "op": "Sub", "input": ["StatefulPartitionedCall/jax2tf_main_/vmap/vmap/pjit_norm_/Sqrt_7", "StatefulPartitionedCall/Const_31"], "attr": {"T": {"type": "DT_FLOAT"}}}, {"name": "StatefulPartitionedCall/jax2tf_main_/vmap/vmap/pjit_fn_/AddV2_11", "op": "AddV2", "input": ["StatefulPartitionedCall/jax2tf_main_/vmap/vmap/pjit_fn_/AddV2_9", "StatefulPartitionedCall/jax2tf_main_/vmap/vmap/pjit__lambda__/Sub_10"], "attr": {"T": {"type": "DT_FLOAT"}}}, {"name": "StatefulPartitionedCall/jax2tf_main_/vmap/vmap/pjit_fn_/Reshape_21", "op": "Reshape", "input": ["StatefulPartitionedCall/jax2tf_main_/vmap/vmap/pjit_fn_/AddV2_11", "StatefulPartitionedCall/jax2tf_main_/vmap/vmap/pjit_fn_/Reshape_21/shape"], "attr": {"T": {"type": "DT_FLOAT"}, "Tshape": {"type": "DT_INT32"}}}, {"name": "StatefulPartitionedCall/jax2tf_main_/vmap/vmap/pjit_fn_/Mul_8", "op": "Mul", "input": ["StatefulPartitionedCall/jax2tf_main_/vmap/vmap/pjit_true_divide_/truediv_2", "StatefulPartitionedCall/jax2tf_main_/vmap/vmap/pjit_fn_/Reshape_21"], "attr": {"T": {"type": "DT_FLOAT"}}}, {"name": "StatefulPartitionedCall/jax2tf_main_/vmap/vmap/pjit_fn_/AddV2_12", "op": "AddV2", "input": ["StatefulPartitionedCall/jax2tf_main_/vmap/vmap/pjit_fn_/BroadcastTo_23", "StatefulPartitionedCall/jax2tf_main_/vmap/vmap/pjit_fn_/Mul_8"], "attr": {"T": {"type": "DT_FLOAT"}}}, {"name": "StatefulPartitionedCall/jax2tf_main_/vmap/vmap/pjit_absolute_/Abs_5", "op": "Abs", "input": ["StatefulPartitionedCall/jax2tf_main_/vmap/vmap/pjit_fn_/AddV2_12"], "attr": {"T": {"type": "DT_FLOAT"}}}, {"name": "StatefulPartitionedCall/jax2tf_main_/vmap/vmap/pjit__lambda__/Sub_11", "op": "SquaredDifference", "input": ["StatefulPartitionedCall/jax2tf_main_/vmap/vmap/pjit_absolute_/Abs_5", "StatefulPartitionedCall/jax2tf_main_/vmap/vmap/pjit__lambda__/BroadcastTo_11"], "attr": {"T": {"type": "DT_FLOAT"}}}, {"name": "StatefulPartitionedCall/jax2tf_main_/vmap/vmap/pjit_norm_/Sum_8", "op": "Sum", "input": ["StatefulPartitionedCall/jax2tf_main_/vmap/vmap/pjit__lambda__/Sub_11", "StatefulPartitionedCall/jax2tf_main_/vmap/vmap/pjit_norm_/Sum_8/reduction_indices"], "attr": {"T": {"type": "DT_FLOAT"}, "Tidx": {"type": "DT_INT32"}, "keep_dims": {"b": false}}}, {"name": "StatefulPartitionedCall/jax2tf_main_/vmap/vmap/pjit_norm_/Sqrt_8", "op": "Sqrt", "input": ["StatefulPartitionedCall/jax2tf_main_/vmap/vmap/pjit_norm_/Sum_8"], "attr": {"T": {"type": "DT_FLOAT"}}}, {"name": "StatefulPartitionedCall/jax2tf_main_/vmap/vmap/pjit__lambda__/Sub_12", "op": "Sub", "input": ["StatefulPartitionedCall/jax2tf_main_/vmap/vmap/pjit_norm_/Sqrt_8", "StatefulPartitionedCall/Const_34"], "attr": {"T": {"type": "DT_FLOAT"}}}, {"name": "StatefulPartitionedCall/jax2tf_main_/vmap/vmap/pjit_fn_/AddV2_13", "op": "AddV2", "input": ["StatefulPartitionedCall/jax2tf_main_/vmap/vmap/pjit_fn_/AddV2_11", "StatefulPartitionedCall/jax2tf_main_/vmap/vmap/pjit__lambda__/Sub_12"], "attr": {"T": {"type": "DT_FLOAT"}}}, {"name": "StatefulPartitionedCall/jax2tf_main_/vmap/vmap/pjit_fn_/Reshape_24", "op": "Reshape", "input": ["StatefulPartitionedCall/jax2tf_main_/vmap/vmap/pjit_fn_/AddV2_13", "StatefulPartitionedCall/jax2tf_main_/vmap/vmap/pjit_fn_/Reshape_24/shape"], "attr": {"T": {"type": "DT_FLOAT"}, "Tshape": {"type": "DT_INT32"}}}, {"name": "StatefulPartitionedCall/jax2tf_main_/vmap/vmap/pjit_fn_/Mul_9", "op": "Mul", "input": ["StatefulPartitionedCall/jax2tf_main_/vmap/vmap/pjit_true_divide_/truediv_2", "StatefulPartitionedCall/jax2tf_main_/vmap/vmap/pjit_fn_/Reshape_24"], "attr": {"T": {"type": "DT_FLOAT"}}}, {"name": "StatefulPartitionedCall/jax2tf_main_/vmap/vmap/pjit_fn_/AddV2_14", "op": "AddV2", "input": ["StatefulPartitionedCall/jax2tf_main_/vmap/vmap/pjit_fn_/BroadcastTo_26", "StatefulPartitionedCall/jax2tf_main_/vmap/vmap/pjit_fn_/Mul_9"], "attr": {"T": {"type": "DT_FLOAT"}}}, {"name": "StatefulPartitionedCall/jax2tf_main_/vmap/vmap/pjit_absolute_/Abs_6", "op": "Abs", "input": ["StatefulPartitionedCall/jax2tf_main_/vmap/vmap/pjit_fn_/AddV2_14"], "attr": {"T": {"type": "DT_FLOAT"}}}, {"name": "StatefulPartitionedCall/jax2tf_main_/vmap/vmap/pjit__lambda__/Sub_13", "op": "SquaredDifference", "input": ["StatefulPartitionedCall/jax2tf_main_/vmap/vmap/pjit_absolute_/Abs_6", "StatefulPartitionedCall/jax2tf_main_/vmap/vmap/pjit__lambda__/BroadcastTo_13"], "attr": {"T": {"type": "DT_FLOAT"}}}, {"name": "StatefulPartitionedCall/jax2tf_main_/vmap/vmap/pjit_norm_/Sum_9", "op": "Sum", "input": ["StatefulPartitionedCall/jax2tf_main_/vmap/vmap/pjit__lambda__/Sub_13", "StatefulPartitionedCall/jax2tf_main_/vmap/vmap/pjit_norm_/Sum_9/reduction_indices"], "attr": {"T": {"type": "DT_FLOAT"}, "keep_dims": {"b": false}, "Tidx": {"type": "DT_INT32"}}}, {"name": "StatefulPartitionedCall/jax2tf_main_/vmap/vmap/pjit_norm_/Sqrt_9", "op": "Sqrt", "input": ["StatefulPartitionedCall/jax2tf_main_/vmap/vmap/pjit_norm_/Sum_9"], "attr": {"T": {"type": "DT_FLOAT"}}}, {"name": "StatefulPartitionedCall/jax2tf_main_/vmap/vmap/pjit__lambda__/Sub_14", "op": "Sub", "input": ["StatefulPartitionedCall/jax2tf_main_/vmap/vmap/pjit_norm_/Sqrt_9", "StatefulPartitionedCall/Const_37"], "attr": {"T": {"type": "DT_FLOAT"}}}, {"name": "StatefulPartitionedCall/jax2tf_main_/vmap/vmap/pjit_fn_/AddV2_15", "op": "AddV2", "input": ["StatefulPartitionedCall/jax2tf_main_/vmap/vmap/pjit_fn_/AddV2_13", "StatefulPartitionedCall/jax2tf_main_/vmap/vmap/pjit__lambda__/Sub_14"], "attr": {"T": {"type": "DT_FLOAT"}}}, {"name": "StatefulPartitionedCall/jax2tf_main_/vmap/vmap/pjit_fn_/Reshape_27", "op": "Reshape", "input": ["StatefulPartitionedCall/jax2tf_main_/vmap/vmap/pjit_fn_/AddV2_15", "StatefulPartitionedCall/jax2tf_main_/vmap/vmap/pjit_fn_/Reshape_27/shape"], "attr": {"Tshape": {"type": "DT_INT32"}, "T": {"type": "DT_FLOAT"}}}, {"name": "StatefulPartitionedCall/jax2tf_main_/vmap/vmap/pjit_fn_/Mul_10", "op": "Mul", "input": ["StatefulPartitionedCall/jax2tf_main_/vmap/vmap/pjit_true_divide_/truediv_2", "StatefulPartitionedCall/jax2tf_main_/vmap/vmap/pjit_fn_/Reshape_27"], "attr": {"T": {"type": "DT_FLOAT"}}}, {"name": "StatefulPartitionedCall/jax2tf_main_/vmap/vmap/pjit_fn_/AddV2_16", "op": "AddV2", "input": ["StatefulPartitionedCall/jax2tf_main_/vmap/vmap/pjit_fn_/BroadcastTo_29", "StatefulPartitionedCall/jax2tf_main_/vmap/vmap/pjit_fn_/Mul_10"], "attr": {"T": {"type": "DT_FLOAT"}}}, {"name": "StatefulPartitionedCall/jax2tf_main_/vmap/vmap/pjit_absolute_/Abs_7", "op": "Abs", "input": ["StatefulPartitionedCall/jax2tf_main_/vmap/vmap/pjit_fn_/AddV2_16"], "attr": {"T": {"type": "DT_FLOAT"}}}, {"name": "StatefulPartitionedCall/jax2tf_main_/vmap/vmap/pjit__lambda__/Sub_15", "op": "SquaredDifference", "input": ["StatefulPartitionedCall/jax2tf_main_/vmap/vmap/pjit_absolute_/Abs_7", "StatefulPartitionedCall/jax2tf_main_/vmap/vmap/pjit__lambda__/BroadcastTo_15"], "attr": {"T": {"type": "DT_FLOAT"}}}, {"name": "StatefulPartitionedCall/jax2tf_main_/vmap/vmap/pjit_norm_/Sum_10", "op": "Sum", "input": ["StatefulPartitionedCall/jax2tf_main_/vmap/vmap/pjit__lambda__/Sub_15", "StatefulPartitionedCall/jax2tf_main_/vmap/vmap/pjit_norm_/Sum_10/reduction_indices"], "attr": {"Tidx": {"type": "DT_INT32"}, "keep_dims": {"b": false}, "T": {"type": "DT_FLOAT"}}}, {"name": "StatefulPartitionedCall/jax2tf_main_/vmap/vmap/pjit_norm_/Sqrt_10", "op": "Sqrt", "input": ["StatefulPartitionedCall/jax2tf_main_/vmap/vmap/pjit_norm_/Sum_10"], "attr": {"T": {"type": "DT_FLOAT"}}}, {"name": "StatefulPartitionedCall/jax2tf_main_/vmap/vmap/pjit__lambda__/Sub_16", "op": "Sub", "input": ["StatefulPartitionedCall/jax2tf_main_/vmap/vmap/pjit_norm_/Sqrt_10", "StatefulPartitionedCall/Const_40"], "attr": {"T": {"type": "DT_FLOAT"}}}, {"name": "StatefulPartitionedCall/jax2tf_main_/vmap/vmap/pjit_fn_/AddV2_17", "op": "AddV2", "input": ["StatefulPartitionedCall/jax2tf_main_/vmap/vmap/pjit_fn_/AddV2_15", "StatefulPartitionedCall/jax2tf_main_/vmap/vmap/pjit__lambda__/Sub_16"], "attr": {"T": {"type": "DT_FLOAT"}}}, {"name": "StatefulPartitionedCall/jax2tf_main_/vmap/vmap/pjit_fn_/Reshape_30", "op": "Reshape", "input": ["StatefulPartitionedCall/jax2tf_main_/vmap/vmap/pjit_fn_/AddV2_17", "StatefulPartitionedCall/jax2tf_main_/vmap/vmap/pjit_fn_/Reshape_30/shape"], "attr": {"Tshape": {"type": "DT_INT32"}, "T": {"type": "DT_FLOAT"}}}, {"name": "StatefulPartitionedCall/jax2tf_main_/vmap/vmap/pjit_fn_/Mul_11", "op": "Mul", "input": ["StatefulPartitionedCall/jax2tf_main_/vmap/vmap/pjit_true_divide_/truediv_2", "StatefulPartitionedCall/jax2tf_main_/vmap/vmap/pjit_fn_/Reshape_30"], "attr": {"T": {"type": "DT_FLOAT"}}}, {"name": "StatefulPartitionedCall/jax2tf_main_/vmap/vmap/pjit_fn_/AddV2_18", "op": "AddV2", "input": ["StatefulPartitionedCall/jax2tf_main_/vmap/vmap/pjit_fn_/BroadcastTo_32", "StatefulPartitionedCall/jax2tf_main_/vmap/vmap/pjit_fn_/Mul_11"], "attr": {"T": {"type": "DT_FLOAT"}}}, {"name": "StatefulPartitionedCall/jax2tf_main_/vmap/vmap/pjit_absolute_/Abs_8", "op": "Abs", "input": ["StatefulPartitionedCall/jax2tf_main_/vmap/vmap/pjit_fn_/AddV2_18"], "attr": {"T": {"type": "DT_FLOAT"}}}, {"name": "StatefulPartitionedCall/jax2tf_main_/vmap/vmap/pjit__lambda__/Sub_17", "op": "SquaredDifference", "input": ["StatefulPartitionedCall/jax2tf_main_/vmap/vmap/pjit_absolute_/Abs_8", "StatefulPartitionedCall/jax2tf_main_/vmap/vmap/pjit__lambda__/BroadcastTo_17"], "attr": {"T": {"type": "DT_FLOAT"}}}, {"name": "StatefulPartitionedCall/jax2tf_main_/vmap/vmap/pjit_norm_/Sum_11", "op": "Sum", "input": ["StatefulPartitionedCall/jax2tf_main_/vmap/vmap/pjit__lambda__/Sub_17", "StatefulPartitionedCall/jax2tf_main_/vmap/vmap/pjit_norm_/Sum_11/reduction_indices"], "attr": {"T": {"type": "DT_FLOAT"}, "Tidx": {"type": "DT_INT32"}, "keep_dims": {"b": false}}}, {"name": "StatefulPartitionedCall/jax2tf_main_/vmap/vmap/pjit_norm_/Sqrt_11", "op": "Sqrt", "input": ["StatefulPartitionedCall/jax2tf_main_/vmap/vmap/pjit_norm_/Sum_11"], "attr": {"T": {"type": "DT_FLOAT"}}}, {"name": "StatefulPartitionedCall/jax2tf_main_/vmap/vmap/pjit__lambda__/Sub_18", "op": "Sub", "input": ["StatefulPartitionedCall/jax2tf_main_/vmap/vmap/pjit_norm_/Sqrt_11", "StatefulPartitionedCall/Const_43"], "attr": {"T": {"type": "DT_FLOAT"}}}, {"name": "StatefulPartitionedCall/jax2tf_main_/vmap/vmap/pjit_fn_/AddV2_19", "op": "AddV2", "input": ["StatefulPartitionedCall/jax2tf_main_/vmap/vmap/pjit_fn_/AddV2_17", "StatefulPartitionedCall/jax2tf_main_/vmap/vmap/pjit__lambda__/Sub_18"], "attr": {"T": {"type": "DT_FLOAT"}}}, {"name": "StatefulPartitionedCall/jax2tf_main_/vmap/vmap/pjit_fn_/Reshape_33", "op": "Reshape", "input": ["StatefulPartitionedCall/jax2tf_main_/vmap/vmap/pjit_fn_/AddV2_19", "StatefulPartitionedCall/jax2tf_main_/vmap/vmap/pjit_fn_/Reshape_33/shape"], "attr": {"Tshape": {"type": "DT_INT32"}, "T": {"type": "DT_FLOAT"}}}, {"name": "StatefulPartitionedCall/jax2tf_main_/vmap/vmap/pjit_fn_/Mul_12", "op": "Mul", "input": ["StatefulPartitionedCall/jax2tf_main_/vmap/vmap/pjit_true_divide_/truediv_2", "StatefulPartitionedCall/jax2tf_main_/vmap/vmap/pjit_fn_/Reshape_33"], "attr": {"T": {"type": "DT_FLOAT"}}}, {"name": "StatefulPartitionedCall/jax2tf_main_/vmap/vmap/pjit_fn_/AddV2_20", "op": "AddV2", "input": ["StatefulPartitionedCall/jax2tf_main_/vmap/vmap/pjit_fn_/BroadcastTo_35", "StatefulPartitionedCall/jax2tf_main_/vmap/vmap/pjit_fn_/Mul_12"], "attr": {"T": {"type": "DT_FLOAT"}}}, {"name": "StatefulPartitionedCall/jax2tf_main_/vmap/vmap/pjit_absolute_/Abs_9", "op": "Abs", "input": ["StatefulPartitionedCall/jax2tf_main_/vmap/vmap/pjit_fn_/AddV2_20"], "attr": {"T": {"type": "DT_FLOAT"}}}, {"name": "StatefulPartitionedCall/jax2tf_main_/vmap/vmap/pjit__lambda__/Sub_19", "op": "SquaredDifference", "input": ["StatefulPartitionedCall/jax2tf_main_/vmap/vmap/pjit_absolute_/Abs_9", "StatefulPartitionedCall/jax2tf_main_/vmap/vmap/pjit__lambda__/BroadcastTo_19"], "attr": {"T": {"type": "DT_FLOAT"}}}, {"name": "StatefulPartitionedCall/jax2tf_main_/vmap/vmap/pjit_norm_/Sum_12", "op": "Sum", "input": ["StatefulPartitionedCall/jax2tf_main_/vmap/vmap/pjit__lambda__/Sub_19", "StatefulPartitionedCall/jax2tf_main_/vmap/vmap/pjit_norm_/Sum_12/reduction_indices"], "attr": {"keep_dims": {"b": false}, "Tidx": {"type": "DT_INT32"}, "T": {"type": "DT_FLOAT"}}}, {"name": "StatefulPartitionedCall/jax2tf_main_/vmap/vmap/pjit_norm_/Sqrt_12", "op": "Sqrt", "input": ["StatefulPartitionedCall/jax2tf_main_/vmap/vmap/pjit_norm_/Sum_12"], "attr": {"T": {"type": "DT_FLOAT"}}}, {"name": "StatefulPartitionedCall/jax2tf_main_/vmap/vmap/pjit_fn_/ArithmeticOptimizer/AddOpsRewrite_Leaf_1_AddV2_22", "op": "AddN", "input": ["StatefulPartitionedCall/jax2tf_main_/vmap/vmap/pjit_fn_/AddV2_19", "StatefulPartitionedCall/jax2tf_main_/vmap/vmap/pjit_norm_/Sqrt_12"], "attr": {"T": {"type": "DT_FLOAT"}, "_grappler_ArithmeticOptimizer_AddOpsRewriteStage": {"b": true}, "N": {"i": "2"}}}, {"name": "StatefulPartitionedCall/jax2tf_main_/vmap/vmap/pjit_fn_/ArithmeticOptimizer/AddOpsRewrite_AddV2_22", "op": "AddV2", "input": ["StatefulPartitionedCall/jax2tf_main_/vmap/vmap/pjit__lambda__/Sub_20", "StatefulPartitionedCall/jax2tf_main_/vmap/vmap/pjit_fn_/ArithmeticOptimizer/AddOpsRewrite_Leaf_1_AddV2_22"], "attr": {"T": {"type": "DT_FLOAT"}, "_grappler_ArithmeticOptimizer_AddOpsRewriteStage": {"b": true}}}, {"name": "StatefulPartitionedCall/jax2tf_main_/vmap/vmap/pjit_true_divide_/truediv_3", "op": "Reciprocal", "input": ["StatefulPartitionedCall/jax2tf_main_/vmap/vmap/pjit_fn_/ArithmeticOptimizer/AddOpsRewrite_AddV2_22"], "attr": {"T": {"type": "DT_FLOAT"}}}, {"name": "StatefulPartitionedCall/jax2tf_main_/vmap/vmap/pjit_clip_/Maximum", "op": "Maximum", "input": ["StatefulPartitionedCall/Const_52", "StatefulPartitionedCall/jax2tf_main_/vmap/vmap/pjit_true_divide_/truediv_3"], "attr": {"T": {"type": "DT_FLOAT"}}}, {"name": "StatefulPartitionedCall/jax2tf_main_/vmap/vmap/pjit_clip_/Minimum", "op": "Minimum", "input": ["StatefulPartitionedCall/Const_54", "StatefulPartitionedCall/jax2tf_main_/vmap/vmap/pjit_clip_/Maximum"], "attr": {"T": {"type": "DT_FLOAT"}}}, {"name": "StatefulPartitionedCall/jax2tf_main_/vmap/transpose", "op": "Transpose", "input": ["StatefulPartitionedCall/jax2tf_main_/vmap/vmap/pjit_clip_/Minimum", "StatefulPartitionedCall/jax2tf_main_/vmap/transpose/perm"], "attr": {"T": {"type": "DT_FLOAT"}, "Tperm": {"type": "DT_INT32"}}}, {"name": "StatefulPartitionedCall/jax2tf_main_/pjit_atleast_3d_/Reshape", "op": "Reshape", "input": ["StatefulPartitionedCall/jax2tf_main_/vmap/transpose", "StatefulPartitionedCall/jax2tf_main_/pjit_atleast_3d_/Reshape/shape"], "attr": {"Tshape": {"type": "DT_INT32"}, "T": {"type": "DT_FLOAT"}}}, {"name": "StatefulPartitionedCall/jax2tf_main_/pjit_atleast_3d_/Reshape_1", "op": "Reshape", "input": ["StatefulPartitionedCall/jax2tf_main_/vmap/transpose", "StatefulPartitionedCall/jax2tf_main_/pjit_atleast_3d_/Reshape_1/shape"], "attr": {"T": {"type": "DT_FLOAT"}, "Tshape": {"type": "DT_INT32"}}}, {"name": "StatefulPartitionedCall/jax2tf_main_/pjit_atleast_3d_/Reshape_2", "op": "Reshape", "input": ["StatefulPartitionedCall/jax2tf_main_/vmap/transpose", "StatefulPartitionedCall/jax2tf_main_/pjit_atleast_3d_/Reshape_2/shape"], "attr": {"Tshape": {"type": "DT_INT32"}, "T": {"type": "DT_FLOAT"}}}, {"name": "StatefulPartitionedCall/jax2tf_main_/concat", "op": "ConcatV2", "input": ["StatefulPartitionedCall/jax2tf_main_/pjit_atleast_3d_/Reshape", "StatefulPartitionedCall/jax2tf_main_/pjit_atleast_3d_/Reshape_1", "StatefulPartitionedCall/jax2tf_main_/pjit_atleast_3d_/Reshape_2", "StatefulPartitionedCall/jax2tf_main_/concat/axis"], "attr": {"N": {"i": "3"}, "Tidx": {"type": "DT_INT32"}, "T": {"type": "DT_FLOAT"}}}, {"name": "Identity", "op": "Identity", "input": ["StatefulPartitionedCall/jax2tf_main_/concat"], "attr": {"T": {"type": "DT_FLOAT"}}}], "library": {}, "versions": {"producer": 1286}}, "weightsManifest": [{"paths": ["group1-shard1of1.bin"], "weights": [{"name": "StatefulPartitionedCall/jax2tf_main_/pjit_atleast_3d_/Reshape/shape", "shape": [3], "dtype": "int32"}, {"name": "StatefulPartitionedCall/jax2tf_main_/pjit_atleast_3d_/Reshape_1/shape", "shape": [3], "dtype": "int32"}, {"name": "StatefulPartitionedCall/Const_54", "shape": [], "dtype": "float32"}, {"name": "StatefulPartitionedCall/Const_52", "shape": [], "dtype": "float32"}, {"name": "StatefulPartitionedCall/jax2tf_main_/vmap/vmap/pjit__lambda__/Sub_20", "shape": [], "dtype": "float32"}, {"name": "StatefulPartitionedCall/jax2tf_main_/vmap/vmap/pjit_fn_/BroadcastTo_35", "shape": [1, 1, 3], "dtype": "float32"}, {"name": "StatefulPartitionedCall/jax2tf_main_/vmap/vmap/pjit_fn_/BroadcastTo_32", "shape": [1, 1, 3], "dtype": "float32"}, {"name": "StatefulPartitionedCall/jax2tf_main_/vmap/vmap/pjit_fn_/BroadcastTo_29", "shape": [1, 1, 3], "dtype": "float32"}, {"name": "StatefulPartitionedCall/jax2tf_main_/vmap/vmap/pjit_fn_/BroadcastTo_26", "shape": [1, 1, 3], "dtype": "float32"}, {"name": "StatefulPartitionedCall/jax2tf_main_/vmap/vmap/pjit_fn_/BroadcastTo_23", "shape": [1, 1, 3], "dtype": "float32"}, {"name": "StatefulPartitionedCall/jax2tf_main_/vmap/vmap/pjit_fn_/BroadcastTo_20", "shape": [1, 1, 3], "dtype": "float32"}, {"name": "StatefulPartitionedCall/jax2tf_main_/vmap/vmap/pjit_fn_/BroadcastTo_17", "shape": [1, 1, 3], "dtype": "float32"}, {"name": "StatefulPartitionedCall/jax2tf_main_/vmap/vmap/pjit_fn_/BroadcastTo_14", "shape": [1, 1, 3], "dtype": "float32"}, {"name": "StatefulPartitionedCall/jax2tf_main_/vmap/vmap/pjit_fn_/BroadcastTo_11", "shape": [1, 1, 3], "dtype": "float32"}, {"name": "StatefulPartitionedCall/jax2tf_main_/vmap/vmap/pjit__lambda__/BroadcastTo_3", "shape": [1, 1, 3], "dtype": "float32"}, {"name": "StatefulPartitionedCall/jax2tf_main_/vmap/vmap/pjit_norm_/Sum_4/reduction_indices", "shape": [1], "dtype": "int32"}, {"name": "StatefulPartitionedCall/jax2tf_main_/vmap/vmap/pjit_true_divide_/truediv", "shape": [3], "dtype": "float32"}, {"name": "StatefulPartitionedCall/jax2tf_main_/vmap/vmap/clip_by_value", "shape": [1], "dtype": "int32"}, {"name": "StatefulPartitionedCall/jax2tf_main_/vmap/vmap/Slice/size", "shape": [1], "dtype": "int32"}, {"name": "StatefulPartitionedCall/jax2tf_main_/vmap/vmap/Reshape/shape_1", "shape": [0], "dtype": "int32"}, {"name": "StatefulPartitionedCall/jax2tf_main_/vmap/vmap/pjit_fn_/Reshape_2/shape", "shape": [2], "dtype": "int32"}, {"name": "StatefulPartitionedCall/jax2tf_main_/vmap/vmap/pjit_fn_/Mul_1", "shape": [92, 3], "dtype": "float32"}, {"name": "StatefulPartitionedCall/jax2tf_main_/vmap/vmap/pjit_fn_/Reshape_6/shape", "shape": [3], "dtype": "int32"}, {"name": "StatefulPartitionedCall/jax2tf_main_/vmap/vmap/pjit_fn_/BroadcastTo_5", "shape": [92, 1, 3], "dtype": "float32"}, {"name": "StatefulPartitionedCall/jax2tf_main_/vmap/vmap/pjit_norm_/Sum_2/reduction_indices", "shape": [1], "dtype": "int32"}, {"name": "StatefulPartitionedCall/jax2tf_main_/vmap/vmap/pjit_true_divide_/Reshape/shape", "shape": [3], "dtype": "int32"}, {"name": "StatefulPartitionedCall/jax2tf_main_/vmap/vmap/pjit_fn_/Reshape_12/shape", "shape": [3], "dtype": "int32"}, {"name": "StatefulPartitionedCall/jax2tf_main_/vmap/vmap/pjit__lambda__/BroadcastTo_5", "shape": [1, 1, 3], "dtype": "float32"}, {"name": "StatefulPartitionedCall/jax2tf_main_/vmap/vmap/pjit_norm_/Sum_5/reduction_indices", "shape": [1], "dtype": "int32"}, {"name": "StatefulPartitionedCall/Const_25", "shape": [], "dtype": "float32"}, {"name": "StatefulPartitionedCall/jax2tf_main_/vmap/vmap/pjit_fn_/Reshape_15/shape", "shape": [3], "dtype": "int32"}, {"name": "StatefulPartitionedCall/jax2tf_main_/vmap/vmap/pjit__lambda__/BroadcastTo_7", "shape": [1, 1, 3], "dtype": "float32"}, {"name": "StatefulPartitionedCall/jax2tf_main_/vmap/vmap/pjit_norm_/Sum_6/reduction_indices", "shape": [1], "dtype": "int32"}, {"name": "StatefulPartitionedCall/Const_28", "shape": [], "dtype": "float32"}, {"name": "StatefulPartitionedCall/jax2tf_main_/vmap/vmap/pjit_fn_/Reshape_18/shape", "shape": [3], "dtype": "int32"}, {"name": "StatefulPartitionedCall/jax2tf_main_/vmap/vmap/pjit__lambda__/BroadcastTo_9", "shape": [1, 1, 3], "dtype": "float32"}, {"name": "StatefulPartitionedCall/jax2tf_main_/vmap/vmap/pjit_norm_/Sum_7/reduction_indices", "shape": [1], "dtype": "int32"}, {"name": "StatefulPartitionedCall/Const_31", "shape": [], "dtype": "float32"}, {"name": "StatefulPartitionedCall/jax2tf_main_/vmap/vmap/pjit_fn_/Reshape_21/shape", "shape": [3], "dtype": "int32"}, {"name": "StatefulPartitionedCall/jax2tf_main_/vmap/vmap/pjit__lambda__/BroadcastTo_11", "shape": [1, 1, 3], "dtype": "float32"}, {"name": "StatefulPartitionedCall/jax2tf_main_/vmap/vmap/pjit_norm_/Sum_8/reduction_indices", "shape": [1], "dtype": "int32"}, {"name": "StatefulPartitionedCall/Const_34", "shape": [], "dtype": "float32"}, {"name": "StatefulPartitionedCall/jax2tf_main_/vmap/vmap/pjit_fn_/Reshape_24/shape", "shape": [3], "dtype": "int32"}, {"name": "StatefulPartitionedCall/jax2tf_main_/vmap/vmap/pjit__lambda__/BroadcastTo_13", "shape": [1, 1, 3], "dtype": "float32"}, {"name": "StatefulPartitionedCall/jax2tf_main_/vmap/vmap/pjit_norm_/Sum_9/reduction_indices", "shape": [1], "dtype": "int32"}, {"name": "StatefulPartitionedCall/Const_37", "shape": [], "dtype": "float32"}, {"name": "StatefulPartitionedCall/jax2tf_main_/vmap/vmap/pjit_fn_/Reshape_27/shape", "shape": [3], "dtype": "int32"}, {"name": "StatefulPartitionedCall/jax2tf_main_/vmap/vmap/pjit__lambda__/BroadcastTo_15", "shape": [1, 1, 3], "dtype": "float32"}, {"name": "StatefulPartitionedCall/jax2tf_main_/vmap/vmap/pjit_norm_/Sum_10/reduction_indices", "shape": [1], "dtype": "int32"}, {"name": "StatefulPartitionedCall/Const_40", "shape": [], "dtype": "float32"}, {"name": "StatefulPartitionedCall/jax2tf_main_/vmap/vmap/pjit_fn_/Reshape_30/shape", "shape": [3], "dtype": "int32"}, {"name": "StatefulPartitionedCall/jax2tf_main_/vmap/vmap/pjit__lambda__/BroadcastTo_17", "shape": [1, 1, 3], "dtype": "float32"}, {"name": "StatefulPartitionedCall/jax2tf_main_/vmap/vmap/pjit_norm_/Sum_11/reduction_indices", "shape": [1], "dtype": "int32"}, {"name": "StatefulPartitionedCall/Const_43", "shape": [], "dtype": "float32"}, {"name": "StatefulPartitionedCall/jax2tf_main_/vmap/vmap/pjit_fn_/Reshape_33/shape", "shape": [3], "dtype": "int32"}, {"name": "StatefulPartitionedCall/jax2tf_main_/vmap/vmap/pjit__lambda__/BroadcastTo_19", "shape": [1, 1, 3], "dtype": "float32"}, {"name": "StatefulPartitionedCall/jax2tf_main_/vmap/vmap/pjit_norm_/Sum_12/reduction_indices", "shape": [1], "dtype": "int32"}, {"name": "StatefulPartitionedCall/jax2tf_main_/vmap/transpose/perm", "shape": [2], "dtype": "int32"}, {"name": "StatefulPartitionedCall/jax2tf_main_/pjit_atleast_3d_/Reshape_2/shape", "shape": [3], "dtype": "int32"}, {"name": "StatefulPartitionedCall/jax2tf_main_/concat/axis", "shape": [], "dtype": "int32"}, {"name": "StatefulPartitionedCall/jax2tf_main_/vmap/vmap/pjit_fn_/BroadcastTo_9", "shape": [92, 92, 1], "dtype": "float32"}, {"name": "StatefulPartitionedCall/jax2tf_main_/vmap/vmap/pjit__lambda__/Sub_4", "shape": [92, 92], "dtype": "float32"}]}]}