{"format": "graph-model", "generatedBy": "2.11.0", "convertedBy": "TensorFlow.js Converter v4.2.0", "signature": {"inputs": {"xs_0": {"name": "xs_0:0", "dtype": "DT_FLOAT", "tensorShape": {"dim": [{"size": "1"}]}}}, "outputs": {"output_0": {"name": "Identity:0", "dtype": "DT_FLOAT", "tensorShape": {"dim": [{"size": "92"}, {"size": "92"}, {"size": "3"}]}}}}, "modelTopology": {"node": [{"name": "StatefulPartitionedCall/jax2tf_main_/pjit_atleast_3d_/Reshape/shape", "op": "Const", "attr": {"dtype": {"type": "DT_INT32"}, "value": {"tensor": {"dtype": "DT_INT32", "tensorShape": {"dim": [{"size": "3"}]}}}}}, {"name": "StatefulPartitionedCall/jax2tf_main_/pjit_atleast_3d_/Reshape_1/shape", "op": "Const", "attr": {"dtype": {"type": "DT_INT32"}, "value": {"tensor": {"dtype": "DT_INT32", "tensorShape": {"dim": [{"size": "3"}]}}}}}, {"name": "StatefulPartitionedCall/Const_63", "op": "Const", "attr": {"value": {"tensor": {"dtype": "DT_FLOAT", "tensorShape": {}}}, "dtype": {"type": "DT_FLOAT"}}}, {"name": "StatefulPartitionedCall/Const_61", "op": "Const", "attr": {"dtype": {"type": "DT_FLOAT"}, "value": {"tensor": {"dtype": "DT_FLOAT", "tensorShape": {}}}}}, {"name": "StatefulPartitionedCall/jax2tf_main_/vmap/vmap/transpose/jax2tf_main_/vmap/vmap/jvp/Const_5", "op": "Const", "attr": {"dtype": {"type": "DT_BOOL"}, "value": {"tensor": {"dtype": "DT_BOOL", "tensorShape": {}}}}}, {"name": "StatefulPartitionedCall/jax2tf_main_/vmap/vmap/transpose/jax2tf_main_/vmap/vmap/jvp/pjit_absolute_/BroadcastTo_4", "op": "Const", "attr": {"dtype": {"type": "DT_FLOAT"}, "value": {"tensor": {"dtype": "DT_FLOAT", "tensorShape": {"dim": [{"size": "92"}, {"size": "92"}, {"size": "3"}]}}}}}, {"name": "StatefulPartitionedCall/jax2tf_main_/vmap/vmap/jvp/Const_1", "op": "Const", "attr": {"dtype": {"type": "DT_FLOAT"}, "value": {"tensor": {"dtype": "DT_FLOAT", "tensorShape": {}}}}}, {"name": "StatefulPartitionedCall/jax2tf_main_/vmap/vmap/transpose/jax2tf_main_/vmap/vmap/jvp/Const_3", "op": "Const", "attr": {"value": {"tensor": {"dtype": "DT_BOOL", "tensorShape": {}}}, "dtype": {"type": "DT_BOOL"}}}, {"name": "StatefulPartitionedCall/jax2tf_main_/vmap/vmap/jvp/Const_3", "op": "Const", "attr": {"dtype": {"type": "DT_FLOAT"}, "value": {"tensor": {"dtype": "DT_FLOAT", "tensorShape": {}}}}}, {"name": "StatefulPartitionedCall/jax2tf_main_/vmap/vmap/jvp/pjit_norm_/Sum/reduction_indices", "op": "Const", "attr": {"value": {"tensor": {"dtype": "DT_INT32", "tensorShape": {"dim": [{"size": "1"}]}}}, "dtype": {"type": "DT_INT32"}}}, {"name": "StatefulPartitionedCall/jax2tf_main_/vmap/vmap/transpose/jax2tf_main_/vmap/vmap/jvp/pjit_norm_/Reshape/shape", "op": "Const", "attr": {"dtype": {"type": "DT_INT32"}, "value": {"tensor": {"dtype": "DT_INT32", "tensorShape": {"dim": [{"size": "3"}]}}}}}, {"name": "StatefulPartitionedCall/jax2tf_main_/vmap/vmap/transpose/jax2tf_main_/vmap/vmap/jvp/pjit_norm_/BroadcastTo/shape", "op": "Const", "attr": {"dtype": {"type": "DT_INT32"}, "value": {"tensor": {"dtype": "DT_INT32", "tensorShape": {"dim": [{"size": "3"}]}}}}}, {"name": "StatefulPartitionedCall/jax2tf_main_/vmap/vmap/pjit_fn_/Reshape_38/shape", "op": "Const", "attr": {"dtype": {"type": "DT_INT32"}, "value": {"tensor": {"dtype": "DT_INT32", "tensorShape": {"dim": [{"size": "3"}]}}}}}, {"name": "StatefulPartitionedCall/jax2tf_main_/vmap/vmap/pjit_fn_/Reshape_35/shape", "op": "Const", "attr": {"dtype": {"type": "DT_INT32"}, "value": {"tensor": {"dtype": "DT_INT32", "tensorShape": {"dim": [{"size": "3"}]}}}}}, {"name": "StatefulPartitionedCall/jax2tf_main_/vmap/vmap/pjit_fn_/Reshape_32/shape", "op": "Const", "attr": {"value": {"tensor": {"dtype": "DT_INT32", "tensorShape": {"dim": [{"size": "3"}]}}}, "dtype": {"type": "DT_INT32"}}}, {"name": "StatefulPartitionedCall/jax2tf_main_/vmap/vmap/pjit_fn_/Reshape_29/shape", "op": "Const", "attr": {"dtype": {"type": "DT_INT32"}, "value": {"tensor": {"dtype": "DT_INT32", "tensorShape": {"dim": [{"size": "3"}]}}}}}, {"name": "StatefulPartitionedCall/jax2tf_main_/vmap/vmap/pjit_fn_/Reshape_26/shape", "op": "Const", "attr": {"value": {"tensor": {"dtype": "DT_INT32", "tensorShape": {"dim": [{"size": "3"}]}}}, "dtype": {"type": "DT_INT32"}}}, {"name": "StatefulPartitionedCall/jax2tf_main_/vmap/vmap/pjit_fn_/Reshape_23/shape", "op": "Const", "attr": {"dtype": {"type": "DT_INT32"}, "value": {"tensor": {"dtype": "DT_INT32", "tensorShape": {"dim": [{"size": "3"}]}}}}}, {"name": "StatefulPartitionedCall/jax2tf_main_/vmap/vmap/pjit_fn_/Reshape_20/shape", "op": "Const", "attr": {"value": {"tensor": {"dtype": "DT_INT32", "tensorShape": {"dim": [{"size": "3"}]}}}, "dtype": {"type": "DT_INT32"}}}, {"name": "StatefulPartitionedCall/jax2tf_main_/vmap/vmap/pjit_fn_/Reshape_17/shape", "op": "Const", "attr": {"value": {"tensor": {"dtype": "DT_INT32", "tensorShape": {"dim": [{"size": "3"}]}}}, "dtype": {"type": "DT_INT32"}}}, {"name": "StatefulPartitionedCall/jax2tf_main_/vmap/vmap/pjit_fn_/Reshape_14/shape", "op": "Const", "attr": {"dtype": {"type": "DT_INT32"}, "value": {"tensor": {"dtype": "DT_INT32", "tensorShape": {"dim": [{"size": "3"}]}}}}}, {"name": "StatefulPartitionedCall/jax2tf_main_/vmap/vmap/pjit_fn_/Reshape_11/shape", "op": "Const", "attr": {"dtype": {"type": "DT_INT32"}, "value": {"tensor": {"dtype": "DT_INT32", "tensorShape": {"dim": [{"size": "3"}]}}}}}, {"name": "StatefulPartitionedCall/jax2tf_main_/vmap/vmap/pjit_fn_/Reshape_8/shape", "op": "Const", "attr": {"value": {"tensor": {"dtype": "DT_INT32", "tensorShape": {"dim": [{"size": "3"}]}}}, "dtype": {"type": "DT_INT32"}}}, {"name": "StatefulPartitionedCall/jax2tf_main_/vmap/vmap/pjit_fn_/Reshape_2/shape", "op": "Const", "attr": {"value": {"tensor": {"dtype": "DT_INT32", "tensorShape": {"dim": [{"size": "2"}]}}}, "dtype": {"type": "DT_INT32"}}}, {"name": "StatefulPartitionedCall/jax2tf_main_/vmap/vmap/pjit_fn_/BroadcastTo_1", "op": "Const", "attr": {"value": {"tensor": {"dtype": "DT_FLOAT", "tensorShape": {"dim": [{"size": "92"}, {"size": "1"}]}}}, "dtype": {"type": "DT_FLOAT"}}}, {"name": "StatefulPartitionedCall/jax2tf_main_/vmap/vmap/pjit_fn_/Reshape/shape", "op": "Const", "attr": {"dtype": {"type": "DT_INT32"}, "value": {"tensor": {"dtype": "DT_INT32", "tensorShape": {"dim": [{"size": "2"}]}}}}}, {"name": "StatefulPartitionedCall/jax2tf_main_/vmap/vmap/pjit_fn_/Reshape_6/shape", "op": "Const", "attr": {"dtype": {"type": "DT_INT32"}, "value": {"tensor": {"dtype": "DT_INT32", "tensorShape": {"dim": [{"size": "3"}]}}}}}, {"name": "StatefulPartitionedCall/jax2tf_main_/vmap/vmap/pjit_fn_/BroadcastTo_4", "op": "Const", "attr": {"value": {"tensor": {"dtype": "DT_FLOAT", "tensorShape": {"dim": [{"size": "92"}, {"size": "1"}]}}}, "dtype": {"type": "DT_FLOAT"}}}, {"name": "StatefulPartitionedCall/jax2tf_main_/vmap/vmap/pjit_cross_/Reshape_15/shape", "op": "Const", "attr": {"dtype": {"type": "DT_INT32"}, "value": {"tensor": {"dtype": "DT_INT32", "tensorShape": {"dim": [{"size": "1"}]}}}}}, {"name": "StatefulPartitionedCall/jax2tf_main_/vmap/vmap/pjit_cross_/clip_by_value_8", "op": "Const", "attr": {"value": {"tensor": {"dtype": "DT_INT32", "tensorShape": {"dim": [{"size": "1"}]}}}, "dtype": {"type": "DT_INT32"}}}, {"name": "StatefulPartitionedCall/jax2tf_main_/vmap/vmap/pjit_cross_/add_8", "op": "Const", "attr": {"value": {"tensor": {"dtype": "DT_INT32", "tensorShape": {"dim": [{"size": "1"}]}}}, "dtype": {"type": "DT_INT32"}}}, {"name": "StatefulPartitionedCall/jax2tf_main_/vmap/vmap/pjit_cross_/ones_like_8", "op": "Const", "attr": {"value": {"tensor": {"dtype": "DT_INT32", "tensorShape": {"dim": [{"size": "1"}]}}}, "dtype": {"type": "DT_INT32"}}}, {"name": "StatefulPartitionedCall/jax2tf_main_/vmap/vmap/pjit_cross_/clip_by_value_11", "op": "Const", "attr": {"value": {"tensor": {"dtype": "DT_INT32", "tensorShape": {"dim": [{"size": "1"}]}}}, "dtype": {"type": "DT_INT32"}}}, {"name": "StatefulPartitionedCall/jax2tf_main_/vmap/vmap/pjit_cross_/add_11", "op": "Const", "attr": {"dtype": {"type": "DT_INT32"}, "value": {"tensor": {"dtype": "DT_INT32", "tensorShape": {"dim": [{"size": "1"}]}}}}}, {"name": "StatefulPartitionedCall/jax2tf_main_/vmap/vmap/pjit_cross_/ones_like_11", "op": "Const", "attr": {"value": {"tensor": {"dtype": "DT_INT32", "tensorShape": {"dim": [{"size": "1"}]}}}, "dtype": {"type": "DT_INT32"}}}, {"name": "StatefulPartitionedCall/jax2tf_main_/vmap/vmap/pjit_cross_/Reshape_16/shape", "op": "Const", "attr": {"value": {"tensor": {"dtype": "DT_INT32", "tensorShape": {"dim": [{"size": "1"}]}}}, "dtype": {"type": "DT_INT32"}}}, {"name": "StatefulPartitionedCall/jax2tf_main_/vmap/vmap/pjit_cross_/clip_by_value_6", "op": "Const", "attr": {"value": {"tensor": {"dtype": "DT_INT32", "tensorShape": {"dim": [{"size": "1"}]}}}, "dtype": {"type": "DT_INT32"}}}, {"name": "StatefulPartitionedCall/jax2tf_main_/vmap/vmap/pjit_cross_/add_6", "op": "Const", "attr": {"dtype": {"type": "DT_INT32"}, "value": {"tensor": {"dtype": "DT_INT32", "tensorShape": {"dim": [{"size": "1"}]}}}}}, {"name": "StatefulPartitionedCall/jax2tf_main_/vmap/vmap/pjit_cross_/ones_like_6", "op": "Const", "attr": {"value": {"tensor": {"dtype": "DT_INT32", "tensorShape": {"dim": [{"size": "1"}]}}}, "dtype": {"type": "DT_INT32"}}}, {"name": "StatefulPartitionedCall/jax2tf_main_/vmap/vmap/pjit_cross_/clip_by_value_10", "op": "Const", "attr": {"value": {"tensor": {"dtype": "DT_INT32", "tensorShape": {"dim": [{"size": "1"}]}}}, "dtype": {"type": "DT_INT32"}}}, {"name": "StatefulPartitionedCall/jax2tf_main_/vmap/vmap/pjit_cross_/add_10", "op": "Const", "attr": {"dtype": {"type": "DT_INT32"}, "value": {"tensor": {"dtype": "DT_INT32", "tensorShape": {"dim": [{"size": "1"}]}}}}}, {"name": "StatefulPartitionedCall/jax2tf_main_/vmap/vmap/pjit_cross_/ones_like_10", "op": "Const", "attr": {"value": {"tensor": {"dtype": "DT_INT32", "tensorShape": {"dim": [{"size": "1"}]}}}, "dtype": {"type": "DT_INT32"}}}, {"name": "StatefulPartitionedCall/jax2tf_main_/vmap/vmap/pjit_cross_/clip_by_value_7", "op": "Const", "attr": {"dtype": {"type": "DT_INT32"}, "value": {"tensor": {"dtype": "DT_INT32", "tensorShape": {"dim": [{"size": "1"}]}}}}}, {"name": "StatefulPartitionedCall/jax2tf_main_/vmap/vmap/pjit_cross_/add_7", "op": "Const", "attr": {"value": {"tensor": {"dtype": "DT_INT32", "tensorShape": {"dim": [{"size": "1"}]}}}, "dtype": {"type": "DT_INT32"}}}, {"name": "StatefulPartitionedCall/jax2tf_main_/vmap/vmap/pjit_cross_/ones_like_7", "op": "Const", "attr": {"value": {"tensor": {"dtype": "DT_INT32", "tensorShape": {"dim": [{"size": "1"}]}}}, "dtype": {"type": "DT_INT32"}}}, {"name": "StatefulPartitionedCall/jax2tf_main_/vmap/vmap/pjit_cross_/Reshape_6/shape", "op": "Const", "attr": {"value": {"tensor": {"dtype": "DT_INT32", "tensorShape": {"dim": [{"size": "1"}]}}}, "dtype": {"type": "DT_INT32"}}}, {"name": "StatefulPartitionedCall/jax2tf_main_/vmap/vmap/pjit_cross_/clip_by_value_5", "op": "Const", "attr": {"value": {"tensor": {"dtype": "DT_INT32", "tensorShape": {"dim": [{"size": "1"}]}}}, "dtype": {"type": "DT_INT32"}}}, {"name": "StatefulPartitionedCall/jax2tf_main_/vmap/vmap/pjit_cross_/add_5", "op": "Const", "attr": {"dtype": {"type": "DT_INT32"}, "value": {"tensor": {"dtype": "DT_INT32", "tensorShape": {"dim": [{"size": "1"}]}}}}}, {"name": "StatefulPartitionedCall/jax2tf_main_/vmap/vmap/pjit_cross_/ones_like_5", "op": "Const", "attr": {"value": {"tensor": {"dtype": "DT_INT32", "tensorShape": {"dim": [{"size": "1"}]}}}, "dtype": {"type": "DT_INT32"}}}, {"name": "StatefulPartitionedCall/jax2tf_main_/vmap/vmap/Reshape/shape", "op": "Const", "attr": {"dtype": {"type": "DT_INT32"}, "value": {"tensor": {"dtype": "DT_INT32", "tensorShape": {"dim": [{"size": "1"}]}}}}}, {"name": "StatefulPartitionedCall/jax2tf_main_/vmap/vmap/Reshape_1/shape", "op": "Const", "attr": {"dtype": {"type": "DT_INT32"}, "value": {"tensor": {"dtype": "DT_INT32", "tensorShape": {"dim": [{"size": "1"}]}}}}}, {"name": "StatefulPartitionedCall/jax2tf_main_/vmap/vmap/BroadcastTo_2", "op": "Const", "attr": {"dtype": {"type": "DT_FLOAT"}, "value": {"tensor": {"dtype": "DT_FLOAT", "tensorShape": {"dim": [{"size": "1"}]}}}}}, {"name": "StatefulPartitionedCall/jax2tf_main_/vmap/vmap/concat/axis", "op": "Const", "attr": {"dtype": {"type": "DT_INT32"}, "value": {"tensor": {"dtype": "DT_INT32", "tensorShape": {}}}}}, {"name": "StatefulPartitionedCall/jax2tf_main_/vmap/vmap/Reshape_6/shape", "op": "Const", "attr": {"value": {"tensor": {"dtype": "DT_INT32", "tensorShape": {"dim": [{"size": "2"}]}}}, "dtype": {"type": "DT_INT32"}}}, {"name": "StatefulPartitionedCall/jax2tf_main_/vmap/vmap/Reshape_3/shape", "op": "Const", "attr": {"value": {"tensor": {"dtype": "DT_INT32", "tensorShape": {"dim": [{"size": "1"}]}}}, "dtype": {"type": "DT_INT32"}}}, {"name": "StatefulPartitionedCall/jax2tf_main_/clip_by_value", "op": "Const", "attr": {"dtype": {"type": "DT_INT32"}, "value": {"tensor": {"dtype": "DT_INT32", "tensorShape": {"dim": [{"size": "1"}]}}}}}, {"name": "StatefulPartitionedCall/jax2tf_main_/Slice/size", "op": "Const", "attr": {"value": {"tensor": {"dtype": "DT_INT32", "tensorShape": {"dim": [{"size": "1"}]}}}, "dtype": {"type": "DT_INT32"}}}, {"name": "StatefulPartitionedCall/jax2tf_main_/Reshape/shape_1", "op": "Const", "attr": {"value": {"tensor": {"dtype": "DT_INT32", "tensorShape": {"dim": [{}]}}}, "dtype": {"type": "DT_INT32"}}}, {"name": "StatefulPartitionedCall/jax2tf_main_/vmap/vmap/Reshape_4/shape", "op": "Const", "attr": {"dtype": {"type": "DT_INT32"}, "value": {"tensor": {"dtype": "DT_INT32", "tensorShape": {"dim": [{"size": "1"}]}}}}}, {"name": "StatefulPartitionedCall/jax2tf_main_/vmap/vmap/BroadcastTo_5", "op": "Const", "attr": {"value": {"tensor": {"dtype": "DT_FLOAT", "tensorShape": {"dim": [{"size": "1"}]}}}, "dtype": {"type": "DT_FLOAT"}}}, {"name": "StatefulPartitionedCall/jax2tf_main_/vmap/vmap/concat_1/axis", "op": "Const", "attr": {"value": {"tensor": {"dtype": "DT_INT32", "tensorShape": {}}}, "dtype": {"type": "DT_INT32"}}}, {"name": "StatefulPartitionedCall/jax2tf_main_/vmap/vmap/Reshape_7/shape", "op": "Const", "attr": {"value": {"tensor": {"dtype": "DT_INT32", "tensorShape": {"dim": [{"size": "2"}]}}}, "dtype": {"type": "DT_INT32"}}}, {"name": "StatefulPartitionedCall/jax2tf_main_/vmap/vmap/BroadcastTo_8", "op": "Const", "attr": {"value": {"tensor": {"dtype": "DT_FLOAT", "tensorShape": {"dim": [{"size": "1"}, {"size": "3"}]}}}, "dtype": {"type": "DT_FLOAT"}}}, {"name": "StatefulPartitionedCall/jax2tf_main_/vmap/vmap/concat_2/axis", "op": "Const", "attr": {"dtype": {"type": "DT_INT32"}, "value": {"tensor": {"dtype": "DT_INT32", "tensorShape": {}}}}}, {"name": "StatefulPartitionedCall/jax2tf_main_/vmap/vmap/pjit_matmul_/ExpandDims", "op": "Const", "attr": {"value": {"tensor": {"dtype": "DT_FLOAT", "tensorShape": {"dim": [{"size": "3"}, {"size": "1"}]}}}, "dtype": {"type": "DT_FLOAT"}}}, {"name": "StatefulPartitionedCall/jax2tf_main_/vmap/vmap/pjit_norm_/Sum_1/reduction_indices", "op": "Const", "attr": {"dtype": {"type": "DT_INT32"}, "value": {"tensor": {"dtype": "DT_INT32", "tensorShape": {"dim": [{"size": "1"}]}}}}}, {"name": "StatefulPartitionedCall/jax2tf_main_/vmap/vmap/pjit_cross_/clip_by_value_3", "op": "Const", "attr": {"dtype": {"type": "DT_INT32"}, "value": {"tensor": {"dtype": "DT_INT32", "tensorShape": {"dim": [{"size": "1"}]}}}}}, {"name": "StatefulPartitionedCall/jax2tf_main_/vmap/vmap/pjit_cross_/add_3", "op": "Const", "attr": {"dtype": {"type": "DT_INT32"}, "value": {"tensor": {"dtype": "DT_INT32", "tensorShape": {"dim": [{"size": "1"}]}}}}}, {"name": "StatefulPartitionedCall/jax2tf_main_/vmap/vmap/pjit_cross_/ones_like_3", "op": "Const", "attr": {"dtype": {"type": "DT_INT32"}, "value": {"tensor": {"dtype": "DT_INT32", "tensorShape": {"dim": [{"size": "1"}]}}}}}, {"name": "StatefulPartitionedCall/jax2tf_main_/vmap/vmap/pjit_cross_/Reshape_8/shape", "op": "Const", "attr": {"value": {"tensor": {"dtype": "DT_INT32", "tensorShape": {"dim": [{"size": "1"}]}}}, "dtype": {"type": "DT_INT32"}}}, {"name": "StatefulPartitionedCall/jax2tf_main_/vmap/vmap/pjit_cross_/concat/axis", "op": "Const", "attr": {"dtype": {"type": "DT_INT32"}, "value": {"tensor": {"dtype": "DT_INT32", "tensorShape": {}}}}}, {"name": "StatefulPartitionedCall/jax2tf_main_/vmap/vmap/pjit_norm_/Sum_2/reduction_indices", "op": "Const", "attr": {"dtype": {"type": "DT_INT32"}, "value": {"tensor": {"dtype": "DT_INT32", "tensorShape": {"dim": [{"size": "1"}]}}}}}, {"name": "StatefulPartitionedCall/jax2tf_main_/vmap/vmap/pjit_cross_/clip_by_value_9", "op": "Const", "attr": {"value": {"tensor": {"dtype": "DT_INT32", "tensorShape": {"dim": [{"size": "1"}]}}}, "dtype": {"type": "DT_INT32"}}}, {"name": "StatefulPartitionedCall/jax2tf_main_/vmap/vmap/pjit_cross_/add_9", "op": "Const", "attr": {"dtype": {"type": "DT_INT32"}, "value": {"tensor": {"dtype": "DT_INT32", "tensorShape": {"dim": [{"size": "1"}]}}}}}, {"name": "StatefulPartitionedCall/jax2tf_main_/vmap/vmap/pjit_cross_/ones_like_9", "op": "Const", "attr": {"dtype": {"type": "DT_INT32"}, "value": {"tensor": {"dtype": "DT_INT32", "tensorShape": {"dim": [{"size": "1"}]}}}}}, {"name": "StatefulPartitionedCall/jax2tf_main_/vmap/vmap/pjit_cross_/Reshape_17/shape", "op": "Const", "attr": {"dtype": {"type": "DT_INT32"}, "value": {"tensor": {"dtype": "DT_INT32", "tensorShape": {"dim": [{"size": "1"}]}}}}}, {"name": "StatefulPartitionedCall/jax2tf_main_/vmap/vmap/pjit_cross_/concat_1/axis", "op": "Const", "attr": {"value": {"tensor": {"dtype": "DT_INT32", "tensorShape": {}}}, "dtype": {"type": "DT_INT32"}}}, {"name": "StatefulPartitionedCall/jax2tf_main_/vmap/vmap/pjit_fn_/Reshape_3/shape", "op": "Const", "attr": {"value": {"tensor": {"dtype": "DT_INT32", "tensorShape": {"dim": [{"size": "2"}]}}}, "dtype": {"type": "DT_INT32"}}}, {"name": "StatefulPartitionedCall/jax2tf_main_/vmap/vmap/pjit_fn_/Reshape_5/shape", "op": "Const", "attr": {"dtype": {"type": "DT_INT32"}, "value": {"tensor": {"dtype": "DT_INT32", "tensorShape": {"dim": [{"size": "3"}]}}}}}, {"name": "StatefulPartitionedCall/jax2tf_main_/vmap/vmap/pjit_norm_/Sum_3/reduction_indices", "op": "Const", "attr": {"value": {"tensor": {"dtype": "DT_INT32", "tensorShape": {"dim": [{"size": "1"}]}}}, "dtype": {"type": "DT_INT32"}}}, {"name": "StatefulPartitionedCall/jax2tf_main_/vmap/vmap/pjit_true_divide_/Reshape/shape", "op": "Const", "attr": {"value": {"tensor": {"dtype": "DT_INT32", "tensorShape": {"dim": [{"size": "3"}]}}}, "dtype": {"type": "DT_INT32"}}}, {"name": "StatefulPartitionedCall/jax2tf_main_/vmap/vmap/pjit__lambda__/BroadcastTo_1", "op": "Const", "attr": {"dtype": {"type": "DT_FLOAT"}, "value": {"tensor": {"dtype": "DT_FLOAT", "tensorShape": {"dim": [{"size": "1"}, {"size": "1"}, {"size": "3"}]}}}}}, {"name": "StatefulPartitionedCall/jax2tf_main_/vmap/vmap/pjit_norm_/Sum_4/reduction_indices", "op": "Const", "attr": {"dtype": {"type": "DT_INT32"}, "value": {"tensor": {"dtype": "DT_INT32", "tensorShape": {"dim": [{"size": "1"}]}}}}}, {"name": "StatefulPartitionedCall/Const_25", "op": "Const", "attr": {"value": {"tensor": {"dtype": "DT_FLOAT", "tensorShape": {}}}, "dtype": {"type": "DT_FLOAT"}}}, {"name": "StatefulPartitionedCall/jax2tf_main_/vmap/vmap/pjit_fn_/Reshape_9/shape", "op": "Const", "attr": {"value": {"tensor": {"dtype": "DT_INT32", "tensorShape": {"dim": [{"size": "3"}]}}}, "dtype": {"type": "DT_INT32"}}}, {"name": "StatefulPartitionedCall/jax2tf_main_/vmap/vmap/pjit__lambda__/BroadcastTo_3", "op": "Const", "attr": {"value": {"tensor": {"dtype": "DT_FLOAT", "tensorShape": {"dim": [{"size": "1"}, {"size": "1"}, {"size": "3"}]}}}, "dtype": {"type": "DT_FLOAT"}}}, {"name": "StatefulPartitionedCall/jax2tf_main_/vmap/vmap/pjit_norm_/Sum_5/reduction_indices", "op": "Const", "attr": {"dtype": {"type": "DT_INT32"}, "value": {"tensor": {"dtype": "DT_INT32", "tensorShape": {"dim": [{"size": "1"}]}}}}}, {"name": "StatefulPartitionedCall/Const_30", "op": "Const", "attr": {"value": {"tensor": {"dtype": "DT_FLOAT", "tensorShape": {}}}, "dtype": {"type": "DT_FLOAT"}}}, {"name": "StatefulPartitionedCall/jax2tf_main_/vmap/vmap/pjit_fn_/Reshape_12/shape", "op": "Const", "attr": {"dtype": {"type": "DT_INT32"}, "value": {"tensor": {"dtype": "DT_INT32", "tensorShape": {"dim": [{"size": "3"}]}}}}}, {"name": "StatefulPartitionedCall/jax2tf_main_/vmap/vmap/pjit__lambda__/BroadcastTo_5", "op": "Const", "attr": {"dtype": {"type": "DT_FLOAT"}, "value": {"tensor": {"dtype": "DT_FLOAT", "tensorShape": {"dim": [{"size": "1"}, {"size": "1"}, {"size": "3"}]}}}}}, {"name": "StatefulPartitionedCall/jax2tf_main_/vmap/vmap/pjit_norm_/Sum_6/reduction_indices", "op": "Const", "attr": {"dtype": {"type": "DT_INT32"}, "value": {"tensor": {"dtype": "DT_INT32", "tensorShape": {"dim": [{"size": "1"}]}}}}}, {"name": "StatefulPartitionedCall/Const_33", "op": "Const", "attr": {"dtype": {"type": "DT_FLOAT"}, "value": {"tensor": {"dtype": "DT_FLOAT", "tensorShape": {}}}}}, {"name": "StatefulPartitionedCall/jax2tf_main_/vmap/vmap/pjit_fn_/Reshape_15/shape", "op": "Const", "attr": {"dtype": {"type": "DT_INT32"}, "value": {"tensor": {"dtype": "DT_INT32", "tensorShape": {"dim": [{"size": "3"}]}}}}}, {"name": "StatefulPartitionedCall/jax2tf_main_/vmap/vmap/pjit__lambda__/BroadcastTo_7", "op": "Const", "attr": {"dtype": {"type": "DT_FLOAT"}, "value": {"tensor": {"dtype": "DT_FLOAT", "tensorShape": {"dim": [{"size": "1"}, {"size": "1"}, {"size": "3"}]}}}}}, {"name": "StatefulPartitionedCall/jax2tf_main_/vmap/vmap/pjit_norm_/Sum_7/reduction_indices", "op": "Const", "attr": {"dtype": {"type": "DT_INT32"}, "value": {"tensor": {"dtype": "DT_INT32", "tensorShape": {"dim": [{"size": "1"}]}}}}}, {"name": "StatefulPartitionedCall/Const_36", "op": "Const", "attr": {"dtype": {"type": "DT_FLOAT"}, "value": {"tensor": {"dtype": "DT_FLOAT", "tensorShape": {}}}}}, {"name": "StatefulPartitionedCall/jax2tf_main_/vmap/vmap/pjit_fn_/Reshape_18/shape", "op": "Const", "attr": {"value": {"tensor": {"dtype": "DT_INT32", "tensorShape": {"dim": [{"size": "3"}]}}}, "dtype": {"type": "DT_INT32"}}}, {"name": "StatefulPartitionedCall/jax2tf_main_/vmap/vmap/pjit__lambda__/BroadcastTo_9", "op": "Const", "attr": {"dtype": {"type": "DT_FLOAT"}, "value": {"tensor": {"dtype": "DT_FLOAT", "tensorShape": {"dim": [{"size": "1"}, {"size": "1"}, {"size": "3"}]}}}}}, {"name": "StatefulPartitionedCall/jax2tf_main_/vmap/vmap/pjit_norm_/Sum_8/reduction_indices", "op": "Const", "attr": {"value": {"tensor": {"dtype": "DT_INT32", "tensorShape": {"dim": [{"size": "1"}]}}}, "dtype": {"type": "DT_INT32"}}}, {"name": "StatefulPartitionedCall/Const_39", "op": "Const", "attr": {"value": {"tensor": {"dtype": "DT_FLOAT", "tensorShape": {}}}, "dtype": {"type": "DT_FLOAT"}}}, {"name": "StatefulPartitionedCall/jax2tf_main_/vmap/vmap/pjit_fn_/Reshape_21/shape", "op": "Const", "attr": {"value": {"tensor": {"dtype": "DT_INT32", "tensorShape": {"dim": [{"size": "3"}]}}}, "dtype": {"type": "DT_INT32"}}}, {"name": "StatefulPartitionedCall/jax2tf_main_/vmap/vmap/pjit__lambda__/BroadcastTo_11", "op": "Const", "attr": {"value": {"tensor": {"dtype": "DT_FLOAT", "tensorShape": {"dim": [{"size": "1"}, {"size": "1"}, {"size": "3"}]}}}, "dtype": {"type": "DT_FLOAT"}}}, {"name": "StatefulPartitionedCall/jax2tf_main_/vmap/vmap/pjit_norm_/Sum_9/reduction_indices", "op": "Const", "attr": {"value": {"tensor": {"dtype": "DT_INT32", "tensorShape": {"dim": [{"size": "1"}]}}}, "dtype": {"type": "DT_INT32"}}}, {"name": "StatefulPartitionedCall/Const_42", "op": "Const", "attr": {"value": {"tensor": {"dtype": "DT_FLOAT", "tensorShape": {}}}, "dtype": {"type": "DT_FLOAT"}}}, {"name": "StatefulPartitionedCall/jax2tf_main_/vmap/vmap/pjit_fn_/Reshape_24/shape", "op": "Const", "attr": {"value": {"tensor": {"dtype": "DT_INT32", "tensorShape": {"dim": [{"size": "3"}]}}}, "dtype": {"type": "DT_INT32"}}}, {"name": "StatefulPartitionedCall/jax2tf_main_/vmap/vmap/pjit__lambda__/BroadcastTo_13", "op": "Const", "attr": {"value": {"tensor": {"dtype": "DT_FLOAT", "tensorShape": {"dim": [{"size": "1"}, {"size": "1"}, {"size": "3"}]}}}, "dtype": {"type": "DT_FLOAT"}}}, {"name": "StatefulPartitionedCall/jax2tf_main_/vmap/vmap/pjit_norm_/Sum_10/reduction_indices", "op": "Const", "attr": {"value": {"tensor": {"dtype": "DT_INT32", "tensorShape": {"dim": [{"size": "1"}]}}}, "dtype": {"type": "DT_INT32"}}}, {"name": "StatefulPartitionedCall/Const_45", "op": "Const", "attr": {"value": {"tensor": {"dtype": "DT_FLOAT", "tensorShape": {}}}, "dtype": {"type": "DT_FLOAT"}}}, {"name": "StatefulPartitionedCall/jax2tf_main_/vmap/vmap/pjit_fn_/Reshape_27/shape", "op": "Const", "attr": {"value": {"tensor": {"dtype": "DT_INT32", "tensorShape": {"dim": [{"size": "3"}]}}}, "dtype": {"type": "DT_INT32"}}}, {"name": "StatefulPartitionedCall/jax2tf_main_/vmap/vmap/pjit__lambda__/BroadcastTo_15", "op": "Const", "attr": {"dtype": {"type": "DT_FLOAT"}, "value": {"tensor": {"dtype": "DT_FLOAT", "tensorShape": {"dim": [{"size": "1"}, {"size": "1"}, {"size": "3"}]}}}}}, {"name": "StatefulPartitionedCall/jax2tf_main_/vmap/vmap/pjit_norm_/Sum_11/reduction_indices", "op": "Const", "attr": {"value": {"tensor": {"dtype": "DT_INT32", "tensorShape": {"dim": [{"size": "1"}]}}}, "dtype": {"type": "DT_INT32"}}}, {"name": "StatefulPartitionedCall/Const_48", "op": "Const", "attr": {"value": {"tensor": {"dtype": "DT_FLOAT", "tensorShape": {}}}, "dtype": {"type": "DT_FLOAT"}}}, {"name": "StatefulPartitionedCall/jax2tf_main_/vmap/vmap/pjit_fn_/Reshape_30/shape", "op": "Const", "attr": {"dtype": {"type": "DT_INT32"}, "value": {"tensor": {"dtype": "DT_INT32", "tensorShape": {"dim": [{"size": "3"}]}}}}}, {"name": "StatefulPartitionedCall/jax2tf_main_/vmap/vmap/pjit__lambda__/BroadcastTo_17", "op": "Const", "attr": {"value": {"tensor": {"dtype": "DT_FLOAT", "tensorShape": {"dim": [{"size": "1"}, {"size": "1"}, {"size": "3"}]}}}, "dtype": {"type": "DT_FLOAT"}}}, {"name": "StatefulPartitionedCall/jax2tf_main_/vmap/vmap/pjit_norm_/Sum_12/reduction_indices", "op": "Const", "attr": {"dtype": {"type": "DT_INT32"}, "value": {"tensor": {"dtype": "DT_INT32", "tensorShape": {"dim": [{"size": "1"}]}}}}}, {"name": "StatefulPartitionedCall/Const_51", "op": "Const", "attr": {"dtype": {"type": "DT_FLOAT"}, "value": {"tensor": {"dtype": "DT_FLOAT", "tensorShape": {}}}}}, {"name": "StatefulPartitionedCall/jax2tf_main_/vmap/vmap/pjit_fn_/Reshape_33/shape", "op": "Const", "attr": {"value": {"tensor": {"dtype": "DT_INT32", "tensorShape": {"dim": [{"size": "3"}]}}}, "dtype": {"type": "DT_INT32"}}}, {"name": "StatefulPartitionedCall/jax2tf_main_/vmap/vmap/pjit__lambda__/BroadcastTo_19", "op": "Const", "attr": {"value": {"tensor": {"dtype": "DT_FLOAT", "tensorShape": {"dim": [{"size": "1"}, {"size": "1"}, {"size": "3"}]}}}, "dtype": {"type": "DT_FLOAT"}}}, {"name": "StatefulPartitionedCall/jax2tf_main_/vmap/vmap/pjit_norm_/Sum_13/reduction_indices", "op": "Const", "attr": {"value": {"tensor": {"dtype": "DT_INT32", "tensorShape": {"dim": [{"size": "1"}]}}}, "dtype": {"type": "DT_INT32"}}}, {"name": "StatefulPartitionedCall/Const_54", "op": "Const", "attr": {"dtype": {"type": "DT_FLOAT"}, "value": {"tensor": {"dtype": "DT_FLOAT", "tensorShape": {}}}}}, {"name": "StatefulPartitionedCall/jax2tf_main_/vmap/vmap/pjit_fn_/Reshape_36/shape", "op": "Const", "attr": {"value": {"tensor": {"dtype": "DT_INT32", "tensorShape": {"dim": [{"size": "3"}]}}}, "dtype": {"type": "DT_INT32"}}}, {"name": "StatefulPartitionedCall/jax2tf_main_/vmap/vmap/jvp/pjit__lambda__/BroadcastTo_1", "op": "Const", "attr": {"value": {"tensor": {"dtype": "DT_FLOAT", "tensorShape": {"dim": [{"size": "1"}, {"size": "1"}, {"size": "3"}]}}}, "dtype": {"type": "DT_FLOAT"}}}, {"name": "StatefulPartitionedCall/jax2tf_main_/vmap/vmap/transpose/jax2tf_main_/vmap/vmap/jvp/pjit_absolute_/BroadcastTo_2", "op": "Const", "attr": {"value": {"tensor": {"dtype": "DT_FLOAT", "tensorShape": {"dim": [{"size": "92"}, {"size": "92"}, {"size": "3"}]}}}, "dtype": {"type": "DT_FLOAT"}}}, {"name": "StatefulPartitionedCall/jax2tf_main_/vmap/vmap/pjit_norm_/Sum_14/reduction_indices", "op": "Const", "attr": {"dtype": {"type": "DT_INT32"}, "value": {"tensor": {"dtype": "DT_INT32", "tensorShape": {"dim": [{"size": "1"}]}}}}}, {"name": "StatefulPartitionedCall/jax2tf_main_/vmap/vmap/pjit_true_divide_/Reshape_1/shape", "op": "Const", "attr": {"dtype": {"type": "DT_INT32"}, "value": {"tensor": {"dtype": "DT_INT32", "tensorShape": {"dim": [{"size": "3"}]}}}}}, {"name": "StatefulPartitionedCall/jax2tf_main_/vmap/vmap/pjit_true_divide_/truediv", "op": "Const", "attr": {"dtype": {"type": "DT_FLOAT"}, "value": {"tensor": {"dtype": "DT_FLOAT", "tensorShape": {"dim": [{"size": "3"}]}}}}}, {"name": "StatefulPartitionedCall/jax2tf_main_/vmap/transpose/perm", "op": "Const", "attr": {"dtype": {"type": "DT_INT32"}, "value": {"tensor": {"dtype": "DT_INT32", "tensorShape": {"dim": [{"size": "2"}]}}}}}, {"name": "StatefulPartitionedCall/jax2tf_main_/pjit_atleast_3d_/Reshape_2/shape", "op": "Const", "attr": {"dtype": {"type": "DT_INT32"}, "value": {"tensor": {"dtype": "DT_INT32", "tensorShape": {"dim": [{"size": "3"}]}}}}}, {"name": "StatefulPartitionedCall/jax2tf_main_/concat/axis", "op": "Const", "attr": {"dtype": {"type": "DT_INT32"}, "value": {"tensor": {"dtype": "DT_INT32", "tensorShape": {}}}}}, {"name": "xs_0", "op": "Placeholder", "attr": {"shape": {"shape": {"dim": [{"size": "1"}]}}, "dtype": {"type": "DT_FLOAT"}}}, {"name": "StatefulPartitionedCall/jax2tf_main_/Slice", "op": "Slice", "input": ["xs_0", "StatefulPartitionedCall/jax2tf_main_/clip_by_value", "StatefulPartitionedCall/jax2tf_main_/Slice/size"], "attr": {"T": {"type": "DT_FLOAT"}, "Index": {"type": "DT_INT32"}}}, {"name": "StatefulPartitionedCall/jax2tf_main_/Reshape", "op": "Reshape", "input": ["StatefulPartitionedCall/jax2tf_main_/Slice", "StatefulPartitionedCall/jax2tf_main_/Reshape/shape_1"], "attr": {"T": {"type": "DT_FLOAT"}, "Tshape": {"type": "DT_INT32"}}}, {"name": "StatefulPartitionedCall/jax2tf_main_/vmap/vmap/pjit__lambda__/Sin", "op": "Sin", "input": ["StatefulPartitionedCall/jax2tf_main_/Reshape"], "attr": {"T": {"type": "DT_FLOAT"}}}, {"name": "StatefulPartitionedCall/jax2tf_main_/vmap/vmap/pjit__lambda__/Cos", "op": "Cos", "input": ["StatefulPartitionedCall/jax2tf_main_/Reshape"], "attr": {"T": {"type": "DT_FLOAT"}}}, {"name": "StatefulPartitionedCall/jax2tf_main_/vmap/vmap/pjit__lambda__/Neg", "op": "Neg", "input": ["StatefulPartitionedCall/jax2tf_main_/vmap/vmap/pjit__lambda__/Sin"], "attr": {"T": {"type": "DT_FLOAT"}}}, {"name": "StatefulPartitionedCall/jax2tf_main_/vmap/vmap/Reshape_3", "op": "Reshape", "input": ["StatefulPartitionedCall/jax2tf_main_/vmap/vmap/pjit__lambda__/Sin", "StatefulPartitionedCall/jax2tf_main_/vmap/vmap/Reshape_3/shape"], "attr": {"Tshape": {"type": "DT_INT32"}, "T": {"type": "DT_FLOAT"}}}, {"name": "StatefulPartitionedCall/jax2tf_main_/vmap/vmap/Reshape", "op": "Reshape", "input": ["StatefulPartitionedCall/jax2tf_main_/vmap/vmap/pjit__lambda__/Cos", "StatefulPartitionedCall/jax2tf_main_/vmap/vmap/Reshape/shape"], "attr": {"T": {"type": "DT_FLOAT"}, "Tshape": {"type": "DT_INT32"}}}, {"name": "StatefulPartitionedCall/jax2tf_main_/vmap/vmap/Reshape_4", "op": "Reshape", "input": ["StatefulPartitionedCall/jax2tf_main_/vmap/vmap/pjit__lambda__/Cos", "StatefulPartitionedCall/jax2tf_main_/vmap/vmap/Reshape_4/shape"], "attr": {"Tshape": {"type": "DT_INT32"}, "T": {"type": "DT_FLOAT"}}}, {"name": "StatefulPartitionedCall/jax2tf_main_/vmap/vmap/Reshape_1", "op": "Reshape", "input": ["StatefulPartitionedCall/jax2tf_main_/vmap/vmap/pjit__lambda__/Neg", "StatefulPartitionedCall/jax2tf_main_/vmap/vmap/Reshape_1/shape"], "attr": {"T": {"type": "DT_FLOAT"}, "Tshape": {"type": "DT_INT32"}}}, {"name": "StatefulPartitionedCall/jax2tf_main_/vmap/vmap/concat_1", "op": "ConcatV2", "input": ["StatefulPartitionedCall/jax2tf_main_/vmap/vmap/Reshape_3", "StatefulPartitionedCall/jax2tf_main_/vmap/vmap/Reshape_4", "StatefulPartitionedCall/jax2tf_main_/vmap/vmap/BroadcastTo_5", "StatefulPartitionedCall/jax2tf_main_/vmap/vmap/concat_1/axis"], "attr": {"T": {"type": "DT_FLOAT"}, "Tidx": {"type": "DT_INT32"}, "N": {"i": "3"}}}, {"name": "StatefulPartitionedCall/jax2tf_main_/vmap/vmap/concat", "op": "ConcatV2", "input": ["StatefulPartitionedCall/jax2tf_main_/vmap/vmap/Reshape", "StatefulPartitionedCall/jax2tf_main_/vmap/vmap/Reshape_1", "StatefulPartitionedCall/jax2tf_main_/vmap/vmap/BroadcastTo_2", "StatefulPartitionedCall/jax2tf_main_/vmap/vmap/concat/axis"], "attr": {"N": {"i": "3"}, "Tidx": {"type": "DT_INT32"}, "T": {"type": "DT_FLOAT"}}}, {"name": "StatefulPartitionedCall/jax2tf_main_/vmap/vmap/Reshape_7", "op": "Reshape", "input": ["StatefulPartitionedCall/jax2tf_main_/vmap/vmap/concat_1", "StatefulPartitionedCall/jax2tf_main_/vmap/vmap/Reshape_7/shape"], "attr": {"T": {"type": "DT_FLOAT"}, "Tshape": {"type": "DT_INT32"}}}, {"name": "StatefulPartitionedCall/jax2tf_main_/vmap/vmap/Reshape_6", "op": "Reshape", "input": ["StatefulPartitionedCall/jax2tf_main_/vmap/vmap/concat", "StatefulPartitionedCall/jax2tf_main_/vmap/vmap/Reshape_6/shape"], "attr": {"T": {"type": "DT_FLOAT"}, "Tshape": {"type": "DT_INT32"}}}, {"name": "StatefulPartitionedCall/jax2tf_main_/vmap/vmap/concat_2", "op": "ConcatV2", "input": ["StatefulPartitionedCall/jax2tf_main_/vmap/vmap/Reshape_6", "StatefulPartitionedCall/jax2tf_main_/vmap/vmap/Reshape_7", "StatefulPartitionedCall/jax2tf_main_/vmap/vmap/BroadcastTo_8", "StatefulPartitionedCall/jax2tf_main_/vmap/vmap/concat_2/axis"], "attr": {"N": {"i": "3"}, "Tidx": {"type": "DT_INT32"}, "T": {"type": "DT_FLOAT"}}}, {"name": "StatefulPartitionedCall/jax2tf_main_/vmap/vmap/pjit_matmul_/MatMul", "op": "MatMul", "input": ["StatefulPartitionedCall/jax2tf_main_/vmap/vmap/concat_2", "StatefulPartitionedCall/jax2tf_main_/vmap/vmap/pjit_matmul_/ExpandDims"], "device": "/device:CPU:0", "attr": {"transpose_b": {"b": false}, "transpose_a": {"b": false}, "T": {"type": "DT_FLOAT"}}}, {"name": "StatefulPartitionedCall/jax2tf_main_/vmap/vmap/pjit_matmul_/Squeeze", "op": "Squeeze", "input": ["StatefulPartitionedCall/jax2tf_main_/vmap/vmap/pjit_matmul_/MatMul"], "attr": {"T": {"type": "DT_FLOAT"}, "squeeze_dims": {"list": {"i": ["1"]}}}}, {"name": "StatefulPartitionedCall/jax2tf_main_/vmap/vmap/pjit_fn_/Reshape_38", "op": "Reshape", "input": ["StatefulPartitionedCall/jax2tf_main_/vmap/vmap/pjit_matmul_/Squeeze", "StatefulPartitionedCall/jax2tf_main_/vmap/vmap/pjit_fn_/Reshape_38/shape"], "attr": {"T": {"type": "DT_FLOAT"}, "Tshape": {"type": "DT_INT32"}}}, {"name": "StatefulPartitionedCall/jax2tf_main_/vmap/vmap/pjit_fn_/Reshape_35", "op": "Reshape", "input": ["StatefulPartitionedCall/jax2tf_main_/vmap/vmap/pjit_matmul_/Squeeze", "StatefulPartitionedCall/jax2tf_main_/vmap/vmap/pjit_fn_/Reshape_35/shape"], "attr": {"T": {"type": "DT_FLOAT"}, "Tshape": {"type": "DT_INT32"}}}, {"name": "StatefulPartitionedCall/jax2tf_main_/vmap/vmap/pjit_fn_/Reshape_32", "op": "Reshape", "input": ["StatefulPartitionedCall/jax2tf_main_/vmap/vmap/pjit_matmul_/Squeeze", "StatefulPartitionedCall/jax2tf_main_/vmap/vmap/pjit_fn_/Reshape_32/shape"], "attr": {"T": {"type": "DT_FLOAT"}, "Tshape": {"type": "DT_INT32"}}}, {"name": "StatefulPartitionedCall/jax2tf_main_/vmap/vmap/pjit_fn_/Reshape_29", "op": "Reshape", "input": ["StatefulPartitionedCall/jax2tf_main_/vmap/vmap/pjit_matmul_/Squeeze", "StatefulPartitionedCall/jax2tf_main_/vmap/vmap/pjit_fn_/Reshape_29/shape"], "attr": {"T": {"type": "DT_FLOAT"}, "Tshape": {"type": "DT_INT32"}}}, {"name": "StatefulPartitionedCall/jax2tf_main_/vmap/vmap/pjit_fn_/Reshape_26", "op": "Reshape", "input": ["StatefulPartitionedCall/jax2tf_main_/vmap/vmap/pjit_matmul_/Squeeze", "StatefulPartitionedCall/jax2tf_main_/vmap/vmap/pjit_fn_/Reshape_26/shape"], "attr": {"T": {"type": "DT_FLOAT"}, "Tshape": {"type": "DT_INT32"}}}, {"name": "StatefulPartitionedCall/jax2tf_main_/vmap/vmap/pjit_fn_/Reshape_23", "op": "Reshape", "input": ["StatefulPartitionedCall/jax2tf_main_/vmap/vmap/pjit_matmul_/Squeeze", "StatefulPartitionedCall/jax2tf_main_/vmap/vmap/pjit_fn_/Reshape_23/shape"], "attr": {"Tshape": {"type": "DT_INT32"}, "T": {"type": "DT_FLOAT"}}}, {"name": "StatefulPartitionedCall/jax2tf_main_/vmap/vmap/pjit_fn_/Reshape_20", "op": "Reshape", "input": ["StatefulPartitionedCall/jax2tf_main_/vmap/vmap/pjit_matmul_/Squeeze", "StatefulPartitionedCall/jax2tf_main_/vmap/vmap/pjit_fn_/Reshape_20/shape"], "attr": {"T": {"type": "DT_FLOAT"}, "Tshape": {"type": "DT_INT32"}}}, {"name": "StatefulPartitionedCall/jax2tf_main_/vmap/vmap/pjit_fn_/Reshape_17", "op": "Reshape", "input": ["StatefulPartitionedCall/jax2tf_main_/vmap/vmap/pjit_matmul_/Squeeze", "StatefulPartitionedCall/jax2tf_main_/vmap/vmap/pjit_fn_/Reshape_17/shape"], "attr": {"T": {"type": "DT_FLOAT"}, "Tshape": {"type": "DT_INT32"}}}, {"name": "StatefulPartitionedCall/jax2tf_main_/vmap/vmap/pjit_fn_/Reshape_14", "op": "Reshape", "input": ["StatefulPartitionedCall/jax2tf_main_/vmap/vmap/pjit_matmul_/Squeeze", "StatefulPartitionedCall/jax2tf_main_/vmap/vmap/pjit_fn_/Reshape_14/shape"], "attr": {"T": {"type": "DT_FLOAT"}, "Tshape": {"type": "DT_INT32"}}}, {"name": "StatefulPartitionedCall/jax2tf_main_/vmap/vmap/pjit_fn_/Reshape_11", "op": "Reshape", "input": ["StatefulPartitionedCall/jax2tf_main_/vmap/vmap/pjit_matmul_/Squeeze", "StatefulPartitionedCall/jax2tf_main_/vmap/vmap/pjit_fn_/Reshape_11/shape"], "attr": {"T": {"type": "DT_FLOAT"}, "Tshape": {"type": "DT_INT32"}}}, {"name": "StatefulPartitionedCall/jax2tf_main_/vmap/vmap/pjit_fn_/Reshape_8", "op": "Reshape", "input": ["StatefulPartitionedCall/jax2tf_main_/vmap/vmap/pjit_matmul_/Squeeze", "StatefulPartitionedCall/jax2tf_main_/vmap/vmap/pjit_fn_/Reshape_8/shape"], "attr": {"Tshape": {"type": "DT_INT32"}, "T": {"type": "DT_FLOAT"}}}, {"name": "StatefulPartitionedCall/jax2tf_main_/vmap/vmap/pjit__lambda__/Sub", "op": "Neg", "input": ["StatefulPartitionedCall/jax2tf_main_/vmap/vmap/pjit_matmul_/Squeeze"], "attr": {"T": {"type": "DT_FLOAT"}}}, {"name": "StatefulPartitionedCall/jax2tf_main_/vmap/vmap/pjit_norm_/ArithmeticOptimizer/ReplaceMulWithSquare_Mul_1", "op": "Square", "input": ["StatefulPartitionedCall/jax2tf_main_/vmap/vmap/pjit__lambda__/Sub"], "attr": {"T": {"type": "DT_FLOAT"}}}, {"name": "StatefulPartitionedCall/jax2tf_main_/vmap/vmap/pjit_norm_/Sum_1", "op": "Sum", "input": ["StatefulPartitionedCall/jax2tf_main_/vmap/vmap/pjit_norm_/ArithmeticOptimizer/ReplaceMulWithSquare_Mul_1", "StatefulPartitionedCall/jax2tf_main_/vmap/vmap/pjit_norm_/Sum_1/reduction_indices"], "attr": {"T": {"type": "DT_FLOAT"}, "Tidx": {"type": "DT_INT32"}, "keep_dims": {"b": false}}}, {"name": "StatefulPartitionedCall/jax2tf_main_/vmap/vmap/pjit_norm_/Sqrt_1", "op": "Rsqrt", "input": ["StatefulPartitionedCall/jax2tf_main_/vmap/vmap/pjit_norm_/Sum_1"], "attr": {"T": {"type": "DT_FLOAT"}}}, {"name": "StatefulPartitionedCall/jax2tf_main_/vmap/vmap/pjit_true_divide_/truediv_1", "op": "Mul", "input": ["StatefulPartitionedCall/jax2tf_main_/vmap/vmap/pjit__lambda__/Sub", "StatefulPartitionedCall/jax2tf_main_/vmap/vmap/pjit_norm_/Sqrt_1"], "attr": {"T": {"type": "DT_FLOAT"}}}, {"name": "StatefulPartitionedCall/jax2tf_main_/vmap/vmap/pjit_fn_/Reshape_2", "op": "Reshape", "input": ["StatefulPartitionedCall/jax2tf_main_/vmap/vmap/pjit_true_divide_/truediv_1", "StatefulPartitionedCall/jax2tf_main_/vmap/vmap/pjit_fn_/Reshape_2/shape"], "attr": {"T": {"type": "DT_FLOAT"}, "Tshape": {"type": "DT_INT32"}}}, {"name": "StatefulPartitionedCall/jax2tf_main_/vmap/vmap/pjit_cross_/StridedSlice_8", "op": "StridedSlice", "input": ["StatefulPartitionedCall/jax2tf_main_/vmap/vmap/pjit_true_divide_/truediv_1", "StatefulPartitionedCall/jax2tf_main_/vmap/vmap/pjit_cross_/clip_by_value_8", "StatefulPartitionedCall/jax2tf_main_/vmap/vmap/pjit_cross_/add_8", "StatefulPartitionedCall/jax2tf_main_/vmap/vmap/pjit_cross_/ones_like_8"], "attr": {"Index": {"type": "DT_INT32"}, "new_axis_mask": {"i": "0"}, "ellipsis_mask": {"i": "0"}, "shrink_axis_mask": {"i": "1"}, "T": {"type": "DT_FLOAT"}, "end_mask": {"i": "0"}, "begin_mask": {"i": "0"}}}, {"name": "StatefulPartitionedCall/jax2tf_main_/vmap/vmap/pjit_cross_/StridedSlice_6", "op": "StridedSlice", "input": ["StatefulPartitionedCall/jax2tf_main_/vmap/vmap/pjit_true_divide_/truediv_1", "StatefulPartitionedCall/jax2tf_main_/vmap/vmap/pjit_cross_/clip_by_value_6", "StatefulPartitionedCall/jax2tf_main_/vmap/vmap/pjit_cross_/add_6", "StatefulPartitionedCall/jax2tf_main_/vmap/vmap/pjit_cross_/ones_like_6"], "attr": {"T": {"type": "DT_FLOAT"}, "new_axis_mask": {"i": "0"}, "Index": {"type": "DT_INT32"}, "ellipsis_mask": {"i": "0"}, "begin_mask": {"i": "0"}, "end_mask": {"i": "0"}, "shrink_axis_mask": {"i": "1"}}}, {"name": "StatefulPartitionedCall/jax2tf_main_/vmap/vmap/pjit_cross_/StridedSlice_7", "op": "StridedSlice", "input": ["StatefulPartitionedCall/jax2tf_main_/vmap/vmap/pjit_true_divide_/truediv_1", "StatefulPartitionedCall/jax2tf_main_/vmap/vmap/pjit_cross_/clip_by_value_7", "StatefulPartitionedCall/jax2tf_main_/vmap/vmap/pjit_cross_/add_7", "StatefulPartitionedCall/jax2tf_main_/vmap/vmap/pjit_cross_/ones_like_7"], "attr": {"shrink_axis_mask": {"i": "1"}, "T": {"type": "DT_FLOAT"}, "ellipsis_mask": {"i": "0"}, "Index": {"type": "DT_INT32"}, "new_axis_mask": {"i": "0"}, "begin_mask": {"i": "0"}, "end_mask": {"i": "0"}}}, {"name": "StatefulPartitionedCall/jax2tf_main_/vmap/vmap/pjit_cross_/StridedSlice_5", "op": "StridedSlice", "input": ["StatefulPartitionedCall/jax2tf_main_/vmap/vmap/pjit_true_divide_/truediv_1", "StatefulPartitionedCall/jax2tf_main_/vmap/vmap/pjit_cross_/clip_by_value_5", "StatefulPartitionedCall/jax2tf_main_/vmap/vmap/pjit_cross_/add_5", "StatefulPartitionedCall/jax2tf_main_/vmap/vmap/pjit_cross_/ones_like_5"], "attr": {"end_mask": {"i": "0"}, "new_axis_mask": {"i": "0"}, "begin_mask": {"i": "0"}, "T": {"type": "DT_FLOAT"}, "Index": {"type": "DT_INT32"}, "shrink_axis_mask": {"i": "1"}, "ellipsis_mask": {"i": "0"}}}, {"name": "StatefulPartitionedCall/jax2tf_main_/vmap/vmap/pjit_cross_/StridedSlice_3", "op": "StridedSlice", "input": ["StatefulPartitionedCall/jax2tf_main_/vmap/vmap/pjit_true_divide_/truediv_1", "StatefulPartitionedCall/jax2tf_main_/vmap/vmap/pjit_cross_/clip_by_value_3", "StatefulPartitionedCall/jax2tf_main_/vmap/vmap/pjit_cross_/add_3", "StatefulPartitionedCall/jax2tf_main_/vmap/vmap/pjit_cross_/ones_like_3"], "attr": {"T": {"type": "DT_FLOAT"}, "shrink_axis_mask": {"i": "1"}, "new_axis_mask": {"i": "0"}, "end_mask": {"i": "0"}, "begin_mask": {"i": "0"}, "ellipsis_mask": {"i": "0"}, "Index": {"type": "DT_INT32"}}}, {"name": "StatefulPartitionedCall/jax2tf_main_/vmap/vmap/pjit_cross_/Reshape_6", "op": "Reshape", "input": ["StatefulPartitionedCall/jax2tf_main_/vmap/vmap/pjit_cross_/StridedSlice_5", "StatefulPartitionedCall/jax2tf_main_/vmap/vmap/pjit_cross_/Reshape_6/shape"], "attr": {"Tshape": {"type": "DT_INT32"}, "T": {"type": "DT_FLOAT"}}}, {"name": "StatefulPartitionedCall/jax2tf_main_/vmap/vmap/pjit_cross_/Sub_8", "op": "Neg", "input": ["StatefulPartitionedCall/jax2tf_main_/vmap/vmap/pjit_cross_/StridedSlice_3"], "attr": {"T": {"type": "DT_FLOAT"}}}, {"name": "StatefulPartitionedCall/jax2tf_main_/vmap/vmap/pjit_cross_/Reshape_7", "op": "Const", "input": ["^StatefulPartitionedCall/jax2tf_main_/vmap/vmap/pjit_cross_/StridedSlice_3", "^StatefulPartitionedCall/jax2tf_main_/vmap/vmap/pjit_cross_/StridedSlice_5"], "attr": {"value": {"tensor": {"dtype": "DT_FLOAT", "tensorShape": {"dim": [{"size": "1"}]}}}, "dtype": {"type": "DT_FLOAT"}}}, {"name": "StatefulPartitionedCall/jax2tf_main_/vmap/vmap/pjit_cross_/Reshape_8", "op": "Reshape", "input": ["StatefulPartitionedCall/jax2tf_main_/vmap/vmap/pjit_cross_/Sub_8", "StatefulPartitionedCall/jax2tf_main_/vmap/vmap/pjit_cross_/Reshape_8/shape"], "attr": {"T": {"type": "DT_FLOAT"}, "Tshape": {"type": "DT_INT32"}}}, {"name": "StatefulPartitionedCall/jax2tf_main_/vmap/vmap/pjit_cross_/concat", "op": "ConcatV2", "input": ["StatefulPartitionedCall/jax2tf_main_/vmap/vmap/pjit_cross_/Reshape_6", "StatefulPartitionedCall/jax2tf_main_/vmap/vmap/pjit_cross_/Reshape_7", "StatefulPartitionedCall/jax2tf_main_/vmap/vmap/pjit_cross_/Reshape_8", "StatefulPartitionedCall/jax2tf_main_/vmap/vmap/pjit_cross_/concat/axis"], "attr": {"N": {"i": "3"}, "T": {"type": "DT_FLOAT"}, "Tidx": {"type": "DT_INT32"}}}, {"name": "StatefulPartitionedCall/jax2tf_main_/vmap/vmap/pjit_norm_/ArithmeticOptimizer/ReplaceMulWithSquare_Mul_2", "op": "Square", "input": ["StatefulPartitionedCall/jax2tf_main_/vmap/vmap/pjit_cross_/concat"], "attr": {"T": {"type": "DT_FLOAT"}}}, {"name": "StatefulPartitionedCall/jax2tf_main_/vmap/vmap/pjit_norm_/Sum_2", "op": "Sum", "input": ["StatefulPartitionedCall/jax2tf_main_/vmap/vmap/pjit_norm_/ArithmeticOptimizer/ReplaceMulWithSquare_Mul_2", "StatefulPartitionedCall/jax2tf_main_/vmap/vmap/pjit_norm_/Sum_2/reduction_indices"], "attr": {"T": {"type": "DT_FLOAT"}, "Tidx": {"type": "DT_INT32"}, "keep_dims": {"b": false}}}, {"name": "StatefulPartitionedCall/jax2tf_main_/vmap/vmap/pjit_norm_/Sqrt_2", "op": "Rsqrt", "input": ["StatefulPartitionedCall/jax2tf_main_/vmap/vmap/pjit_norm_/Sum_2"], "attr": {"T": {"type": "DT_FLOAT"}}}, {"name": "StatefulPartitionedCall/jax2tf_main_/vmap/vmap/pjit_true_divide_/truediv_2", "op": "Mul", "input": ["StatefulPartitionedCall/jax2tf_main_/vmap/vmap/pjit_cross_/concat", "StatefulPartitionedCall/jax2tf_main_/vmap/vmap/pjit_norm_/Sqrt_2"], "attr": {"T": {"type": "DT_FLOAT"}}}, {"name": "StatefulPartitionedCall/jax2tf_main_/vmap/vmap/pjit_fn_/Reshape", "op": "Reshape", "input": ["StatefulPartitionedCall/jax2tf_main_/vmap/vmap/pjit_true_divide_/truediv_2", "StatefulPartitionedCall/jax2tf_main_/vmap/vmap/pjit_fn_/Reshape/shape"], "attr": {"Tshape": {"type": "DT_INT32"}, "T": {"type": "DT_FLOAT"}}}, {"name": "StatefulPartitionedCall/jax2tf_main_/vmap/vmap/pjit_cross_/StridedSlice_11", "op": "StridedSlice", "input": ["StatefulPartitionedCall/jax2tf_main_/vmap/vmap/pjit_true_divide_/truediv_2", "StatefulPartitionedCall/jax2tf_main_/vmap/vmap/pjit_cross_/clip_by_value_11", "StatefulPartitionedCall/jax2tf_main_/vmap/vmap/pjit_cross_/add_11", "StatefulPartitionedCall/jax2tf_main_/vmap/vmap/pjit_cross_/ones_like_11"], "attr": {"shrink_axis_mask": {"i": "1"}, "begin_mask": {"i": "0"}, "ellipsis_mask": {"i": "0"}, "T": {"type": "DT_FLOAT"}, "Index": {"type": "DT_INT32"}, "end_mask": {"i": "0"}, "new_axis_mask": {"i": "0"}}}, {"name": "StatefulPartitionedCall/jax2tf_main_/vmap/vmap/pjit_cross_/StridedSlice_10", "op": "StridedSlice", "input": ["StatefulPartitionedCall/jax2tf_main_/vmap/vmap/pjit_true_divide_/truediv_2", "StatefulPartitionedCall/jax2tf_main_/vmap/vmap/pjit_cross_/clip_by_value_10", "StatefulPartitionedCall/jax2tf_main_/vmap/vmap/pjit_cross_/add_10", "StatefulPartitionedCall/jax2tf_main_/vmap/vmap/pjit_cross_/ones_like_10"], "attr": {"ellipsis_mask": {"i": "0"}, "begin_mask": {"i": "0"}, "Index": {"type": "DT_INT32"}, "shrink_axis_mask": {"i": "1"}, "new_axis_mask": {"i": "0"}, "end_mask": {"i": "0"}, "T": {"type": "DT_FLOAT"}}}, {"name": "StatefulPartitionedCall/jax2tf_main_/vmap/vmap/pjit_cross_/StridedSlice_9", "op": "StridedSlice", "input": ["StatefulPartitionedCall/jax2tf_main_/vmap/vmap/pjit_true_divide_/truediv_2", "StatefulPartitionedCall/jax2tf_main_/vmap/vmap/pjit_cross_/clip_by_value_9", "StatefulPartitionedCall/jax2tf_main_/vmap/vmap/pjit_cross_/add_9", "StatefulPartitionedCall/jax2tf_main_/vmap/vmap/pjit_cross_/ones_like_9"], "attr": {"ellipsis_mask": {"i": "0"}, "begin_mask": {"i": "0"}, "Index": {"type": "DT_INT32"}, "shrink_axis_mask": {"i": "1"}, "new_axis_mask": {"i": "0"}, "end_mask": {"i": "0"}, "T": {"type": "DT_FLOAT"}}}, {"name": "StatefulPartitionedCall/jax2tf_main_/vmap/vmap/pjit_fn_/Mul_1", "op": "Mul", "input": ["StatefulPartitionedCall/jax2tf_main_/vmap/vmap/pjit_fn_/BroadcastTo_1", "StatefulPartitionedCall/jax2tf_main_/vmap/vmap/pjit_fn_/Reshape"], "attr": {"T": {"type": "DT_FLOAT"}}}, {"name": "StatefulPartitionedCall/jax2tf_main_/vmap/vmap/pjit_cross_/Mul_6", "op": "Mul", "input": ["StatefulPartitionedCall/jax2tf_main_/vmap/vmap/pjit_cross_/StridedSlice_7", "StatefulPartitionedCall/jax2tf_main_/vmap/vmap/pjit_cross_/StridedSlice_11"], "attr": {"T": {"type": "DT_FLOAT"}}}, {"name": "StatefulPartitionedCall/jax2tf_main_/vmap/vmap/pjit_cross_/Mul_9", "op": "Mul", "input": ["StatefulPartitionedCall/jax2tf_main_/vmap/vmap/pjit_cross_/StridedSlice_6", "StatefulPartitionedCall/jax2tf_main_/vmap/vmap/pjit_cross_/StridedSlice_11"], "attr": {"T": {"type": "DT_FLOAT"}}}, {"name": "StatefulPartitionedCall/jax2tf_main_/vmap/vmap/pjit_cross_/Mul_7", "op": "Mul", "input": ["StatefulPartitionedCall/jax2tf_main_/vmap/vmap/pjit_cross_/StridedSlice_8", "StatefulPartitionedCall/jax2tf_main_/vmap/vmap/pjit_cross_/StridedSlice_10"], "attr": {"T": {"type": "DT_FLOAT"}}}, {"name": "StatefulPartitionedCall/jax2tf_main_/vmap/vmap/pjit_cross_/Mul_10", "op": "Mul", "input": ["StatefulPartitionedCall/jax2tf_main_/vmap/vmap/pjit_cross_/StridedSlice_6", "StatefulPartitionedCall/jax2tf_main_/vmap/vmap/pjit_cross_/StridedSlice_10"], "attr": {"T": {"type": "DT_FLOAT"}}}, {"name": "StatefulPartitionedCall/jax2tf_main_/vmap/vmap/pjit_cross_/Mul_8", "op": "Mul", "input": ["StatefulPartitionedCall/jax2tf_main_/vmap/vmap/pjit_cross_/StridedSlice_8", "StatefulPartitionedCall/jax2tf_main_/vmap/vmap/pjit_cross_/StridedSlice_9"], "attr": {"T": {"type": "DT_FLOAT"}}}, {"name": "StatefulPartitionedCall/jax2tf_main_/vmap/vmap/pjit_cross_/Mul_11", "op": "Mul", "input": ["StatefulPartitionedCall/jax2tf_main_/vmap/vmap/pjit_cross_/StridedSlice_7", "StatefulPartitionedCall/jax2tf_main_/vmap/vmap/pjit_cross_/StridedSlice_9"], "attr": {"T": {"type": "DT_FLOAT"}}}, {"name": "StatefulPartitionedCall/jax2tf_main_/vmap/vmap/pjit_fn_/AddV2", "op": "AddV2", "input": ["StatefulPartitionedCall/jax2tf_main_/vmap/vmap/pjit_fn_/Reshape_2", "StatefulPartitionedCall/jax2tf_main_/vmap/vmap/pjit_fn_/Mul_1"], "attr": {"T": {"type": "DT_FLOAT"}}}, {"name": "StatefulPartitionedCall/jax2tf_main_/vmap/vmap/pjit_cross_/Sub_15", "op": "Sub", "input": ["StatefulPartitionedCall/jax2tf_main_/vmap/vmap/pjit_cross_/Mul_6", "StatefulPartitionedCall/jax2tf_main_/vmap/vmap/pjit_cross_/Mul_7"], "attr": {"T": {"type": "DT_FLOAT"}}}, {"name": "StatefulPartitionedCall/jax2tf_main_/vmap/vmap/pjit_cross_/Sub_16", "op": "Sub", "input": ["StatefulPartitionedCall/jax2tf_main_/vmap/vmap/pjit_cross_/Mul_8", "StatefulPartitionedCall/jax2tf_main_/vmap/vmap/pjit_cross_/Mul_9"], "attr": {"T": {"type": "DT_FLOAT"}}}, {"name": "StatefulPartitionedCall/jax2tf_main_/vmap/vmap/pjit_cross_/Sub_17", "op": "Sub", "input": ["StatefulPartitionedCall/jax2tf_main_/vmap/vmap/pjit_cross_/Mul_10", "StatefulPartitionedCall/jax2tf_main_/vmap/vmap/pjit_cross_/Mul_11"], "attr": {"T": {"type": "DT_FLOAT"}}}, {"name": "StatefulPartitionedCall/jax2tf_main_/vmap/vmap/pjit_fn_/Reshape_6", "op": "Reshape", "input": ["StatefulPartitionedCall/jax2tf_main_/vmap/vmap/pjit_fn_/AddV2", "StatefulPartitionedCall/jax2tf_main_/vmap/vmap/pjit_fn_/Reshape_6/shape"], "attr": {"Tshape": {"type": "DT_INT32"}, "T": {"type": "DT_FLOAT"}}}, {"name": "StatefulPartitionedCall/jax2tf_main_/vmap/vmap/pjit_cross_/Reshape_15", "op": "Reshape", "input": ["StatefulPartitionedCall/jax2tf_main_/vmap/vmap/pjit_cross_/Sub_15", "StatefulPartitionedCall/jax2tf_main_/vmap/vmap/pjit_cross_/Reshape_15/shape"], "attr": {"Tshape": {"type": "DT_INT32"}, "T": {"type": "DT_FLOAT"}}}, {"name": "StatefulPartitionedCall/jax2tf_main_/vmap/vmap/pjit_cross_/Reshape_16", "op": "Reshape", "input": ["StatefulPartitionedCall/jax2tf_main_/vmap/vmap/pjit_cross_/Sub_16", "StatefulPartitionedCall/jax2tf_main_/vmap/vmap/pjit_cross_/Reshape_16/shape"], "attr": {"T": {"type": "DT_FLOAT"}, "Tshape": {"type": "DT_INT32"}}}, {"name": "StatefulPartitionedCall/jax2tf_main_/vmap/vmap/pjit_cross_/Reshape_17", "op": "Reshape", "input": ["StatefulPartitionedCall/jax2tf_main_/vmap/vmap/pjit_cross_/Sub_17", "StatefulPartitionedCall/jax2tf_main_/vmap/vmap/pjit_cross_/Reshape_17/shape"], "attr": {"Tshape": {"type": "DT_INT32"}, "T": {"type": "DT_FLOAT"}}}, {"name": "StatefulPartitionedCall/jax2tf_main_/vmap/vmap/pjit_cross_/concat_1", "op": "ConcatV2", "input": ["StatefulPartitionedCall/jax2tf_main_/vmap/vmap/pjit_cross_/Reshape_15", "StatefulPartitionedCall/jax2tf_main_/vmap/vmap/pjit_cross_/Reshape_16", "StatefulPartitionedCall/jax2tf_main_/vmap/vmap/pjit_cross_/Reshape_17", "StatefulPartitionedCall/jax2tf_main_/vmap/vmap/pjit_cross_/concat_1/axis"], "attr": {"T": {"type": "DT_FLOAT"}, "Tidx": {"type": "DT_INT32"}, "N": {"i": "3"}}}, {"name": "StatefulPartitionedCall/jax2tf_main_/vmap/vmap/pjit_fn_/Reshape_3", "op": "Reshape", "input": ["StatefulPartitionedCall/jax2tf_main_/vmap/vmap/pjit_cross_/concat_1", "StatefulPartitionedCall/jax2tf_main_/vmap/vmap/pjit_fn_/Reshape_3/shape"], "attr": {"Tshape": {"type": "DT_INT32"}, "T": {"type": "DT_FLOAT"}}}, {"name": "StatefulPartitionedCall/jax2tf_main_/vmap/vmap/pjit_fn_/Mul_2", "op": "Mul", "input": ["StatefulPartitionedCall/jax2tf_main_/vmap/vmap/pjit_fn_/BroadcastTo_4", "StatefulPartitionedCall/jax2tf_main_/vmap/vmap/pjit_fn_/Reshape_3"], "attr": {"T": {"type": "DT_FLOAT"}}}, {"name": "StatefulPartitionedCall/jax2tf_main_/vmap/vmap/pjit_fn_/Reshape_5", "op": "Reshape", "input": ["StatefulPartitionedCall/jax2tf_main_/vmap/vmap/pjit_fn_/Mul_2", "StatefulPartitionedCall/jax2tf_main_/vmap/vmap/pjit_fn_/Reshape_5/shape"], "attr": {"Tshape": {"type": "DT_INT32"}, "T": {"type": "DT_FLOAT"}}}, {"name": "StatefulPartitionedCall/jax2tf_main_/vmap/vmap/pjit_fn_/AddV2_1", "op": "AddV2", "input": ["StatefulPartitionedCall/jax2tf_main_/vmap/vmap/pjit_fn_/Reshape_6", "StatefulPartitionedCall/jax2tf_main_/vmap/vmap/pjit_fn_/Reshape_5"], "attr": {"T": {"type": "DT_FLOAT"}}}, {"name": "StatefulPartitionedCall/jax2tf_main_/vmap/vmap/pjit_norm_/ArithmeticOptimizer/ReplaceMulWithSquare_Mul_3", "op": "Square", "input": ["StatefulPartitionedCall/jax2tf_main_/vmap/vmap/pjit_fn_/AddV2_1"], "attr": {"T": {"type": "DT_FLOAT"}}}, {"name": "StatefulPartitionedCall/jax2tf_main_/vmap/vmap/pjit_norm_/Sum_3", "op": "Sum", "input": ["StatefulPartitionedCall/jax2tf_main_/vmap/vmap/pjit_norm_/ArithmeticOptimizer/ReplaceMulWithSquare_Mul_3", "StatefulPartitionedCall/jax2tf_main_/vmap/vmap/pjit_norm_/Sum_3/reduction_indices"], "attr": {"Tidx": {"type": "DT_INT32"}, "T": {"type": "DT_FLOAT"}, "keep_dims": {"b": false}}}, {"name": "StatefulPartitionedCall/jax2tf_main_/vmap/vmap/pjit_norm_/Sqrt_3", "op": "Sqrt", "input": ["StatefulPartitionedCall/jax2tf_main_/vmap/vmap/pjit_norm_/Sum_3"], "attr": {"T": {"type": "DT_FLOAT"}}}, {"name": "StatefulPartitionedCall/jax2tf_main_/vmap/vmap/pjit_true_divide_/Reshape", "op": "Reshape", "input": ["StatefulPartitionedCall/jax2tf_main_/vmap/vmap/pjit_norm_/Sqrt_3", "StatefulPartitionedCall/jax2tf_main_/vmap/vmap/pjit_true_divide_/Reshape/shape"], "attr": {"T": {"type": "DT_FLOAT"}, "Tshape": {"type": "DT_INT32"}}}, {"name": "StatefulPartitionedCall/jax2tf_main_/vmap/vmap/pjit_true_divide_/truediv_3", "op": "RealDiv", "input": ["StatefulPartitionedCall/jax2tf_main_/vmap/vmap/pjit_fn_/AddV2_1", "StatefulPartitionedCall/jax2tf_main_/vmap/vmap/pjit_true_divide_/Reshape"], "attr": {"T": {"type": "DT_FLOAT"}}}, {"name": "ConstantFolding/StatefulPartitionedCall/jax2tf_main_/vmap/vmap/pjit_fn_/AddV2_2-broadcastto_shape-0", "op": "Const", "input": ["^StatefulPartitionedCall/jax2tf_main_/vmap/vmap/pjit_true_divide_/truediv_3"], "attr": {"dtype": {"type": "DT_INT32"}, "value": {"tensor": {"dtype": "DT_INT32", "tensorShape": {"dim": [{"size": "3"}]}}}}}, {"name": "StatefulPartitionedCall/jax2tf_main_/vmap/vmap/pjit_fn_/AddV2_2", "op": "BroadcastTo", "input": ["StatefulPartitionedCall/jax2tf_main_/vmap/vmap/pjit_fn_/Reshape_8", "ConstantFolding/StatefulPartitionedCall/jax2tf_main_/vmap/vmap/pjit_fn_/AddV2_2-broadcastto_shape-0"], "attr": {"T": {"type": "DT_FLOAT"}, "Tidx": {"type": "DT_INT32"}}}, {"name": "StatefulPartitionedCall/jax2tf_main_/vmap/vmap/pjit_absolute_/Abs", "op": "Abs", "input": ["StatefulPartitionedCall/jax2tf_main_/vmap/vmap/pjit_fn_/AddV2_2"], "attr": {"T": {"type": "DT_FLOAT"}}}, {"name": "StatefulPartitionedCall/jax2tf_main_/vmap/vmap/pjit__lambda__/Sub_1", "op": "SquaredDifference", "input": ["StatefulPartitionedCall/jax2tf_main_/vmap/vmap/pjit_absolute_/Abs", "StatefulPartitionedCall/jax2tf_main_/vmap/vmap/pjit__lambda__/BroadcastTo_1"], "attr": {"T": {"type": "DT_FLOAT"}}}, {"name": "StatefulPartitionedCall/jax2tf_main_/vmap/vmap/pjit_norm_/Sum_4", "op": "Sum", "input": ["StatefulPartitionedCall/jax2tf_main_/vmap/vmap/pjit__lambda__/Sub_1", "StatefulPartitionedCall/jax2tf_main_/vmap/vmap/pjit_norm_/Sum_4/reduction_indices"], "attr": {"T": {"type": "DT_FLOAT"}, "keep_dims": {"b": false}, "Tidx": {"type": "DT_INT32"}}}, {"name": "StatefulPartitionedCall/jax2tf_main_/vmap/vmap/pjit_norm_/Sqrt_4", "op": "Sqrt", "input": ["StatefulPartitionedCall/jax2tf_main_/vmap/vmap/pjit_norm_/Sum_4"], "attr": {"T": {"type": "DT_FLOAT"}}}, {"name": "StatefulPartitionedCall/jax2tf_main_/vmap/vmap/pjit__lambda__/Sub_2", "op": "Sub", "input": ["StatefulPartitionedCall/jax2tf_main_/vmap/vmap/pjit_norm_/Sqrt_4", "StatefulPartitionedCall/Const_25"], "attr": {"T": {"type": "DT_FLOAT"}}}, {"name": "StatefulPartitionedCall/jax2tf_main_/vmap/vmap/pjit_fn_/Reshape_9", "op": "Reshape", "input": ["StatefulPartitionedCall/jax2tf_main_/vmap/vmap/pjit__lambda__/Sub_2", "StatefulPartitionedCall/jax2tf_main_/vmap/vmap/pjit_fn_/Reshape_9/shape"], "attr": {"T": {"type": "DT_FLOAT"}, "Tshape": {"type": "DT_INT32"}}}, {"name": "StatefulPartitionedCall/jax2tf_main_/vmap/vmap/pjit_fn_/Mul_4", "op": "Mul", "input": ["StatefulPartitionedCall/jax2tf_main_/vmap/vmap/pjit_true_divide_/truediv_3", "StatefulPartitionedCall/jax2tf_main_/vmap/vmap/pjit_fn_/Reshape_9"], "attr": {"T": {"type": "DT_FLOAT"}}}, {"name": "StatefulPartitionedCall/jax2tf_main_/vmap/vmap/pjit_fn_/AddV2_4", "op": "AddV2", "input": ["StatefulPartitionedCall/jax2tf_main_/vmap/vmap/pjit_fn_/Reshape_11", "StatefulPartitionedCall/jax2tf_main_/vmap/vmap/pjit_fn_/Mul_4"], "attr": {"T": {"type": "DT_FLOAT"}}}, {"name": "StatefulPartitionedCall/jax2tf_main_/vmap/vmap/pjit_absolute_/Abs_1", "op": "Abs", "input": ["StatefulPartitionedCall/jax2tf_main_/vmap/vmap/pjit_fn_/AddV2_4"], "attr": {"T": {"type": "DT_FLOAT"}}}, {"name": "StatefulPartitionedCall/jax2tf_main_/vmap/vmap/pjit__lambda__/Sub_3", "op": "SquaredDifference", "input": ["StatefulPartitionedCall/jax2tf_main_/vmap/vmap/pjit_absolute_/Abs_1", "StatefulPartitionedCall/jax2tf_main_/vmap/vmap/pjit__lambda__/BroadcastTo_3"], "attr": {"T": {"type": "DT_FLOAT"}}}, {"name": "StatefulPartitionedCall/jax2tf_main_/vmap/vmap/pjit_norm_/Sum_5", "op": "Sum", "input": ["StatefulPartitionedCall/jax2tf_main_/vmap/vmap/pjit__lambda__/Sub_3", "StatefulPartitionedCall/jax2tf_main_/vmap/vmap/pjit_norm_/Sum_5/reduction_indices"], "attr": {"keep_dims": {"b": false}, "Tidx": {"type": "DT_INT32"}, "T": {"type": "DT_FLOAT"}}}, {"name": "StatefulPartitionedCall/jax2tf_main_/vmap/vmap/pjit_norm_/Sqrt_5", "op": "Sqrt", "input": ["StatefulPartitionedCall/jax2tf_main_/vmap/vmap/pjit_norm_/Sum_5"], "attr": {"T": {"type": "DT_FLOAT"}}}, {"name": "StatefulPartitionedCall/jax2tf_main_/vmap/vmap/pjit__lambda__/Sub_4", "op": "Sub", "input": ["StatefulPartitionedCall/jax2tf_main_/vmap/vmap/pjit_norm_/Sqrt_5", "StatefulPartitionedCall/Const_30"], "attr": {"T": {"type": "DT_FLOAT"}}}, {"name": "StatefulPartitionedCall/jax2tf_main_/vmap/vmap/pjit_fn_/AddV2_5", "op": "AddV2", "input": ["StatefulPartitionedCall/jax2tf_main_/vmap/vmap/pjit__lambda__/Sub_2", "StatefulPartitionedCall/jax2tf_main_/vmap/vmap/pjit__lambda__/Sub_4"], "attr": {"T": {"type": "DT_FLOAT"}}}, {"name": "StatefulPartitionedCall/jax2tf_main_/vmap/vmap/pjit_fn_/Reshape_12", "op": "Reshape", "input": ["StatefulPartitionedCall/jax2tf_main_/vmap/vmap/pjit_fn_/AddV2_5", "StatefulPartitionedCall/jax2tf_main_/vmap/vmap/pjit_fn_/Reshape_12/shape"], "attr": {"T": {"type": "DT_FLOAT"}, "Tshape": {"type": "DT_INT32"}}}, {"name": "StatefulPartitionedCall/jax2tf_main_/vmap/vmap/pjit_fn_/Mul_5", "op": "Mul", "input": ["StatefulPartitionedCall/jax2tf_main_/vmap/vmap/pjit_true_divide_/truediv_3", "StatefulPartitionedCall/jax2tf_main_/vmap/vmap/pjit_fn_/Reshape_12"], "attr": {"T": {"type": "DT_FLOAT"}}}, {"name": "StatefulPartitionedCall/jax2tf_main_/vmap/vmap/pjit_fn_/AddV2_6", "op": "AddV2", "input": ["StatefulPartitionedCall/jax2tf_main_/vmap/vmap/pjit_fn_/Reshape_14", "StatefulPartitionedCall/jax2tf_main_/vmap/vmap/pjit_fn_/Mul_5"], "attr": {"T": {"type": "DT_FLOAT"}}}, {"name": "StatefulPartitionedCall/jax2tf_main_/vmap/vmap/pjit_absolute_/Abs_2", "op": "Abs", "input": ["StatefulPartitionedCall/jax2tf_main_/vmap/vmap/pjit_fn_/AddV2_6"], "attr": {"T": {"type": "DT_FLOAT"}}}, {"name": "StatefulPartitionedCall/jax2tf_main_/vmap/vmap/pjit__lambda__/Sub_5", "op": "SquaredDifference", "input": ["StatefulPartitionedCall/jax2tf_main_/vmap/vmap/pjit_absolute_/Abs_2", "StatefulPartitionedCall/jax2tf_main_/vmap/vmap/pjit__lambda__/BroadcastTo_5"], "attr": {"T": {"type": "DT_FLOAT"}}}, {"name": "StatefulPartitionedCall/jax2tf_main_/vmap/vmap/pjit_norm_/Sum_6", "op": "Sum", "input": ["StatefulPartitionedCall/jax2tf_main_/vmap/vmap/pjit__lambda__/Sub_5", "StatefulPartitionedCall/jax2tf_main_/vmap/vmap/pjit_norm_/Sum_6/reduction_indices"], "attr": {"keep_dims": {"b": false}, "T": {"type": "DT_FLOAT"}, "Tidx": {"type": "DT_INT32"}}}, {"name": "StatefulPartitionedCall/jax2tf_main_/vmap/vmap/pjit_norm_/Sqrt_6", "op": "Sqrt", "input": ["StatefulPartitionedCall/jax2tf_main_/vmap/vmap/pjit_norm_/Sum_6"], "attr": {"T": {"type": "DT_FLOAT"}}}, {"name": "StatefulPartitionedCall/jax2tf_main_/vmap/vmap/pjit__lambda__/Sub_6", "op": "Sub", "input": ["StatefulPartitionedCall/jax2tf_main_/vmap/vmap/pjit_norm_/Sqrt_6", "StatefulPartitionedCall/Const_33"], "attr": {"T": {"type": "DT_FLOAT"}}}, {"name": "StatefulPartitionedCall/jax2tf_main_/vmap/vmap/pjit_fn_/AddV2_7", "op": "AddV2", "input": ["StatefulPartitionedCall/jax2tf_main_/vmap/vmap/pjit_fn_/AddV2_5", "StatefulPartitionedCall/jax2tf_main_/vmap/vmap/pjit__lambda__/Sub_6"], "attr": {"T": {"type": "DT_FLOAT"}}}, {"name": "StatefulPartitionedCall/jax2tf_main_/vmap/vmap/pjit_fn_/Reshape_15", "op": "Reshape", "input": ["StatefulPartitionedCall/jax2tf_main_/vmap/vmap/pjit_fn_/AddV2_7", "StatefulPartitionedCall/jax2tf_main_/vmap/vmap/pjit_fn_/Reshape_15/shape"], "attr": {"Tshape": {"type": "DT_INT32"}, "T": {"type": "DT_FLOAT"}}}, {"name": "StatefulPartitionedCall/jax2tf_main_/vmap/vmap/pjit_fn_/Mul_6", "op": "Mul", "input": ["StatefulPartitionedCall/jax2tf_main_/vmap/vmap/pjit_true_divide_/truediv_3", "StatefulPartitionedCall/jax2tf_main_/vmap/vmap/pjit_fn_/Reshape_15"], "attr": {"T": {"type": "DT_FLOAT"}}}, {"name": "StatefulPartitionedCall/jax2tf_main_/vmap/vmap/pjit_fn_/AddV2_8", "op": "AddV2", "input": ["StatefulPartitionedCall/jax2tf_main_/vmap/vmap/pjit_fn_/Reshape_17", "StatefulPartitionedCall/jax2tf_main_/vmap/vmap/pjit_fn_/Mul_6"], "attr": {"T": {"type": "DT_FLOAT"}}}, {"name": "StatefulPartitionedCall/jax2tf_main_/vmap/vmap/pjit_absolute_/Abs_3", "op": "Abs", "input": ["StatefulPartitionedCall/jax2tf_main_/vmap/vmap/pjit_fn_/AddV2_8"], "attr": {"T": {"type": "DT_FLOAT"}}}, {"name": "StatefulPartitionedCall/jax2tf_main_/vmap/vmap/pjit__lambda__/Sub_7", "op": "SquaredDifference", "input": ["StatefulPartitionedCall/jax2tf_main_/vmap/vmap/pjit_absolute_/Abs_3", "StatefulPartitionedCall/jax2tf_main_/vmap/vmap/pjit__lambda__/BroadcastTo_7"], "attr": {"T": {"type": "DT_FLOAT"}}}, {"name": "StatefulPartitionedCall/jax2tf_main_/vmap/vmap/pjit_norm_/Sum_7", "op": "Sum", "input": ["StatefulPartitionedCall/jax2tf_main_/vmap/vmap/pjit__lambda__/Sub_7", "StatefulPartitionedCall/jax2tf_main_/vmap/vmap/pjit_norm_/Sum_7/reduction_indices"], "attr": {"keep_dims": {"b": false}, "T": {"type": "DT_FLOAT"}, "Tidx": {"type": "DT_INT32"}}}, {"name": "StatefulPartitionedCall/jax2tf_main_/vmap/vmap/pjit_norm_/Sqrt_7", "op": "Sqrt", "input": ["StatefulPartitionedCall/jax2tf_main_/vmap/vmap/pjit_norm_/Sum_7"], "attr": {"T": {"type": "DT_FLOAT"}}}, {"name": "StatefulPartitionedCall/jax2tf_main_/vmap/vmap/pjit__lambda__/Sub_8", "op": "Sub", "input": ["StatefulPartitionedCall/jax2tf_main_/vmap/vmap/pjit_norm_/Sqrt_7", "StatefulPartitionedCall/Const_36"], "attr": {"T": {"type": "DT_FLOAT"}}}, {"name": "StatefulPartitionedCall/jax2tf_main_/vmap/vmap/pjit_fn_/AddV2_9", "op": "AddV2", "input": ["StatefulPartitionedCall/jax2tf_main_/vmap/vmap/pjit_fn_/AddV2_7", "StatefulPartitionedCall/jax2tf_main_/vmap/vmap/pjit__lambda__/Sub_8"], "attr": {"T": {"type": "DT_FLOAT"}}}, {"name": "StatefulPartitionedCall/jax2tf_main_/vmap/vmap/pjit_fn_/Reshape_18", "op": "Reshape", "input": ["StatefulPartitionedCall/jax2tf_main_/vmap/vmap/pjit_fn_/AddV2_9", "StatefulPartitionedCall/jax2tf_main_/vmap/vmap/pjit_fn_/Reshape_18/shape"], "attr": {"Tshape": {"type": "DT_INT32"}, "T": {"type": "DT_FLOAT"}}}, {"name": "StatefulPartitionedCall/jax2tf_main_/vmap/vmap/pjit_fn_/Mul_7", "op": "Mul", "input": ["StatefulPartitionedCall/jax2tf_main_/vmap/vmap/pjit_true_divide_/truediv_3", "StatefulPartitionedCall/jax2tf_main_/vmap/vmap/pjit_fn_/Reshape_18"], "attr": {"T": {"type": "DT_FLOAT"}}}, {"name": "StatefulPartitionedCall/jax2tf_main_/vmap/vmap/pjit_fn_/AddV2_10", "op": "AddV2", "input": ["StatefulPartitionedCall/jax2tf_main_/vmap/vmap/pjit_fn_/Reshape_20", "StatefulPartitionedCall/jax2tf_main_/vmap/vmap/pjit_fn_/Mul_7"], "attr": {"T": {"type": "DT_FLOAT"}}}, {"name": "StatefulPartitionedCall/jax2tf_main_/vmap/vmap/pjit_absolute_/Abs_4", "op": "Abs", "input": ["StatefulPartitionedCall/jax2tf_main_/vmap/vmap/pjit_fn_/AddV2_10"], "attr": {"T": {"type": "DT_FLOAT"}}}, {"name": "StatefulPartitionedCall/jax2tf_main_/vmap/vmap/pjit__lambda__/Sub_9", "op": "SquaredDifference", "input": ["StatefulPartitionedCall/jax2tf_main_/vmap/vmap/pjit_absolute_/Abs_4", "StatefulPartitionedCall/jax2tf_main_/vmap/vmap/pjit__lambda__/BroadcastTo_9"], "attr": {"T": {"type": "DT_FLOAT"}}}, {"name": "StatefulPartitionedCall/jax2tf_main_/vmap/vmap/pjit_norm_/Sum_8", "op": "Sum", "input": ["StatefulPartitionedCall/jax2tf_main_/vmap/vmap/pjit__lambda__/Sub_9", "StatefulPartitionedCall/jax2tf_main_/vmap/vmap/pjit_norm_/Sum_8/reduction_indices"], "attr": {"Tidx": {"type": "DT_INT32"}, "T": {"type": "DT_FLOAT"}, "keep_dims": {"b": false}}}, {"name": "StatefulPartitionedCall/jax2tf_main_/vmap/vmap/pjit_norm_/Sqrt_8", "op": "Sqrt", "input": ["StatefulPartitionedCall/jax2tf_main_/vmap/vmap/pjit_norm_/Sum_8"], "attr": {"T": {"type": "DT_FLOAT"}}}, {"name": "StatefulPartitionedCall/jax2tf_main_/vmap/vmap/pjit__lambda__/Sub_10", "op": "Sub", "input": ["StatefulPartitionedCall/jax2tf_main_/vmap/vmap/pjit_norm_/Sqrt_8", "StatefulPartitionedCall/Const_39"], "attr": {"T": {"type": "DT_FLOAT"}}}, {"name": "StatefulPartitionedCall/jax2tf_main_/vmap/vmap/pjit_fn_/AddV2_11", "op": "AddV2", "input": ["StatefulPartitionedCall/jax2tf_main_/vmap/vmap/pjit_fn_/AddV2_9", "StatefulPartitionedCall/jax2tf_main_/vmap/vmap/pjit__lambda__/Sub_10"], "attr": {"T": {"type": "DT_FLOAT"}}}, {"name": "StatefulPartitionedCall/jax2tf_main_/vmap/vmap/pjit_fn_/Reshape_21", "op": "Reshape", "input": ["StatefulPartitionedCall/jax2tf_main_/vmap/vmap/pjit_fn_/AddV2_11", "StatefulPartitionedCall/jax2tf_main_/vmap/vmap/pjit_fn_/Reshape_21/shape"], "attr": {"T": {"type": "DT_FLOAT"}, "Tshape": {"type": "DT_INT32"}}}, {"name": "StatefulPartitionedCall/jax2tf_main_/vmap/vmap/pjit_fn_/Mul_8", "op": "Mul", "input": ["StatefulPartitionedCall/jax2tf_main_/vmap/vmap/pjit_true_divide_/truediv_3", "StatefulPartitionedCall/jax2tf_main_/vmap/vmap/pjit_fn_/Reshape_21"], "attr": {"T": {"type": "DT_FLOAT"}}}, {"name": "StatefulPartitionedCall/jax2tf_main_/vmap/vmap/pjit_fn_/AddV2_12", "op": "AddV2", "input": ["StatefulPartitionedCall/jax2tf_main_/vmap/vmap/pjit_fn_/Reshape_23", "StatefulPartitionedCall/jax2tf_main_/vmap/vmap/pjit_fn_/Mul_8"], "attr": {"T": {"type": "DT_FLOAT"}}}, {"name": "StatefulPartitionedCall/jax2tf_main_/vmap/vmap/pjit_absolute_/Abs_5", "op": "Abs", "input": ["StatefulPartitionedCall/jax2tf_main_/vmap/vmap/pjit_fn_/AddV2_12"], "attr": {"T": {"type": "DT_FLOAT"}}}, {"name": "StatefulPartitionedCall/jax2tf_main_/vmap/vmap/pjit__lambda__/Sub_11", "op": "SquaredDifference", "input": ["StatefulPartitionedCall/jax2tf_main_/vmap/vmap/pjit_absolute_/Abs_5", "StatefulPartitionedCall/jax2tf_main_/vmap/vmap/pjit__lambda__/BroadcastTo_11"], "attr": {"T": {"type": "DT_FLOAT"}}}, {"name": "StatefulPartitionedCall/jax2tf_main_/vmap/vmap/pjit_norm_/Sum_9", "op": "Sum", "input": ["StatefulPartitionedCall/jax2tf_main_/vmap/vmap/pjit__lambda__/Sub_11", "StatefulPartitionedCall/jax2tf_main_/vmap/vmap/pjit_norm_/Sum_9/reduction_indices"], "attr": {"keep_dims": {"b": false}, "Tidx": {"type": "DT_INT32"}, "T": {"type": "DT_FLOAT"}}}, {"name": "StatefulPartitionedCall/jax2tf_main_/vmap/vmap/pjit_norm_/Sqrt_9", "op": "Sqrt", "input": ["StatefulPartitionedCall/jax2tf_main_/vmap/vmap/pjit_norm_/Sum_9"], "attr": {"T": {"type": "DT_FLOAT"}}}, {"name": "StatefulPartitionedCall/jax2tf_main_/vmap/vmap/pjit__lambda__/Sub_12", "op": "Sub", "input": ["StatefulPartitionedCall/jax2tf_main_/vmap/vmap/pjit_norm_/Sqrt_9", "StatefulPartitionedCall/Const_42"], "attr": {"T": {"type": "DT_FLOAT"}}}, {"name": "StatefulPartitionedCall/jax2tf_main_/vmap/vmap/pjit_fn_/AddV2_13", "op": "AddV2", "input": ["StatefulPartitionedCall/jax2tf_main_/vmap/vmap/pjit_fn_/AddV2_11", "StatefulPartitionedCall/jax2tf_main_/vmap/vmap/pjit__lambda__/Sub_12"], "attr": {"T": {"type": "DT_FLOAT"}}}, {"name": "StatefulPartitionedCall/jax2tf_main_/vmap/vmap/pjit_fn_/Reshape_24", "op": "Reshape", "input": ["StatefulPartitionedCall/jax2tf_main_/vmap/vmap/pjit_fn_/AddV2_13", "StatefulPartitionedCall/jax2tf_main_/vmap/vmap/pjit_fn_/Reshape_24/shape"], "attr": {"Tshape": {"type": "DT_INT32"}, "T": {"type": "DT_FLOAT"}}}, {"name": "StatefulPartitionedCall/jax2tf_main_/vmap/vmap/pjit_fn_/Mul_9", "op": "Mul", "input": ["StatefulPartitionedCall/jax2tf_main_/vmap/vmap/pjit_true_divide_/truediv_3", "StatefulPartitionedCall/jax2tf_main_/vmap/vmap/pjit_fn_/Reshape_24"], "attr": {"T": {"type": "DT_FLOAT"}}}, {"name": "StatefulPartitionedCall/jax2tf_main_/vmap/vmap/pjit_fn_/AddV2_14", "op": "AddV2", "input": ["StatefulPartitionedCall/jax2tf_main_/vmap/vmap/pjit_fn_/Reshape_26", "StatefulPartitionedCall/jax2tf_main_/vmap/vmap/pjit_fn_/Mul_9"], "attr": {"T": {"type": "DT_FLOAT"}}}, {"name": "StatefulPartitionedCall/jax2tf_main_/vmap/vmap/pjit_absolute_/Abs_6", "op": "Abs", "input": ["StatefulPartitionedCall/jax2tf_main_/vmap/vmap/pjit_fn_/AddV2_14"], "attr": {"T": {"type": "DT_FLOAT"}}}, {"name": "StatefulPartitionedCall/jax2tf_main_/vmap/vmap/pjit__lambda__/Sub_13", "op": "SquaredDifference", "input": ["StatefulPartitionedCall/jax2tf_main_/vmap/vmap/pjit_absolute_/Abs_6", "StatefulPartitionedCall/jax2tf_main_/vmap/vmap/pjit__lambda__/BroadcastTo_13"], "attr": {"T": {"type": "DT_FLOAT"}}}, {"name": "StatefulPartitionedCall/jax2tf_main_/vmap/vmap/pjit_norm_/Sum_10", "op": "Sum", "input": ["StatefulPartitionedCall/jax2tf_main_/vmap/vmap/pjit__lambda__/Sub_13", "StatefulPartitionedCall/jax2tf_main_/vmap/vmap/pjit_norm_/Sum_10/reduction_indices"], "attr": {"keep_dims": {"b": false}, "Tidx": {"type": "DT_INT32"}, "T": {"type": "DT_FLOAT"}}}, {"name": "StatefulPartitionedCall/jax2tf_main_/vmap/vmap/pjit_norm_/Sqrt_10", "op": "Sqrt", "input": ["StatefulPartitionedCall/jax2tf_main_/vmap/vmap/pjit_norm_/Sum_10"], "attr": {"T": {"type": "DT_FLOAT"}}}, {"name": "StatefulPartitionedCall/jax2tf_main_/vmap/vmap/pjit__lambda__/Sub_14", "op": "Sub", "input": ["StatefulPartitionedCall/jax2tf_main_/vmap/vmap/pjit_norm_/Sqrt_10", "StatefulPartitionedCall/Const_45"], "attr": {"T": {"type": "DT_FLOAT"}}}, {"name": "StatefulPartitionedCall/jax2tf_main_/vmap/vmap/pjit_fn_/AddV2_15", "op": "AddV2", "input": ["StatefulPartitionedCall/jax2tf_main_/vmap/vmap/pjit_fn_/AddV2_13", "StatefulPartitionedCall/jax2tf_main_/vmap/vmap/pjit__lambda__/Sub_14"], "attr": {"T": {"type": "DT_FLOAT"}}}, {"name": "StatefulPartitionedCall/jax2tf_main_/vmap/vmap/pjit_fn_/Reshape_27", "op": "Reshape", "input": ["StatefulPartitionedCall/jax2tf_main_/vmap/vmap/pjit_fn_/AddV2_15", "StatefulPartitionedCall/jax2tf_main_/vmap/vmap/pjit_fn_/Reshape_27/shape"], "attr": {"T": {"type": "DT_FLOAT"}, "Tshape": {"type": "DT_INT32"}}}, {"name": "StatefulPartitionedCall/jax2tf_main_/vmap/vmap/pjit_fn_/Mul_10", "op": "Mul", "input": ["StatefulPartitionedCall/jax2tf_main_/vmap/vmap/pjit_true_divide_/truediv_3", "StatefulPartitionedCall/jax2tf_main_/vmap/vmap/pjit_fn_/Reshape_27"], "attr": {"T": {"type": "DT_FLOAT"}}}, {"name": "StatefulPartitionedCall/jax2tf_main_/vmap/vmap/pjit_fn_/AddV2_16", "op": "AddV2", "input": ["StatefulPartitionedCall/jax2tf_main_/vmap/vmap/pjit_fn_/Reshape_29", "StatefulPartitionedCall/jax2tf_main_/vmap/vmap/pjit_fn_/Mul_10"], "attr": {"T": {"type": "DT_FLOAT"}}}, {"name": "StatefulPartitionedCall/jax2tf_main_/vmap/vmap/pjit_absolute_/Abs_7", "op": "Abs", "input": ["StatefulPartitionedCall/jax2tf_main_/vmap/vmap/pjit_fn_/AddV2_16"], "attr": {"T": {"type": "DT_FLOAT"}}}, {"name": "StatefulPartitionedCall/jax2tf_main_/vmap/vmap/pjit__lambda__/Sub_15", "op": "SquaredDifference", "input": ["StatefulPartitionedCall/jax2tf_main_/vmap/vmap/pjit_absolute_/Abs_7", "StatefulPartitionedCall/jax2tf_main_/vmap/vmap/pjit__lambda__/BroadcastTo_15"], "attr": {"T": {"type": "DT_FLOAT"}}}, {"name": "StatefulPartitionedCall/jax2tf_main_/vmap/vmap/pjit_norm_/Sum_11", "op": "Sum", "input": ["StatefulPartitionedCall/jax2tf_main_/vmap/vmap/pjit__lambda__/Sub_15", "StatefulPartitionedCall/jax2tf_main_/vmap/vmap/pjit_norm_/Sum_11/reduction_indices"], "attr": {"T": {"type": "DT_FLOAT"}, "keep_dims": {"b": false}, "Tidx": {"type": "DT_INT32"}}}, {"name": "StatefulPartitionedCall/jax2tf_main_/vmap/vmap/pjit_norm_/Sqrt_11", "op": "Sqrt", "input": ["StatefulPartitionedCall/jax2tf_main_/vmap/vmap/pjit_norm_/Sum_11"], "attr": {"T": {"type": "DT_FLOAT"}}}, {"name": "StatefulPartitionedCall/jax2tf_main_/vmap/vmap/pjit__lambda__/Sub_16", "op": "Sub", "input": ["StatefulPartitionedCall/jax2tf_main_/vmap/vmap/pjit_norm_/Sqrt_11", "StatefulPartitionedCall/Const_48"], "attr": {"T": {"type": "DT_FLOAT"}}}, {"name": "StatefulPartitionedCall/jax2tf_main_/vmap/vmap/pjit_fn_/AddV2_17", "op": "AddV2", "input": ["StatefulPartitionedCall/jax2tf_main_/vmap/vmap/pjit_fn_/AddV2_15", "StatefulPartitionedCall/jax2tf_main_/vmap/vmap/pjit__lambda__/Sub_16"], "attr": {"T": {"type": "DT_FLOAT"}}}, {"name": "StatefulPartitionedCall/jax2tf_main_/vmap/vmap/pjit_fn_/Reshape_30", "op": "Reshape", "input": ["StatefulPartitionedCall/jax2tf_main_/vmap/vmap/pjit_fn_/AddV2_17", "StatefulPartitionedCall/jax2tf_main_/vmap/vmap/pjit_fn_/Reshape_30/shape"], "attr": {"Tshape": {"type": "DT_INT32"}, "T": {"type": "DT_FLOAT"}}}, {"name": "StatefulPartitionedCall/jax2tf_main_/vmap/vmap/pjit_fn_/Mul_11", "op": "Mul", "input": ["StatefulPartitionedCall/jax2tf_main_/vmap/vmap/pjit_true_divide_/truediv_3", "StatefulPartitionedCall/jax2tf_main_/vmap/vmap/pjit_fn_/Reshape_30"], "attr": {"T": {"type": "DT_FLOAT"}}}, {"name": "StatefulPartitionedCall/jax2tf_main_/vmap/vmap/pjit_fn_/AddV2_18", "op": "AddV2", "input": ["StatefulPartitionedCall/jax2tf_main_/vmap/vmap/pjit_fn_/Reshape_32", "StatefulPartitionedCall/jax2tf_main_/vmap/vmap/pjit_fn_/Mul_11"], "attr": {"T": {"type": "DT_FLOAT"}}}, {"name": "StatefulPartitionedCall/jax2tf_main_/vmap/vmap/pjit_absolute_/Abs_8", "op": "Abs", "input": ["StatefulPartitionedCall/jax2tf_main_/vmap/vmap/pjit_fn_/AddV2_18"], "attr": {"T": {"type": "DT_FLOAT"}}}, {"name": "StatefulPartitionedCall/jax2tf_main_/vmap/vmap/pjit__lambda__/Sub_17", "op": "SquaredDifference", "input": ["StatefulPartitionedCall/jax2tf_main_/vmap/vmap/pjit_absolute_/Abs_8", "StatefulPartitionedCall/jax2tf_main_/vmap/vmap/pjit__lambda__/BroadcastTo_17"], "attr": {"T": {"type": "DT_FLOAT"}}}, {"name": "StatefulPartitionedCall/jax2tf_main_/vmap/vmap/pjit_norm_/Sum_12", "op": "Sum", "input": ["StatefulPartitionedCall/jax2tf_main_/vmap/vmap/pjit__lambda__/Sub_17", "StatefulPartitionedCall/jax2tf_main_/vmap/vmap/pjit_norm_/Sum_12/reduction_indices"], "attr": {"Tidx": {"type": "DT_INT32"}, "keep_dims": {"b": false}, "T": {"type": "DT_FLOAT"}}}, {"name": "StatefulPartitionedCall/jax2tf_main_/vmap/vmap/pjit_norm_/Sqrt_12", "op": "Sqrt", "input": ["StatefulPartitionedCall/jax2tf_main_/vmap/vmap/pjit_norm_/Sum_12"], "attr": {"T": {"type": "DT_FLOAT"}}}, {"name": "StatefulPartitionedCall/jax2tf_main_/vmap/vmap/pjit__lambda__/Sub_18", "op": "Sub", "input": ["StatefulPartitionedCall/jax2tf_main_/vmap/vmap/pjit_norm_/Sqrt_12", "StatefulPartitionedCall/Const_51"], "attr": {"T": {"type": "DT_FLOAT"}}}, {"name": "StatefulPartitionedCall/jax2tf_main_/vmap/vmap/pjit_fn_/AddV2_19", "op": "AddV2", "input": ["StatefulPartitionedCall/jax2tf_main_/vmap/vmap/pjit_fn_/AddV2_17", "StatefulPartitionedCall/jax2tf_main_/vmap/vmap/pjit__lambda__/Sub_18"], "attr": {"T": {"type": "DT_FLOAT"}}}, {"name": "StatefulPartitionedCall/jax2tf_main_/vmap/vmap/pjit_fn_/Reshape_33", "op": "Reshape", "input": ["StatefulPartitionedCall/jax2tf_main_/vmap/vmap/pjit_fn_/AddV2_19", "StatefulPartitionedCall/jax2tf_main_/vmap/vmap/pjit_fn_/Reshape_33/shape"], "attr": {"T": {"type": "DT_FLOAT"}, "Tshape": {"type": "DT_INT32"}}}, {"name": "StatefulPartitionedCall/jax2tf_main_/vmap/vmap/pjit_fn_/Mul_12", "op": "Mul", "input": ["StatefulPartitionedCall/jax2tf_main_/vmap/vmap/pjit_true_divide_/truediv_3", "StatefulPartitionedCall/jax2tf_main_/vmap/vmap/pjit_fn_/Reshape_33"], "attr": {"T": {"type": "DT_FLOAT"}}}, {"name": "StatefulPartitionedCall/jax2tf_main_/vmap/vmap/pjit_fn_/AddV2_20", "op": "AddV2", "input": ["StatefulPartitionedCall/jax2tf_main_/vmap/vmap/pjit_fn_/Reshape_35", "StatefulPartitionedCall/jax2tf_main_/vmap/vmap/pjit_fn_/Mul_12"], "attr": {"T": {"type": "DT_FLOAT"}}}, {"name": "StatefulPartitionedCall/jax2tf_main_/vmap/vmap/pjit_absolute_/Abs_9", "op": "Abs", "input": ["StatefulPartitionedCall/jax2tf_main_/vmap/vmap/pjit_fn_/AddV2_20"], "attr": {"T": {"type": "DT_FLOAT"}}}, {"name": "StatefulPartitionedCall/jax2tf_main_/vmap/vmap/pjit__lambda__/Sub_19", "op": "SquaredDifference", "input": ["StatefulPartitionedCall/jax2tf_main_/vmap/vmap/pjit_absolute_/Abs_9", "StatefulPartitionedCall/jax2tf_main_/vmap/vmap/pjit__lambda__/BroadcastTo_19"], "attr": {"T": {"type": "DT_FLOAT"}}}, {"name": "StatefulPartitionedCall/jax2tf_main_/vmap/vmap/pjit_norm_/Sum_13", "op": "Sum", "input": ["StatefulPartitionedCall/jax2tf_main_/vmap/vmap/pjit__lambda__/Sub_19", "StatefulPartitionedCall/jax2tf_main_/vmap/vmap/pjit_norm_/Sum_13/reduction_indices"], "attr": {"keep_dims": {"b": false}, "Tidx": {"type": "DT_INT32"}, "T": {"type": "DT_FLOAT"}}}, {"name": "StatefulPartitionedCall/jax2tf_main_/vmap/vmap/pjit_norm_/Sqrt_13", "op": "Sqrt", "input": ["StatefulPartitionedCall/jax2tf_main_/vmap/vmap/pjit_norm_/Sum_13"], "attr": {"T": {"type": "DT_FLOAT"}}}, {"name": "StatefulPartitionedCall/jax2tf_main_/vmap/vmap/pjit__lambda__/Sub_20", "op": "Sub", "input": ["StatefulPartitionedCall/jax2tf_main_/vmap/vmap/pjit_norm_/Sqrt_13", "StatefulPartitionedCall/Const_54"], "attr": {"T": {"type": "DT_FLOAT"}}}, {"name": "StatefulPartitionedCall/jax2tf_main_/vmap/vmap/pjit_fn_/AddV2_21", "op": "AddV2", "input": ["StatefulPartitionedCall/jax2tf_main_/vmap/vmap/pjit_fn_/AddV2_19", "StatefulPartitionedCall/jax2tf_main_/vmap/vmap/pjit__lambda__/Sub_20"], "attr": {"T": {"type": "DT_FLOAT"}}}, {"name": "StatefulPartitionedCall/jax2tf_main_/vmap/vmap/pjit_fn_/Reshape_36", "op": "Reshape", "input": ["StatefulPartitionedCall/jax2tf_main_/vmap/vmap/pjit_fn_/AddV2_21", "StatefulPartitionedCall/jax2tf_main_/vmap/vmap/pjit_fn_/Reshape_36/shape"], "attr": {"Tshape": {"type": "DT_INT32"}, "T": {"type": "DT_FLOAT"}}}, {"name": "StatefulPartitionedCall/jax2tf_main_/vmap/vmap/pjit_fn_/Mul_13", "op": "Mul", "input": ["StatefulPartitionedCall/jax2tf_main_/vmap/vmap/pjit_true_divide_/truediv_3", "StatefulPartitionedCall/jax2tf_main_/vmap/vmap/pjit_fn_/Reshape_36"], "attr": {"T": {"type": "DT_FLOAT"}}}, {"name": "StatefulPartitionedCall/jax2tf_main_/vmap/vmap/pjit_fn_/AddV2_22", "op": "AddV2", "input": ["StatefulPartitionedCall/jax2tf_main_/vmap/vmap/pjit_fn_/Reshape_38", "StatefulPartitionedCall/jax2tf_main_/vmap/vmap/pjit_fn_/Mul_13"], "attr": {"T": {"type": "DT_FLOAT"}}}, {"name": "StatefulPartitionedCall/jax2tf_main_/vmap/vmap/jvp/pjit_absolute_/GreaterEqual", "op": "GreaterEqual", "input": ["StatefulPartitionedCall/jax2tf_main_/vmap/vmap/pjit_fn_/AddV2_22", "StatefulPartitionedCall/jax2tf_main_/vmap/vmap/jvp/Const_1"], "attr": {"T": {"type": "DT_FLOAT"}}}, {"name": "StatefulPartitionedCall/jax2tf_main_/vmap/vmap/jvp/pjit_absolute_/Abs", "op": "Abs", "input": ["StatefulPartitionedCall/jax2tf_main_/vmap/vmap/pjit_fn_/AddV2_22"], "attr": {"T": {"type": "DT_FLOAT"}}}, {"name": "StatefulPartitionedCall/jax2tf_main_/vmap/vmap/transpose/jax2tf_main_/vmap/vmap/jvp/pjit_absolute_/Equal_1", "op": "Equal", "input": ["StatefulPartitionedCall/jax2tf_main_/vmap/vmap/jvp/pjit_absolute_/GreaterEqual", "StatefulPartitionedCall/jax2tf_main_/vmap/vmap/transpose/jax2tf_main_/vmap/vmap/jvp/Const_5"], "attr": {"T": {"type": "DT_BOOL"}, "incompatible_shape_error": {"b": true}}}, {"name": "StatefulPartitionedCall/jax2tf_main_/vmap/vmap/transpose/jax2tf_main_/vmap/vmap/jvp/pjit_absolute_/Equal", "op": "Equal", "input": ["StatefulPartitionedCall/jax2tf_main_/vmap/vmap/jvp/pjit_absolute_/GreaterEqual", "StatefulPartitionedCall/jax2tf_main_/vmap/vmap/transpose/jax2tf_main_/vmap/vmap/jvp/Const_3"], "attr": {"incompatible_shape_error": {"b": true}, "T": {"type": "DT_BOOL"}}}, {"name": "StatefulPartitionedCall/jax2tf_main_/vmap/vmap/jvp/pjit__lambda__/Sub", "op": "Sub", "input": ["StatefulPartitionedCall/jax2tf_main_/vmap/vmap/jvp/pjit_absolute_/Abs", "StatefulPartitionedCall/jax2tf_main_/vmap/vmap/jvp/pjit__lambda__/BroadcastTo_1"], "attr": {"T": {"type": "DT_FLOAT"}}}, {"name": "StatefulPartitionedCall/jax2tf_main_/vmap/vmap/jvp/pjit_norm_/ArithmeticOptimizer/ReplaceMulWithSquare_Mul", "op": "Square", "input": ["StatefulPartitionedCall/jax2tf_main_/vmap/vmap/jvp/pjit__lambda__/Sub"], "attr": {"T": {"type": "DT_FLOAT"}}}, {"name": "StatefulPartitionedCall/jax2tf_main_/vmap/vmap/jvp/pjit_norm_/Sum", "op": "Sum", "input": ["StatefulPartitionedCall/jax2tf_main_/vmap/vmap/jvp/pjit_norm_/ArithmeticOptimizer/ReplaceMulWithSquare_Mul", "StatefulPartitionedCall/jax2tf_main_/vmap/vmap/jvp/pjit_norm_/Sum/reduction_indices"], "attr": {"Tidx": {"type": "DT_INT32"}, "T": {"type": "DT_FLOAT"}, "keep_dims": {"b": false}}}, {"name": "StatefulPartitionedCall/jax2tf_main_/vmap/vmap/jvp/pjit_norm_/Sqrt", "op": "Rsqrt", "input": ["StatefulPartitionedCall/jax2tf_main_/vmap/vmap/jvp/pjit_norm_/Sum"], "attr": {"T": {"type": "DT_FLOAT"}}}, {"name": "StatefulPartitionedCall/jax2tf_main_/vmap/vmap/jvp/pjit_norm_/truediv", "op": "Mul", "input": ["StatefulPartitionedCall/jax2tf_main_/vmap/vmap/jvp/Const_3", "StatefulPartitionedCall/jax2tf_main_/vmap/vmap/jvp/pjit_norm_/Sqrt"], "attr": {"T": {"type": "DT_FLOAT"}}}, {"name": "StatefulPartitionedCall/jax2tf_main_/vmap/vmap/transpose/jax2tf_main_/vmap/vmap/jvp/pjit_norm_/Reshape", "op": "Reshape", "input": ["StatefulPartitionedCall/jax2tf_main_/vmap/vmap/jvp/pjit_norm_/truediv", "StatefulPartitionedCall/jax2tf_main_/vmap/vmap/transpose/jax2tf_main_/vmap/vmap/jvp/pjit_norm_/Reshape/shape"], "attr": {"T": {"type": "DT_FLOAT"}, "Tshape": {"type": "DT_INT32"}}}, {"name": "StatefulPartitionedCall/jax2tf_main_/vmap/vmap/transpose/jax2tf_main_/vmap/vmap/jvp/pjit_norm_/BroadcastTo", "op": "BroadcastTo", "input": ["StatefulPartitionedCall/jax2tf_main_/vmap/vmap/transpose/jax2tf_main_/vmap/vmap/jvp/pjit_norm_/Reshape", "StatefulPartitionedCall/jax2tf_main_/vmap/vmap/transpose/jax2tf_main_/vmap/vmap/jvp/pjit_norm_/BroadcastTo/shape"], "attr": {"Tidx": {"type": "DT_INT32"}, "T": {"type": "DT_FLOAT"}}}, {"name": "StatefulPartitionedCall/jax2tf_main_/vmap/vmap/transpose/jax2tf_main_/vmap/vmap/jvp/pjit_norm_/Mul_1", "op": "Mul", "input": ["StatefulPartitionedCall/jax2tf_main_/vmap/vmap/jvp/pjit__lambda__/Sub", "StatefulPartitionedCall/jax2tf_main_/vmap/vmap/transpose/jax2tf_main_/vmap/vmap/jvp/pjit_norm_/BroadcastTo"], "attr": {"T": {"type": "DT_FLOAT"}}}, {"name": "StatefulPartitionedCall/jax2tf_main_/vmap/vmap/transpose/jax2tf_main_/vmap/vmap/jvp/pjit_norm_/Mul_2", "op": "Mul", "input": ["StatefulPartitionedCall/jax2tf_main_/vmap/vmap/transpose/jax2tf_main_/vmap/vmap/jvp/pjit_norm_/BroadcastTo", "StatefulPartitionedCall/jax2tf_main_/vmap/vmap/jvp/pjit__lambda__/Sub"], "attr": {"T": {"type": "DT_FLOAT"}}}, {"name": "StatefulPartitionedCall/jax2tf_main_/vmap/vmap/transpose/jax2tf_main_/vmap/vmap/jvp/pjit_norm_/AddV2", "op": "AddV2", "input": ["StatefulPartitionedCall/jax2tf_main_/vmap/vmap/transpose/jax2tf_main_/vmap/vmap/jvp/pjit_norm_/Mul_1", "StatefulPartitionedCall/jax2tf_main_/vmap/vmap/transpose/jax2tf_main_/vmap/vmap/jvp/pjit_norm_/Mul_2"], "attr": {"T": {"type": "DT_FLOAT"}}}, {"name": "StatefulPartitionedCall/jax2tf_main_/vmap/vmap/transpose/jax2tf_main_/vmap/vmap/jvp/pjit_absolute_/SelectV2_1", "op": "SelectV2", "input": ["StatefulPartitionedCall/jax2tf_main_/vmap/vmap/transpose/jax2tf_main_/vmap/vmap/jvp/pjit_absolute_/Equal_1", "StatefulPartitionedCall/jax2tf_main_/vmap/vmap/transpose/jax2tf_main_/vmap/vmap/jvp/pjit_norm_/AddV2", "StatefulPartitionedCall/jax2tf_main_/vmap/vmap/transpose/jax2tf_main_/vmap/vmap/jvp/pjit_absolute_/BroadcastTo_4"], "attr": {"T": {"type": "DT_FLOAT"}}}, {"name": "StatefulPartitionedCall/jax2tf_main_/vmap/vmap/transpose/jax2tf_main_/vmap/vmap/jvp/pjit_absolute_/SelectV2", "op": "SelectV2", "input": ["StatefulPartitionedCall/jax2tf_main_/vmap/vmap/transpose/jax2tf_main_/vmap/vmap/jvp/pjit_absolute_/Equal", "StatefulPartitionedCall/jax2tf_main_/vmap/vmap/transpose/jax2tf_main_/vmap/vmap/jvp/pjit_norm_/AddV2", "StatefulPartitionedCall/jax2tf_main_/vmap/vmap/transpose/jax2tf_main_/vmap/vmap/jvp/pjit_absolute_/BroadcastTo_2"], "attr": {"T": {"type": "DT_FLOAT"}}}, {"name": "StatefulPartitionedCall/jax2tf_main_/vmap/vmap/transpose/jax2tf_main_/vmap/vmap/jvp/pjit_absolute_/AddV2", "op": "Sub", "input": ["StatefulPartitionedCall/jax2tf_main_/vmap/vmap/transpose/jax2tf_main_/vmap/vmap/jvp/pjit_absolute_/SelectV2_1", "StatefulPartitionedCall/jax2tf_main_/vmap/vmap/transpose/jax2tf_main_/vmap/vmap/jvp/pjit_absolute_/SelectV2"], "attr": {"T": {"type": "DT_FLOAT"}}}, {"name": "StatefulPartitionedCall/jax2tf_main_/vmap/vmap/pjit_norm_/ArithmeticOptimizer/ReplaceMulWithSquare_Mul_14", "op": "Square", "input": ["StatefulPartitionedCall/jax2tf_main_/vmap/vmap/transpose/jax2tf_main_/vmap/vmap/jvp/pjit_absolute_/AddV2"], "attr": {"T": {"type": "DT_FLOAT"}}}, {"name": "StatefulPartitionedCall/jax2tf_main_/vmap/vmap/pjit_norm_/Sum_14", "op": "Sum", "input": ["StatefulPartitionedCall/jax2tf_main_/vmap/vmap/pjit_norm_/ArithmeticOptimizer/ReplaceMulWithSquare_Mul_14", "StatefulPartitionedCall/jax2tf_main_/vmap/vmap/pjit_norm_/Sum_14/reduction_indices"], "attr": {"Tidx": {"type": "DT_INT32"}, "T": {"type": "DT_FLOAT"}, "keep_dims": {"b": false}}}, {"name": "StatefulPartitionedCall/jax2tf_main_/vmap/vmap/pjit_norm_/Sqrt_14", "op": "Sqrt", "input": ["StatefulPartitionedCall/jax2tf_main_/vmap/vmap/pjit_norm_/Sum_14"], "attr": {"T": {"type": "DT_FLOAT"}}}, {"name": "StatefulPartitionedCall/jax2tf_main_/vmap/vmap/pjit_true_divide_/Reshape_1", "op": "Reshape", "input": ["StatefulPartitionedCall/jax2tf_main_/vmap/vmap/pjit_norm_/Sqrt_14", "StatefulPartitionedCall/jax2tf_main_/vmap/vmap/pjit_true_divide_/Reshape_1/shape"], "attr": {"Tshape": {"type": "DT_INT32"}, "T": {"type": "DT_FLOAT"}}}, {"name": "StatefulPartitionedCall/jax2tf_main_/vmap/vmap/pjit_true_divide_/truediv_4", "op": "RealDiv", "input": ["StatefulPartitionedCall/jax2tf_main_/vmap/vmap/transpose/jax2tf_main_/vmap/vmap/jvp/pjit_absolute_/AddV2", "StatefulPartitionedCall/jax2tf_main_/vmap/vmap/pjit_true_divide_/Reshape_1"], "attr": {"T": {"type": "DT_FLOAT"}}}, {"name": "StatefulPartitionedCall/jax2tf_main_/vmap/vmap/pjit_dot_/einsum/Einsum", "op": "Einsum", "input": ["StatefulPartitionedCall/jax2tf_main_/vmap/vmap/pjit_true_divide_/truediv_4", "StatefulPartitionedCall/jax2tf_main_/vmap/vmap/pjit_true_divide_/truediv"], "attr": {"equation": {"s": "YWJlLGUtPmFi"}, "N": {"i": "2"}, "T": {"type": "DT_FLOAT"}}}, {"name": "StatefulPartitionedCall/jax2tf_main_/vmap/vmap/pjit_clip_/Maximum", "op": "Maximum", "input": ["StatefulPartitionedCall/Const_61", "StatefulPartitionedCall/jax2tf_main_/vmap/vmap/pjit_dot_/einsum/Einsum"], "attr": {"T": {"type": "DT_FLOAT"}}}, {"name": "StatefulPartitionedCall/jax2tf_main_/vmap/vmap/pjit_clip_/Minimum", "op": "Minimum", "input": ["StatefulPartitionedCall/Const_63", "StatefulPartitionedCall/jax2tf_main_/vmap/vmap/pjit_clip_/Maximum"], "attr": {"T": {"type": "DT_FLOAT"}}}, {"name": "StatefulPartitionedCall/jax2tf_main_/vmap/transpose", "op": "Transpose", "input": ["StatefulPartitionedCall/jax2tf_main_/vmap/vmap/pjit_clip_/Minimum", "StatefulPartitionedCall/jax2tf_main_/vmap/transpose/perm"], "attr": {"Tperm": {"type": "DT_INT32"}, "T": {"type": "DT_FLOAT"}}}, {"name": "StatefulPartitionedCall/jax2tf_main_/pjit_atleast_3d_/Reshape", "op": "Reshape", "input": ["StatefulPartitionedCall/jax2tf_main_/vmap/transpose", "StatefulPartitionedCall/jax2tf_main_/pjit_atleast_3d_/Reshape/shape"], "attr": {"T": {"type": "DT_FLOAT"}, "Tshape": {"type": "DT_INT32"}}}, {"name": "StatefulPartitionedCall/jax2tf_main_/pjit_atleast_3d_/Reshape_1", "op": "Reshape", "input": ["StatefulPartitionedCall/jax2tf_main_/vmap/transpose", "StatefulPartitionedCall/jax2tf_main_/pjit_atleast_3d_/Reshape_1/shape"], "attr": {"Tshape": {"type": "DT_INT32"}, "T": {"type": "DT_FLOAT"}}}, {"name": "StatefulPartitionedCall/jax2tf_main_/pjit_atleast_3d_/Reshape_2", "op": "Reshape", "input": ["StatefulPartitionedCall/jax2tf_main_/vmap/transpose", "StatefulPartitionedCall/jax2tf_main_/pjit_atleast_3d_/Reshape_2/shape"], "attr": {"T": {"type": "DT_FLOAT"}, "Tshape": {"type": "DT_INT32"}}}, {"name": "StatefulPartitionedCall/jax2tf_main_/concat", "op": "ConcatV2", "input": ["StatefulPartitionedCall/jax2tf_main_/pjit_atleast_3d_/Reshape", "StatefulPartitionedCall/jax2tf_main_/pjit_atleast_3d_/Reshape_1", "StatefulPartitionedCall/jax2tf_main_/pjit_atleast_3d_/Reshape_2", "StatefulPartitionedCall/jax2tf_main_/concat/axis"], "attr": {"Tidx": {"type": "DT_INT32"}, "T": {"type": "DT_FLOAT"}, "N": {"i": "3"}}}, {"name": "Identity", "op": "Identity", "input": ["StatefulPartitionedCall/jax2tf_main_/concat"], "attr": {"T": {"type": "DT_FLOAT"}}}], "library": {}, "versions": {"producer": 1286}}, "weightsManifest": [{"paths": ["group1-shard1of1.bin"], "weights": [{"name": "StatefulPartitionedCall/jax2tf_main_/pjit_atleast_3d_/Reshape/shape", "shape": [3], "dtype": "int32"}, {"name": "StatefulPartitionedCall/jax2tf_main_/pjit_atleast_3d_/Reshape_1/shape", "shape": [3], "dtype": "int32"}, {"name": "StatefulPartitionedCall/Const_63", "shape": [], "dtype": "float32"}, {"name": "StatefulPartitionedCall/Const_61", "shape": [], "dtype": "float32"}, {"name": "StatefulPartitionedCall/jax2tf_main_/vmap/vmap/transpose/jax2tf_main_/vmap/vmap/jvp/Const_5", "shape": [], "dtype": "bool"}, {"name": "StatefulPartitionedCall/jax2tf_main_/vmap/vmap/transpose/jax2tf_main_/vmap/vmap/jvp/pjit_absolute_/BroadcastTo_4", "shape": [92, 92, 3], "dtype": "float32"}, {"name": "StatefulPartitionedCall/jax2tf_main_/vmap/vmap/jvp/Const_1", "shape": [], "dtype": "float32"}, {"name": "StatefulPartitionedCall/jax2tf_main_/vmap/vmap/transpose/jax2tf_main_/vmap/vmap/jvp/Const_3", "shape": [], "dtype": "bool"}, {"name": "StatefulPartitionedCall/jax2tf_main_/vmap/vmap/jvp/Const_3", "shape": [], "dtype": "float32"}, {"name": "StatefulPartitionedCall/jax2tf_main_/vmap/vmap/jvp/pjit_norm_/Sum/reduction_indices", "shape": [1], "dtype": "int32"}, {"name": "StatefulPartitionedCall/jax2tf_main_/vmap/vmap/transpose/jax2tf_main_/vmap/vmap/jvp/pjit_norm_/Reshape/shape", "shape": [3], "dtype": "int32"}, {"name": "StatefulPartitionedCall/jax2tf_main_/vmap/vmap/transpose/jax2tf_main_/vmap/vmap/jvp/pjit_norm_/BroadcastTo/shape", "shape": [3], "dtype": "int32"}, {"name": "StatefulPartitionedCall/jax2tf_main_/vmap/vmap/pjit_fn_/Reshape_38/shape", "shape": [3], "dtype": "int32"}, {"name": "StatefulPartitionedCall/jax2tf_main_/vmap/vmap/pjit_fn_/Reshape_35/shape", "shape": [3], "dtype": "int32"}, {"name": "StatefulPartitionedCall/jax2tf_main_/vmap/vmap/pjit_fn_/Reshape_32/shape", "shape": [3], "dtype": "int32"}, {"name": "StatefulPartitionedCall/jax2tf_main_/vmap/vmap/pjit_fn_/Reshape_29/shape", "shape": [3], "dtype": "int32"}, {"name": "StatefulPartitionedCall/jax2tf_main_/vmap/vmap/pjit_fn_/Reshape_26/shape", "shape": [3], "dtype": "int32"}, {"name": "StatefulPartitionedCall/jax2tf_main_/vmap/vmap/pjit_fn_/Reshape_23/shape", "shape": [3], "dtype": "int32"}, {"name": "StatefulPartitionedCall/jax2tf_main_/vmap/vmap/pjit_fn_/Reshape_20/shape", "shape": [3], "dtype": "int32"}, {"name": "StatefulPartitionedCall/jax2tf_main_/vmap/vmap/pjit_fn_/Reshape_17/shape", "shape": [3], "dtype": "int32"}, {"name": "StatefulPartitionedCall/jax2tf_main_/vmap/vmap/pjit_fn_/Reshape_14/shape", "shape": [3], "dtype": "int32"}, {"name": "StatefulPartitionedCall/jax2tf_main_/vmap/vmap/pjit_fn_/Reshape_11/shape", "shape": [3], "dtype": "int32"}, {"name": "StatefulPartitionedCall/jax2tf_main_/vmap/vmap/pjit_fn_/Reshape_8/shape", "shape": [3], "dtype": "int32"}, {"name": "StatefulPartitionedCall/jax2tf_main_/vmap/vmap/pjit_fn_/Reshape_2/shape", "shape": [2], "dtype": "int32"}, {"name": "StatefulPartitionedCall/jax2tf_main_/vmap/vmap/pjit_fn_/BroadcastTo_1", "shape": [92, 1], "dtype": "float32"}, {"name": "StatefulPartitionedCall/jax2tf_main_/vmap/vmap/pjit_fn_/Reshape/shape", "shape": [2], "dtype": "int32"}, {"name": "StatefulPartitionedCall/jax2tf_main_/vmap/vmap/pjit_fn_/Reshape_6/shape", "shape": [3], "dtype": "int32"}, {"name": "StatefulPartitionedCall/jax2tf_main_/vmap/vmap/pjit_fn_/BroadcastTo_4", "shape": [92, 1], "dtype": "float32"}, {"name": "StatefulPartitionedCall/jax2tf_main_/vmap/vmap/pjit_cross_/Reshape_15/shape", "shape": [1], "dtype": "int32"}, {"name": "StatefulPartitionedCall/jax2tf_main_/vmap/vmap/pjit_cross_/clip_by_value_8", "shape": [1], "dtype": "int32"}, {"name": "StatefulPartitionedCall/jax2tf_main_/vmap/vmap/pjit_cross_/add_8", "shape": [1], "dtype": "int32"}, {"name": "StatefulPartitionedCall/jax2tf_main_/vmap/vmap/pjit_cross_/ones_like_8", "shape": [1], "dtype": "int32"}, {"name": "StatefulPartitionedCall/jax2tf_main_/vmap/vmap/pjit_cross_/clip_by_value_11", "shape": [1], "dtype": "int32"}, {"name": "StatefulPartitionedCall/jax2tf_main_/vmap/vmap/pjit_cross_/add_11", "shape": [1], "dtype": "int32"}, {"name": "StatefulPartitionedCall/jax2tf_main_/vmap/vmap/pjit_cross_/ones_like_11", "shape": [1], "dtype": "int32"}, {"name": "StatefulPartitionedCall/jax2tf_main_/vmap/vmap/pjit_cross_/Reshape_16/shape", "shape": [1], "dtype": "int32"}, {"name": "StatefulPartitionedCall/jax2tf_main_/vmap/vmap/pjit_cross_/clip_by_value_6", "shape": [1], "dtype": "int32"}, {"name": "StatefulPartitionedCall/jax2tf_main_/vmap/vmap/pjit_cross_/add_6", "shape": [1], "dtype": "int32"}, {"name": "StatefulPartitionedCall/jax2tf_main_/vmap/vmap/pjit_cross_/ones_like_6", "shape": [1], "dtype": "int32"}, {"name": "StatefulPartitionedCall/jax2tf_main_/vmap/vmap/pjit_cross_/clip_by_value_10", "shape": [1], "dtype": "int32"}, {"name": "StatefulPartitionedCall/jax2tf_main_/vmap/vmap/pjit_cross_/add_10", "shape": [1], "dtype": "int32"}, {"name": "StatefulPartitionedCall/jax2tf_main_/vmap/vmap/pjit_cross_/ones_like_10", "shape": [1], "dtype": "int32"}, {"name": "StatefulPartitionedCall/jax2tf_main_/vmap/vmap/pjit_cross_/clip_by_value_7", "shape": [1], "dtype": "int32"}, {"name": "StatefulPartitionedCall/jax2tf_main_/vmap/vmap/pjit_cross_/add_7", "shape": [1], "dtype": "int32"}, {"name": "StatefulPartitionedCall/jax2tf_main_/vmap/vmap/pjit_cross_/ones_like_7", "shape": [1], "dtype": "int32"}, {"name": "StatefulPartitionedCall/jax2tf_main_/vmap/vmap/pjit_cross_/Reshape_6/shape", "shape": [1], "dtype": "int32"}, {"name": "StatefulPartitionedCall/jax2tf_main_/vmap/vmap/pjit_cross_/clip_by_value_5", "shape": [1], "dtype": "int32"}, {"name": "StatefulPartitionedCall/jax2tf_main_/vmap/vmap/pjit_cross_/add_5", "shape": [1], "dtype": "int32"}, {"name": "StatefulPartitionedCall/jax2tf_main_/vmap/vmap/pjit_cross_/ones_like_5", "shape": [1], "dtype": "int32"}, {"name": "StatefulPartitionedCall/jax2tf_main_/vmap/vmap/Reshape/shape", "shape": [1], "dtype": "int32"}, {"name": "StatefulPartitionedCall/jax2tf_main_/vmap/vmap/Reshape_1/shape", "shape": [1], "dtype": "int32"}, {"name": "StatefulPartitionedCall/jax2tf_main_/vmap/vmap/BroadcastTo_2", "shape": [1], "dtype": "float32"}, {"name": "StatefulPartitionedCall/jax2tf_main_/vmap/vmap/concat/axis", "shape": [], "dtype": "int32"}, {"name": "StatefulPartitionedCall/jax2tf_main_/vmap/vmap/Reshape_6/shape", "shape": [2], "dtype": "int32"}, {"name": "StatefulPartitionedCall/jax2tf_main_/vmap/vmap/Reshape_3/shape", "shape": [1], "dtype": "int32"}, {"name": "StatefulPartitionedCall/jax2tf_main_/clip_by_value", "shape": [1], "dtype": "int32"}, {"name": "StatefulPartitionedCall/jax2tf_main_/Slice/size", "shape": [1], "dtype": "int32"}, {"name": "StatefulPartitionedCall/jax2tf_main_/Reshape/shape_1", "shape": [0], "dtype": "int32"}, {"name": "StatefulPartitionedCall/jax2tf_main_/vmap/vmap/Reshape_4/shape", "shape": [1], "dtype": "int32"}, {"name": "StatefulPartitionedCall/jax2tf_main_/vmap/vmap/BroadcastTo_5", "shape": [1], "dtype": "float32"}, {"name": "StatefulPartitionedCall/jax2tf_main_/vmap/vmap/concat_1/axis", "shape": [], "dtype": "int32"}, {"name": "StatefulPartitionedCall/jax2tf_main_/vmap/vmap/Reshape_7/shape", "shape": [2], "dtype": "int32"}, {"name": "StatefulPartitionedCall/jax2tf_main_/vmap/vmap/BroadcastTo_8", "shape": [1, 3], "dtype": "float32"}, {"name": "StatefulPartitionedCall/jax2tf_main_/vmap/vmap/concat_2/axis", "shape": [], "dtype": "int32"}, {"name": "StatefulPartitionedCall/jax2tf_main_/vmap/vmap/pjit_matmul_/ExpandDims", "shape": [3, 1], "dtype": "float32"}, {"name": "StatefulPartitionedCall/jax2tf_main_/vmap/vmap/pjit_norm_/Sum_1/reduction_indices", "shape": [1], "dtype": "int32"}, {"name": "StatefulPartitionedCall/jax2tf_main_/vmap/vmap/pjit_cross_/clip_by_value_3", "shape": [1], "dtype": "int32"}, {"name": "StatefulPartitionedCall/jax2tf_main_/vmap/vmap/pjit_cross_/add_3", "shape": [1], "dtype": "int32"}, {"name": "StatefulPartitionedCall/jax2tf_main_/vmap/vmap/pjit_cross_/ones_like_3", "shape": [1], "dtype": "int32"}, {"name": "StatefulPartitionedCall/jax2tf_main_/vmap/vmap/pjit_cross_/Reshape_8/shape", "shape": [1], "dtype": "int32"}, {"name": "StatefulPartitionedCall/jax2tf_main_/vmap/vmap/pjit_cross_/concat/axis", "shape": [], "dtype": "int32"}, {"name": "StatefulPartitionedCall/jax2tf_main_/vmap/vmap/pjit_norm_/Sum_2/reduction_indices", "shape": [1], "dtype": "int32"}, {"name": "StatefulPartitionedCall/jax2tf_main_/vmap/vmap/pjit_cross_/clip_by_value_9", "shape": [1], "dtype": "int32"}, {"name": "StatefulPartitionedCall/jax2tf_main_/vmap/vmap/pjit_cross_/add_9", "shape": [1], "dtype": "int32"}, {"name": "StatefulPartitionedCall/jax2tf_main_/vmap/vmap/pjit_cross_/ones_like_9", "shape": [1], "dtype": "int32"}, {"name": "StatefulPartitionedCall/jax2tf_main_/vmap/vmap/pjit_cross_/Reshape_17/shape", "shape": [1], "dtype": "int32"}, {"name": "StatefulPartitionedCall/jax2tf_main_/vmap/vmap/pjit_cross_/concat_1/axis", "shape": [], "dtype": "int32"}, {"name": "StatefulPartitionedCall/jax2tf_main_/vmap/vmap/pjit_fn_/Reshape_3/shape", "shape": [2], "dtype": "int32"}, {"name": "StatefulPartitionedCall/jax2tf_main_/vmap/vmap/pjit_fn_/Reshape_5/shape", "shape": [3], "dtype": "int32"}, {"name": "StatefulPartitionedCall/jax2tf_main_/vmap/vmap/pjit_norm_/Sum_3/reduction_indices", "shape": [1], "dtype": "int32"}, {"name": "StatefulPartitionedCall/jax2tf_main_/vmap/vmap/pjit_true_divide_/Reshape/shape", "shape": [3], "dtype": "int32"}, {"name": "StatefulPartitionedCall/jax2tf_main_/vmap/vmap/pjit__lambda__/BroadcastTo_1", "shape": [1, 1, 3], "dtype": "float32"}, {"name": "StatefulPartitionedCall/jax2tf_main_/vmap/vmap/pjit_norm_/Sum_4/reduction_indices", "shape": [1], "dtype": "int32"}, {"name": "StatefulPartitionedCall/Const_25", "shape": [], "dtype": "float32"}, {"name": "StatefulPartitionedCall/jax2tf_main_/vmap/vmap/pjit_fn_/Reshape_9/shape", "shape": [3], "dtype": "int32"}, {"name": "StatefulPartitionedCall/jax2tf_main_/vmap/vmap/pjit__lambda__/BroadcastTo_3", "shape": [1, 1, 3], "dtype": "float32"}, {"name": "StatefulPartitionedCall/jax2tf_main_/vmap/vmap/pjit_norm_/Sum_5/reduction_indices", "shape": [1], "dtype": "int32"}, {"name": "StatefulPartitionedCall/Const_30", "shape": [], "dtype": "float32"}, {"name": "StatefulPartitionedCall/jax2tf_main_/vmap/vmap/pjit_fn_/Reshape_12/shape", "shape": [3], "dtype": "int32"}, {"name": "StatefulPartitionedCall/jax2tf_main_/vmap/vmap/pjit__lambda__/BroadcastTo_5", "shape": [1, 1, 3], "dtype": "float32"}, {"name": "StatefulPartitionedCall/jax2tf_main_/vmap/vmap/pjit_norm_/Sum_6/reduction_indices", "shape": [1], "dtype": "int32"}, {"name": "StatefulPartitionedCall/Const_33", "shape": [], "dtype": "float32"}, {"name": "StatefulPartitionedCall/jax2tf_main_/vmap/vmap/pjit_fn_/Reshape_15/shape", "shape": [3], "dtype": "int32"}, {"name": "StatefulPartitionedCall/jax2tf_main_/vmap/vmap/pjit__lambda__/BroadcastTo_7", "shape": [1, 1, 3], "dtype": "float32"}, {"name": "StatefulPartitionedCall/jax2tf_main_/vmap/vmap/pjit_norm_/Sum_7/reduction_indices", "shape": [1], "dtype": "int32"}, {"name": "StatefulPartitionedCall/Const_36", "shape": [], "dtype": "float32"}, {"name": "StatefulPartitionedCall/jax2tf_main_/vmap/vmap/pjit_fn_/Reshape_18/shape", "shape": [3], "dtype": "int32"}, {"name": "StatefulPartitionedCall/jax2tf_main_/vmap/vmap/pjit__lambda__/BroadcastTo_9", "shape": [1, 1, 3], "dtype": "float32"}, {"name": "StatefulPartitionedCall/jax2tf_main_/vmap/vmap/pjit_norm_/Sum_8/reduction_indices", "shape": [1], "dtype": "int32"}, {"name": "StatefulPartitionedCall/Const_39", "shape": [], "dtype": "float32"}, {"name": "StatefulPartitionedCall/jax2tf_main_/vmap/vmap/pjit_fn_/Reshape_21/shape", "shape": [3], "dtype": "int32"}, {"name": "StatefulPartitionedCall/jax2tf_main_/vmap/vmap/pjit__lambda__/BroadcastTo_11", "shape": [1, 1, 3], "dtype": "float32"}, {"name": "StatefulPartitionedCall/jax2tf_main_/vmap/vmap/pjit_norm_/Sum_9/reduction_indices", "shape": [1], "dtype": "int32"}, {"name": "StatefulPartitionedCall/Const_42", "shape": [], "dtype": "float32"}, {"name": "StatefulPartitionedCall/jax2tf_main_/vmap/vmap/pjit_fn_/Reshape_24/shape", "shape": [3], "dtype": "int32"}, {"name": "StatefulPartitionedCall/jax2tf_main_/vmap/vmap/pjit__lambda__/BroadcastTo_13", "shape": [1, 1, 3], "dtype": "float32"}, {"name": "StatefulPartitionedCall/jax2tf_main_/vmap/vmap/pjit_norm_/Sum_10/reduction_indices", "shape": [1], "dtype": "int32"}, {"name": "StatefulPartitionedCall/Const_45", "shape": [], "dtype": "float32"}, {"name": "StatefulPartitionedCall/jax2tf_main_/vmap/vmap/pjit_fn_/Reshape_27/shape", "shape": [3], "dtype": "int32"}, {"name": "StatefulPartitionedCall/jax2tf_main_/vmap/vmap/pjit__lambda__/BroadcastTo_15", "shape": [1, 1, 3], "dtype": "float32"}, {"name": "StatefulPartitionedCall/jax2tf_main_/vmap/vmap/pjit_norm_/Sum_11/reduction_indices", "shape": [1], "dtype": "int32"}, {"name": "StatefulPartitionedCall/Const_48", "shape": [], "dtype": "float32"}, {"name": "StatefulPartitionedCall/jax2tf_main_/vmap/vmap/pjit_fn_/Reshape_30/shape", "shape": [3], "dtype": "int32"}, {"name": "StatefulPartitionedCall/jax2tf_main_/vmap/vmap/pjit__lambda__/BroadcastTo_17", "shape": [1, 1, 3], "dtype": "float32"}, {"name": "StatefulPartitionedCall/jax2tf_main_/vmap/vmap/pjit_norm_/Sum_12/reduction_indices", "shape": [1], "dtype": "int32"}, {"name": "StatefulPartitionedCall/Const_51", "shape": [], "dtype": "float32"}, {"name": "StatefulPartitionedCall/jax2tf_main_/vmap/vmap/pjit_fn_/Reshape_33/shape", "shape": [3], "dtype": "int32"}, {"name": "StatefulPartitionedCall/jax2tf_main_/vmap/vmap/pjit__lambda__/BroadcastTo_19", "shape": [1, 1, 3], "dtype": "float32"}, {"name": "StatefulPartitionedCall/jax2tf_main_/vmap/vmap/pjit_norm_/Sum_13/reduction_indices", "shape": [1], "dtype": "int32"}, {"name": "StatefulPartitionedCall/Const_54", "shape": [], "dtype": "float32"}, {"name": "StatefulPartitionedCall/jax2tf_main_/vmap/vmap/pjit_fn_/Reshape_36/shape", "shape": [3], "dtype": "int32"}, {"name": "StatefulPartitionedCall/jax2tf_main_/vmap/vmap/jvp/pjit__lambda__/BroadcastTo_1", "shape": [1, 1, 3], "dtype": "float32"}, {"name": "StatefulPartitionedCall/jax2tf_main_/vmap/vmap/transpose/jax2tf_main_/vmap/vmap/jvp/pjit_absolute_/BroadcastTo_2", "shape": [92, 92, 3], "dtype": "float32"}, {"name": "StatefulPartitionedCall/jax2tf_main_/vmap/vmap/pjit_norm_/Sum_14/reduction_indices", "shape": [1], "dtype": "int32"}, {"name": "StatefulPartitionedCall/jax2tf_main_/vmap/vmap/pjit_true_divide_/Reshape_1/shape", "shape": [3], "dtype": "int32"}, {"name": "StatefulPartitionedCall/jax2tf_main_/vmap/vmap/pjit_true_divide_/truediv", "shape": [3], "dtype": "float32"}, {"name": "StatefulPartitionedCall/jax2tf_main_/vmap/transpose/perm", "shape": [2], "dtype": "int32"}, {"name": "StatefulPartitionedCall/jax2tf_main_/pjit_atleast_3d_/Reshape_2/shape", "shape": [3], "dtype": "int32"}, {"name": "StatefulPartitionedCall/jax2tf_main_/concat/axis", "shape": [], "dtype": "int32"}, {"name": "StatefulPartitionedCall/jax2tf_main_/vmap/vmap/pjit_cross_/Reshape_7", "shape": [1], "dtype": "float32"}, {"name": "ConstantFolding/StatefulPartitionedCall/jax2tf_main_/vmap/vmap/pjit_fn_/AddV2_2-broadcastto_shape-0", "shape": [3], "dtype": "int32"}]}]}